src/models/car_ppo_sgld_halfcheetah.model (torch, 147684 bytes, 36 tensors)

affine_layers.0.weight f4 [64, 17]
000000 d9 9a 65 bf 0d 91 35 3e 63 a0 36 bd a7 5d d5 be
       -0.89689404 0.17731114 -0.04458655 -0.41673014
000010 c6 98 aa bd dd 0d e1 be c7 cb 12 be cb 9e f5 bd
       -0.083299205 -0.4395589 -0.14335547 -0.11993178
000020 fd 4e 80 3d a0 03 48 3d 61 39 38 3f f4 5f 86 3e
       0.06265066 0.048831582 0.71962553 0.2624508
000030 39 ff 1d 3e cb e8 1f 3d 71 f7 ab 3e e2 ba a8 3e
       0.15429391 0.039040368 0.3358722 0.3295508
000040 a1 60 c6 bd 2e f9 6f 3e 8d 84 98 be 55 b9 96 be
       -0.09686399 0.23434898 -0.29788628 -0.29438272
000050 1b 90 62 3e ad d6 ff bd 41 81 e6 3e 06 dc 2f be
       0.22125284 -0.12492118 0.45020488 -0.17173776
000060 b3 bd cc bd bd 56 06 bc 04 ff 0a 3e 8e 34 83 bf
       -0.0999712 -0.008199391 0.13573843 -1.0250413
000070 d1 13 ea bd 96 60 9c be 99 f6 ab bd 57 87 49 bf
       -0.11429561 -0.3054244 -0.08396644 -0.7872214
000080 42 3a e8 be 51 b6 48 be a7 01 7a 3f 92 d2 35 3f
       -0.45356947 -0.19600798 0.9765877 0.7102443
000090 b6 f1 20 3e 46 8b 98 3e ff 4b a2 ba 64 03 71 be
       0.15717205 0.29793757 -0.0012382268 -0.2353645
0000a0 1a 86 3a be 82 da 21 3c 11 94 31 bf 04 db f1 3e
       -0.18215218 0.0098787565 -0.69366556 0.47237408
0000b0 a0 96 99 bd be 86 9a 3e 67 9a 18 3e 56 d6 ad 3c
       -0.074994326 0.30180925 0.1490265 0.021220367
0000c0 ce 47 38 3e e7 98 80 3c ee 34 12 3d 66 a8 88 bd
       0.17996141 0.01569791 0.03569501 -0.066727445
0000d0 83 db 23 3f bd 6e aa 3e de 0c 63 3e c4 c4 09 be
       0.64006823 0.33287612 0.22172877 -0.13453966
0000e0 10 26 f3 bb 27 e0 ea bd ed c9 d6 3d 00 26 0d 3f
       -0.007420309 -0.11468535 0.10487733 0.5513611
0000f0 15 0a cf be ea 95 a7 3e 38 c6 4e be 26 49 90 bb
       -0.4043738 0.32731563 -0.20192802 -0.004403251
000100 b7 23 6a bd bf 4d b0 bc e6 40 23 3f 0f 2e 15 3e
       -0.057162967 -0.021521447 0.637709 0.14568351
000110 0e 24 45 3f 73 5f 7d be 23 93 6f be 7c f0 8d bd
       0.7700814 -0.24743442 -0.23395972 -0.069306344
000120 cd 22 86 be 2a 2f 0a 3d 03 65 6a be 6f 8b 39 be
       -0.26198426 0.033736385 -0.22890095 -0.18119596
000130 cb c3 3c 3d 62 60 22 3e 12 22 40 3e 9c 22 9d be
       0.04608516 0.1585708 0.18762997 -0.30690467
000140 e6 b5 d4 3b 80 e5 92 3d 3d f4 8d 3d ba f4 cd 3d
       0.0064914105 0.0717268 0.069313504 0.100564435
000150 6f 05 2c bd 00 98 bb 3f f0 fc 0d bf b4 60 fa be
       -0.04199737 1.4655762 -0.55464077 -0.48901904
000160 38 8f 23 3d 92 4b 69 be ca c3 7d be 1e eb 17 be
       0.039931506 -0.22782734 -0.24781719 -0.14835784
000170 96 f1 dc 3c a5 de df be 68 97 7c 3f ac e4 e7 be
       0.026970666 -0.43724552 0.9866853 -0.4529165
000180 57 a4 82 be ed 6a 33 be 85 48 19 bd ca d1 35 3f
       -0.25516006 -0.17521258 -0.037422676 0.7102324
000190 f0 c6 c7 3d 37 79 ce bd 55 9e b2 3f 5d c2 50 3f
       0.09754741 -0.10081714 1.3954569 0.81546575
0001a0 b7 33 e5 be e5 4e 8a 3e 22 41 5f be 94 e9 2f 3f
       -0.44766018 0.27013317 -0.2180219 0.68715787
0001b0 69 50 b4 3d f5 c9 13 3d 9d 63 d6 3e bb a0 bf 3b
       0.088043995 0.036081273 0.41872874 0.005848018
0001c0 7f 1a e1 3e e7 13 17 3f 52 a7 c3 3e bd 9f a8 3e
       0.43965527 0.59014744 0.38213593 0.3293437
0001d0 07 99 3e be 7e 14 87 be 9a 87 a1 bd a9 d5 5f 3e
       -0.18613063 -0.26382822 -0.07887192 0.21858849
0001e0 11 be 54 3f 66 8c c3 3d df 86 ca 3d 84 06 7a bb
       0.8310252 0.09548263 0.09889006 -0.0038150856
0001f0 f0 e1 8d 3e dc 3e d2 be 4c 86 e9 3d 5e 55 f2 3e
       0.2771144 -0.41063583 0.11402568 0.47330755
000200 a7 20 ed bd e2 59 cf 3e ba a8 04 3d 8e b4 da bd
       -0.115784936 0.40498263 0.032387473 -0.10678969
000210 67 ce 78 3d d6 5c 9a be fd f5 50 3d b0 b0 39 bb
       0.060743716 -0.30148953 0.051015843 -0.0028334074
000220 b2 eb dd be b9 1e 10 3e 1f 59 8f be 6e 05 05 3e
       -0.43343884 0.1407422 -0.27997681 0.12990353
000230 a7 a5 53 be 2a 64 19 3f 2c 2c cf 3e ac ff e4 3d
       -0.2066866 0.59918463 0.40463388 0.11181578
000240 8f f5 24 3f 42 93 cd bb ec d5 8f be 8a eb 26 3d
       0.6443719 -0.006273658 -0.28092897 0.04075197
000250 2b 18 b9 3d 1e 5a 06 be cc 8a 07 bf dd 47 75 be
       0.09037813 -0.13120314 -0.5294616 -0.23953195
000260 b4 c0 44 3c 4d 45 b3 3e a5 ac 27 3f 22 73 10 3c
       0.012008835 0.3501381 0.6549781 0.008816512
000270 2a 8c 92 be dd da 03 be 0e 21 34 3e 49 fc 23 3e
       -0.28622562 -0.12876458 0.17590734 0.16014208
000280 6c 25 25 be 39 f4 92 3e 53 9a 64 bf fd ec 05 3f
       -0.16127557 0.28701952 -0.8929798 0.5231474
000290 8c 16 9b 3e 76 79 b4 3e 7a 43 df 3b fd ab 31 be
       0.3029064 0.35248917 0.0068134638 -0.17350765
0002a0 6c 31 89 3d 79 1c a1 3d c5 3e 9f bf 31 d2 97 3e
       0.066988796 0.07866759 -1.2441031 0.2965255
0002b0 94 4a a6 be 7d d9 48 3e 5f ad 9d be a2 b2 81 be
       -0.32478774 0.19614215 -0.30796334 -0.253316
0002c0 17 fc 9d 3d b4 62 e9 3e 7c 19 29 3e 87 dc 17 be
       0.07714098 0.45583117 0.16513628 -0.14830218
0002d0 21 e1 ae 3d 45 7e e3 3e ce d7 8e 3d ea 8a d7 bc
       0.08539034 0.44432274 0.06974755 -0.026311357
0002e0 8f 68 e0 be 05 5b 03 bc 4e 84 28 be b4 57 75 be
       -0.43829772 -0.008017306 -0.1645672 -0.23959237
0002f0 7f 4d 7e 3f 00 5b 9b be b2 ad eb 3d ff 94 eb bd
       0.99337 -0.30342865 0.11507739 -0.11503028
000300 11 e5 05 be c4 6b 00 bd 0a c7 8d be 42 99 c5 3e
       -0.13075663 -0.031352773 -0.27690917 0.3859349
000310 ba 41 c1 3c d0 28 db bd 98 ca 95 3e b9 b1 76 be
       0.023590911 -0.10701144 0.2925613 -0.24091233
000320 28 69 fd bc ed 38 35 bc 0f 47 0a be ac 0e ad 3c
       -0.030933931 -0.011060935 -0.13503669 0.02112516
000330 ac 7a 09 3f 5e b7 9b be e8 48 a6 bc 3f 1d 17 be
       0.5370281 -0.30413336 -0.020298436 -0.1475725
000340 44 b8 e3 3d 92 f5 ee bd 51 c5 e8 3d c9 a6 37 3d
       0.1111913 -0.116679326 0.1136576 0.044836793
000350 d3 5a 2b 3f 49 87 af 3e b1 21 9b be 22 f6 cf bd
       0.6693546 0.34282902 -0.30299142 -0.10154368
000360 b1 7c 3b 3e 30 7d 3a 3d 85 73 26 3e dc 4f 49 3e
       0.18309285 0.045529544 0.16255005 0.1965937
000370 c6 68 29 be db 57 d7 3d c6 26 a6 3d ce db 13 bc
       -0.16543874 0.10514804 0.08112864 -0.0090245735
000380 45 04 29 3d 9c 6c 03 bc 41 3a b3 3d 8a fc a4 bb
       0.041263837 -0.0080215 0.087513454 -0.005034988
000390 90 c3 a2 3c 52 52 6d 3f ab 9a dc bd 50 a6 70 bd
       0.019868642 0.92703736 -0.10771688 -0.058752358
0003a0 b0 bb 0a bf c1 bd 89 3c 77 00 02 be fe 19 21 be
       -0.5419264 0.016814115 -0.1269549 -0.15732571
0003b0 a4 0c 80 be 60 54 54 bc c1 64 bb 3d af fa 29 be
       -0.25009644 -0.01295957 0.09150077 -0.16599534
0003c0 60 6d 63 3d 52 0c 05 be 13 bb 0e be 77 f4 a8 be
       0.05552423 -0.12992981 -0.1393855 -0.32999012
0003d0 9e ed 17 3c 3f 9f 81 bd 91 6c 5d 3f c0 46 20 3b
       0.009272961 -0.06329202 0.86493784 0.0024456233
0003e0 aa 46 07 be 71 03 85 be ec 14 3b bd b5 cf a7 be
       -0.1321055 -0.25979188 -0.04567425 -0.32775655
0003f0 4a 57 84 bc 33 41 c1 be b1 3b 31 3d 84 9d be be
       -0.016154904 -0.37745056 0.043269817 -0.3722955

affine_layers.0.bias f4 [64]
000000 53 ee f3 3e b3 e5 75 3f 8e 37 ba 3e eb 94 90 be
       0.47642764 0.9605362 0.3637051 -0.28238615
000010 76 ed da 3f 2b ad e7 bd e1 be ab 3e 01 cc bf 3f
       1.7103717 -0.11312326 0.33544067 1.4984132
000020 6d 67 8a be 5d e8 cd 3f 30 54 a1 bf 2f 9d 6a bf
       -0.27032033 1.6086537 -1.2603817 -0.91646093
000030 dd 19 1a 3f 05 ab 69 bf 1e 9e 96 3e 72 8e 54 3f
       0.60195714 -0.9127658 0.2941751 0.83029854
000040 98 73 5c 3f b1 7a 84 3f 8c 25 86 bf 71 52 89 bf
       0.8611388 1.0349942 -1.0480208 -1.0728284
000050 3d 47 d2 bf 1b 2e 7e 3f 9f 15 da 3f 2c c7 31 bf
       -1.642799 0.992891 1.7037848 -0.6944454
000060 8f ef 9d bf 1c 1e e8 3e 7c 08 ca bf dc ed d7 3f
       -1.2338732 0.45335472 -1.5783839 1.6869464
000070 44 36 17 bf 7e 9f f5 bf ec 50 a1 be d5 3f 83 bd
       -0.5906718 -1.9189298 -0.3150705 -0.06408659
000080 7c f9 a7 3f 4f d2 45 3f 6c 1b b3 be 1c 75 12 be
       1.3123012 0.7727403 -0.3498186 -0.14302486
000090 a7 cd 71 3e 82 50 89 3f 04 22 2e be 79 38 0d 3f
       0.23613606 1.0727694 -0.17005163 0.55164295
0000a0 d9 b6 2c bf 5e 5f b8 be 37 23 7c 3f 61 a0 bf bd
       -0.67466503 -0.3601026 0.98491234 -0.09356762
0000b0 1f 2d 58 3f 08 3f 23 bf 38 30 13 bf da 7e 2a 3f
       0.8444385 -0.63768053 -0.5749545 0.6659981
0000c0 1f bf 4f bf 51 8b 21 3f 26 84 ef 3d c1 8d 95 be
       -0.81151 0.63103205 0.11695127 -0.29209712
0000d0 1b 6b 8c 3f 9c 85 a2 be 78 90 a1 bf bd 4b c3 3f
       1.0970186 -0.3174256 -1.2622213 1.5257488
0000e0 60 30 8d bf a5 89 ba 3e a8 c8 b5 bf 7e d2 06 bf
       -1.1030388 0.3643314 -1.420186 -0.52664936
0000f0 3d 47 73 bf 24 24 01 bf 8b b6 b9 bf f4 4c 9f 3e
       -0.95030576 -0.5044577 -1.4508833 0.31113398

affine_layers.1.weight f4 [64, 64]
000000 44 2f 9c be 5a 29 99 3e f2 70 6b be 0c 98 b4 3e
       -0.3050481 0.2991436 -0.22992304 0.35272253
000010 f4 98 b2 be ad 46 7c be 12 5f bf be 57 4b 5d 3e
       -0.3488232 -0.24636336 -0.3737722 0.21610771
000020 20 04 83 3e f7 4e b7 3e 56 b7 2d 3e ea dc 2d 3f
       0.25589085 0.35802433 0.16964468 0.67915213
000030 2a 18 13 3e 9b 0e 25 3f 05 2b 52 3e cb da a7 3b
       0.14364687 0.6447541 0.20524223 0.0051225177
000040 42 03 c0 3e f9 b3 14 3f cc c7 b4 be c8 c8 39 bf
       0.37502486 0.58087116 -0.35308683 -0.7257199
000050 c9 74 d8 be bc a1 a2 be 45 f9 25 3d 8d d3 99 3d
       -0.422766 -0.3176402 0.040520925 0.07511053
000060 4e 86 fb bd 0f e1 a1 3e 3b 91 79 3e 4c 89 d1 3e
       -0.12281476 0.3161702 0.24371807 0.40925062
000070 47 b7 0f be 96 b1 3a 3e af 00 07 bf ff f9 c2 bd
       -0.14034759 0.18231806 -0.5273542 -0.09520339
000080 3f 37 86 3e 37 b3 0f bf 7a 4d d3 3d 20 7d a3 3e
       0.26214024 -0.56132835 0.10317512 0.319314
000090 8e c4 8e be 41 9e 89 3e 47 ee 26 bb ca d4 95 ba
       -0.27884334 0.2687855 -0.0025471614 -0.0011431214
0000a0 64 d8 ad be 49 8d 82 be 3b 1d 85 3e 1f df 0e 3e
       -0.33954155 -0.25498417 0.25998864 0.13952301
0000b0 50 e8 3b be 47 85 19 bf 4c da 11 bf 6f 10 7c 3e
       -0.18350339 -0.5996899 -0.5697372 0.24615644
0000c0 44 f0 1e bf f6 1a 1d 3d f4 6c fa be ca fb 8c be
       -0.62085366 0.03835579 -0.4891125 -0.2753585
0000d0 28 da 3b 3d da b9 62 3d 3f fa c2 be 2d f3 d8 be
       0.045862347 0.055353023 -0.38081548 -0.42373028
0000e0 fa 8b 93 3e 95 03 59 3c 17 e4 1e bf 57 d4 07 bd
       0.2881773 0.013245483 -0.6206679 -0.033161487
0000f0 2d 8d 0a 3e 44 c5 ff be 0f a4 81 bf 26 d4 58 3d
       0.13530417 -0.4995519 -1.0128192 0.052936696
000100 d2 a6 da be e7 da 5b be a6 e1 96 3d fa c5 85 3d
       -0.427054 -0.21470223 0.07367258 0.06531902
000110 09 89 41 3d cb 77 5b 3f b4 4f 2f 3f 37 2e 26 bf
       0.047249828 0.85729665 0.6848099 -0.6491427
000120 22 31 a2 be b8 3f 11 bf f9 76 4d be d3 04 d4 bd
       -0.3167811 -0.5673785 -0.20064916 -0.10352483
000130 d8 34 2e 3e 49 e3 af bd 4f 18 38 3e 7a 6b 8b bd
       0.17012346 -0.08588273 0.17978023 -0.06807609
000140 ef 85 88 bf 91 05 83 bf ee e5 01 be e6 12 99 3e
       -1.0665873 -1.0236074 -0.12685367 0.2989723
000150 cf 5e 75 3e cf d4 b5 be ee 26 d0 3e 81 11 fb be
       0.23961948 -0.35513923 0.406547 -0.49036792
000160 2f f9 27 3f 7a e4 23 3d 1b af 79 3f 53 a3 26 bf
       0.656146 0.040012814 0.97532815 -0.65092963
000170 a1 d7 80 3e cf 03 b8 3e f6 5b 05 3d 91 65 02 3f
       0.25164512 0.35940406 0.032558404 0.5093623
000180 57 2b 99 be c9 54 52 3c b3 73 ca 3e aa 0f d4 3c
       -0.29915878 0.012837597 0.39541396 0.025886375
000190 12 7a d1 3e 50 49 22 bf 86 44 29 3f 2a 07 ee 3b
       0.40913445 -0.63393116 0.66120183 0.0072640376
0001a0 e9 06 bd 3c 7f d6 b7 3e 38 e1 41 3f 65 e2 85 be
       0.023074584 0.35905835 0.7573428 -0.26149288
0001b0 f0 e5 b0 3e 00 92 3a 3e 41 03 09 3f 7e cf 8d be
       0.34550428 0.18219757 0.5352059 -0.27697366
0001c0 b9 bf de 3d 15 8a 34 bf da 46 3f 3e 74 38 fb be
       0.10876412 -0.70523196 0.18679371 -0.49066508
0001d0 82 ca 6b be e8 1c ce 3e 02 bf 3b be c8 d2 a3 3d
       -0.2302647 0.4025643 -0.18334582 0.07999188
0001e0 60 66 0f 3c 23 48 72 be 39 39 2d 3f a5 40 29 3e
       0.008752435 -0.2366033 0.6766544 0.16528566
0001f0 da 7e 59 bf 15 e4 fd 3e b0 a2 6a 3f 5c 48 08 bd
       -0.84959185 0.49588075 0.9165449 -0.033272132
000200 71 23 01 3e fd 23 14 3e 7b 3b f0 be 8e f7 2a 3f
       0.12611176 0.14466853 -0.4692038 0.6678399
000210 59 0b ae be ad ad a5 3e 38 d4 26 bd fd 47 d5 bd
       -0.33993033 0.32359067 -0.04072973 -0.10414121
000220 48 1f 85 bd 15 bf ed be 80 c9 c6 3c c2 48 be be
       -0.06500107 -0.46434847 0.024266005 -0.37164885
000230 5b 55 e6 be c2 9b b5 3e 04 21 ec be 8d b6 1f be
       -0.44986996 0.35470396 -0.4611894 -0.15596981
000240 77 64 8d bf 96 90 ad be 20 73 8f be 73 c1 50 3f
       -1.1046284 -0.33899373 -0.2801752 0.8154518
000250 d2 ac 64 bc f0 6d 2d be 00 8d 2b 3f 38 0d b0 be
       -0.013957219 -0.16936469 0.67012024 -0.34385085
000260 f1 8f 21 3e 32 0e 9d bd b9 4e 56 3d a1 66 84 bd
       0.15777566 -0.07668723 0.05232117 -0.064648874
000270 92 cf a4 3e ba a4 bb 3e 87 3d e3 3d 41 d9 e9 3e
       0.32189614 0.36649114 0.1109572 0.45673564
000280 2f 8b 75 3e f4 43 09 3f 13 ba 1c 3f 35 42 77 3e
       0.23978876 0.53619313 0.61221427 0.2414635
000290 d8 a2 62 bf c8 c0 e2 bd 1c 31 55 bc c6 d1 fe 3e
       -0.8852973 -0.11071926 -0.013012197 0.4976942
0002a0 d1 3c 00 be c7 6e c4 be ea 3c e4 bd b6 a4 a6 3f
       -0.125232 -0.38365766 -0.11144431 1.3019016
0002b0 aa b5 0c bf 54 3d 0e 3d 07 2e 14 3f d5 bb 89 bd
       -0.549647 0.034726456 0.5788273 -0.06725279
0002c0 bb 07 0f be a3 ec 9e be 76 f8 a1 be 36 24 46 3d
       -0.13967793 -0.31039914 -0.31634873 0.048374377
0002d0 f8 06 8e be 19 37 34 3e 8f 3e 6f 3e 8d b8 b7 be
       -0.27739692 0.17599143 0.23363708 -0.3588299
0002e0 7c f1 b1 be d5 53 4f 3d b4 d0 1d 3f cc f5 91 3e
       -0.3475455 0.050617058 0.6164658 0.2850784
0002f0 21 49 a7 be d9 b2 08 bc af ac 0a 3e 8e 30 6b 3e
       -0.3267298 -0.008343422 0.13542436 0.22967741
000300 39 7a c6 3d 60 de 51 3e 9b 15 79 bf ea ac 36 3f
       0.09691281 0.20494986 -0.9729859 0.71357596
000310 13 68 c3 3d 7b 97 33 bf 33 27 17 3e dd 72 8a 3e
       0.09541335 -0.70153016 0.14761047 0.2704076
000320 1a fd 06 3e 18 ea ea 3e 87 7d ba 3e 31 75 8c 3f
       0.13182488 0.45881724 0.36423895 1.0973264
000330 28 4b 5e 3e 04 5d f1 3e ef bd 36 3f 87 16 52 be
       0.21708357 0.47141278 0.71383566 -0.20516406
000340 d0 50 a9 be 41 d9 2f 3f 98 93 f1 3d c0 1a 41 bf
       -0.33069468 0.6869088 0.117957294 -0.7543144
000350 56 49 1b bc bb a7 d2 bc f3 17 b6 be b4 db 29 3e
       -0.009477934 -0.025714746 -0.35565147 0.16587716
000360 42 34 f2 3e 16 dc db be e4 5a 36 3e 5d d1 2b be
       0.47305495 -0.4294135 0.1780811 -0.16779085
000370 ad ed 13 be 76 d5 44 3e ad 85 80 be d1 99 b8 be
       -0.14446135 0.19222054 -0.25101987 -0.36054853
000380 d7 16 a1 be f7 6d a4 be 19 58 06 be 0d df 9c 3e
       -0.31462738 -0.32115147 -0.13119544 0.30638924
000390 d4 2b 89 be 17 a6 f3 3e fc b0 82 bf fb 8f d9 bd
       -0.2679125 0.47587654 -1.0210261 -0.10623165
0003a0 f5 2e 3d be d7 7b 7c bd d3 b5 1c 3f 66 b2 98 bf
       -0.18474944 -0.06164154 0.6121494 -1.1929443
0003b0 36 d5 06 3e a6 21 13 3f 7d 6f f2 bd f9 f6 ab be
       0.13167271 0.5747322 -0.11837671 -0.33586863
0003c0 01 70 9a be 1e d4 cf 3e 25 4e 17 3f c4 b9 e5 be
       -0.30163577 0.4059152 0.59103614 -0.4486829
0003d0 cb 69 c4 be 9c 8e 4d bf 44 5b e5 3e 0e 47 f1 3d
       -0.38361964 -0.8029573 0.44796193 0.11781131
0003e0 50 a9 58 3e da cf c8 3e 2f 90 54 be 1d 3f 96 3e
       0.21158338 0.39221078 -0.20758127 0.29345027
0003f0 a1 4a aa be 2b 3d 19 3d cd dd 58 3e 9b 5d ab bd
       -0.33260062 0.03741185 0.2117836 -0.08367463

affine_layers.1.bias f4 [64]
000000 05 14 b0 3e c5 5a 9f be 3a 29 91 bd aa 82 e6 3c
       0.34390274 -0.3112394 -0.070879415 0.028138477
000010 f7 4a d4 3d b0 97 37 3e 8b 67 20 3e 33 8c b4 3e
       0.10365861 0.17928958 0.15664499 0.35263214
000020 a5 b1 c1 3e 01 98 2e 3d f7 96 5e bf 30 8c 9b be
       0.37830845 0.04262543 -0.86949104 -0.30380392
000030 ab 89 b5 3c 08 5c 84 be 81 bb 21 bf 33 a0 97 be
       0.022160372 -0.25851464 -0.63176733 -0.2961441
000040 ad fd 38 bf 8b 5c e9 bc 9a 29 7e 3e 99 6d 58 be
       -0.7226208 -0.02848651 0.24820557 -0.21135558
000050 87 92 27 bf ee 2b 89 3e e9 f7 1d be 6b 36 37 3e
       -0.6545796 0.26791328 -0.15426601 0.17891853
000060 0c ea a7 3d ec 92 03 bc 8e d1 72 be 86 a4 46 bd
       0.08198938 -0.008030634 -0.23712751 -0.048496746
000070 b4 f7 76 be 91 ee 51 bf e8 2c c1 be 0e c8 05 bc
       -0.24117929 -0.8200465 -0.37729573 -0.008165373
000080 af 73 4b be 89 1e ab 3e d7 a1 d9 bd 60 5b 1e 3e
       -0.19868349 0.33421734 -0.106265716 0.15464544
000090 7c 36 18 3d 26 6b 1c bf 99 33 66 3d e1 66 28 bd
       0.037161335 -0.61100996 0.05620155 -0.041113738
0000a0 85 6e 21 3f 4d d7 f6 bd d5 2d 8e bd 05 f0 86 be
       0.63059264 -0.12052784 -0.069423355 -0.26354995
0000b0 34 8f 8d 3e 95 ca b5 be 02 f1 6c 3f 9d a8 68 bf
       0.27648318 -0.3550612 0.9255525 -0.90882283
0000c0 4a fd 2d be 13 37 2d bd 9c 84 6d bf 91 2f e8 be
       -0.16991153 -0.04228885 -0.9278047 -0.4534879
0000d0 12 3d 9d be 23 cb 29 bf 55 6b 65 be 9e 37 38 3e
       -0.30710655 -0.6632559 -0.22404225 0.17989966
0000e0 01 9a f9 be 7f 50 63 3f 0c 4a a5 be d8 5c d4 bc
       -0.48750308 0.887947 -0.32283056 -0.025923178
0000f0 06 3a e7 be 75 21 83 be 3e 32 4e 3f eb 1a 87 be
       -0.45161456 -0.25611463 0.80545413 -0.26387724

final.weight f4 [1, 64]
000000 f4 a2 a2 3c ea 65 03 3d b0 74 24 bc 44 57 3e 3b
       0.019853093 0.032079615 -0.010037586 0.0029043714
000010 cb 49 98 bb e3 b1 3b 3c a5 6e df bc e8 91 ab 3c
       -0.0046474687 0.011455986 -0.02727444 0.020943597
000020 d4 24 f3 3c 30 4d 55 bc 31 1a 80 be 91 ec a5 bc
       0.029680647 -0.013018891 -0.25019982 -0.020254405
000030 81 6f 97 bc f0 2c 0c bd 66 92 1a be 1a b4 b7 3b
       -0.018485786 -0.034222543 -0.15094909 0.0056061866
000040 1d 61 45 be a8 81 20 bc 53 2f b9 3c e1 a4 03 bc
       -0.19275327 -0.009796537 0.022605574 -0.008034916
000050 6e 8b 21 be 20 f9 a7 bb 99 88 77 b9 fa 7f 89 3b
       -0.15775844 -0.0051261336 -0.00023606642 0.004196164
000060 33 ca 20 bb e6 cb 77 bc 9e c2 06 bd 69 c7 d1 3b
       -0.0024534583 -0.015124297 -0.032900445 0.0064019454
000070 05 6c 36 3c f7 32 d9 bd a3 0e 50 bc ae b9 3d 3c
       0.011134152 -0.10605424 -0.012698802 0.011579914
000080 de db 36 ba 02 46 c6 3c 49 d6 14 3c e4 c9 c4 3c
       -0.0006975512 0.024203304 0.009084293 0.02402205
000090 3c 7c 0f 3b 10 e1 74 bc f3 30 ae bb c8 0b 5d ba
       0.0021894118 -0.014946237 -0.005315894 -0.00084322365
0000a0 55 13 a3 3b fc ea 30 3c a0 f5 2b 3c a4 8e bc bc
       0.00497667 0.010798212 0.010495573 -0.023017235
0000b0 af f2 50 3c 7f b4 b0 bc 31 4b cf 3d d7 20 a2 be
       0.012753173 -0.021570442 0.101217635 -0.3166568
0000c0 d7 c8 47 bc fe 78 91 ba 4d f9 6b be 46 7f 85 bb
       -0.01219388 -0.001109868 -0.2304432 -0.00407401
0000d0 09 c7 2a bc 7b f2 5a bd b2 cf 9d 3b 9d 9d 03 3d
       -0.01042343 -0.053453904 0.004816019 0.032132734
0000e0 13 85 e7 bd a0 ae 8a 3e b2 dd df bc 07 90 62 bc
       -0.11304679 0.27086353 -0.027327392 -0.013828284
0000f0 fc 9a a3 bc 35 e3 e1 3b 44 64 3e 3e ab de 52 bc
       -0.019971363 0.0068935403 0.18592936 -0.012870471

log_stdev f4 [6]
000000 45 35 72 bf 84 d5 82 bf f4 a3 3b bf b6 98 62 bf
       -0.9461253 -1.022141 -0.7329705 -0.8851427
000010 44 18 67 bf b8 fe 59 bf
       -0.902714 -0.85154295

affine_layers.0.weight f4 [64, 17]
000000 0f 01 00 bf 3e 02 06 bd 73 b2 0c be 91 22 b6 bd
       -0.50001615 -0.032716982 -0.13739948 -0.08893312
000010 74 25 1b 3e 17 47 49 3d 9b bb a0 bd 29 6f 82 3d
       0.15151006 0.049140062 -0.07848283 0.06368858
000020 cb 0a 3c 3b 41 d1 9f be b5 aa d0 bd 38 4a 43 3b
       0.0028692957 -0.31214336 -0.1018881 0.0029798876
000030 89 8a 8a be 1a e7 a8 3e 31 3f a1 b8 4b f6 d1 bc
       -0.2705882 0.32988816 -7.6888486e-05 -0.025630137
000040 cf aa 66 3e a8 a5 cb bd a2 54 ee bc b8 7d 6e bd
       0.22526096 -0.09943706 -0.02909309 -0.058225363
000050 ba f1 d4 3d 8c 44 29 3c 94 e7 04 3f 19 ec fe bd
       0.10397668 0.010331284 0.5191586 -0.12447376
000060 7e dc 72 3d d4 cb c5 3c 30 24 04 bc 75 6c e3 bd
       0.05929231 0.024145044 -0.008065268 -0.11104671
000070 b7 b5 75 be ff 79 58 3d aa 82 7a 3d c5 9c 91 be
       -0.239951 0.05285072 0.061159767 -0.28439918
000080 bb 90 d1 bd 5e 6a 4a 3d ac 81 99 be 18 26 e5 be
       -0.10232683 0.049417846 -0.29981744 -0.44755626
000090 f2 2c af 3d 27 7f ea 3e 32 a5 67 bd 81 a4 96 bd
       0.085534945 0.45800135 -0.056554027 -0.073555954
0000a0 74 59 e2 bd 72 24 b3 3d 21 09 e8 3d 3b 95 5c be
       -0.11052218 0.08747186 0.11329866 -0.21541302
0000b0 f7 c5 b2 bd 85 27 64 3e f9 7a f1 bd 22 84 08 3e
       -0.08729165 0.222807 -0.11791033 0.13331655
0000c0 72 f3 05 be a7 6e 5e bd cb 27 4d be 9f 5c 36 be
       -0.13081148 -0.054304745 -0.20034711 -0.1780877
0000d0 11 aa 3c 3e de 40 57 bb ed 1c 25 bc ef d2 9a 3d
       0.1842425 -0.003284506 -0.010077697 0.07559764
0000e0 e5 fe a9 be 22 4d 07 3e 87 82 73 3c e3 42 14 be
       -0.33202282 0.13213018 0.014862663 -0.1447864
0000f0 f1 71 5a 3e cf f6 95 3e bf 13 4c 3c 2a ab e8 3d
       0.21332528 0.29289863 0.01245588 0.11360772
000100 cb 1a de 3d 7a 93 83 3e ad f4 ea 3d 89 3d af bd
       0.10844954 0.25698453 0.114724495 -0.08556659
000110 ed 19 c5 36 3b f1 0d 3f ed 8f b9 bd eb 94 45 be
       5.8740757e-06 0.55446213 -0.09060655 -0.19295089
000120 9d e1 41 be 74 ae 0c bd c1 52 89 bd 73 c7 ad 3e
       -0.18933721 -0.03434606 -0.06705237 0.3394123
000130 58 3c 6f be 9c 63 70 be 57 45 43 bd d9 af 29 bd
       -0.23362863 -0.23475498 -0.04767355 -0.041427467
000140 16 ea 41 3e 33 3c 0f ba 3f 97 5b be 4e 43 64 bd
       0.18936953 -0.00054639875 -0.21444415 -0.05572825
000150 9e 42 74 3d 49 f2 ff 3d 38 fa 77 be ab 76 9e be
       0.059633844 0.12497384 -0.24216545 -0.3094991
000160 53 98 79 3d 68 cb 9b be 30 41 0e be 38 51 88 be
       0.060936283 -0.30428624 -0.13892055 -0.26624465
000170 40 e3 19 3e 38 a5 b3 3d a1 6d b1 3d d8 19 a6 3c
       0.15028095 0.08771747 0.08663488 0.020275995
000180 6c ba 27 3e 21 ca 6a be 7e 91 02 3e 9f 1d 67 bd
       0.16379708 -0.22928669 0.12750813 -0.056424733
000190 90 57 52 bd f0 df 2d 3e 14 48 44 3e 80 59 57 be
       -0.051353037 0.16979957 0.1916812 -0.21030235
0001a0 6a 14 7f 3e 3f 71 3d 3e 6c 76 c7 3d df e2 6b 3d
       0.24910131 0.18500231 0.09739384 0.057589408
0001b0 fe ac 15 3d 0d 7f 76 3e 60 e9 64 be 8c bd a0 bd
       0.03654193 0.24071904 -0.2235465 -0.07848653
0001c0 7f 6c 4a bd ae 7b 20 3d 79 4d 78 3e 31 ea 65 3e
       -0.049419876 0.03918045 0.24248303 0.22452618
0001d0 99 e4 96 be 4e d9 65 3c aa 48 81 bd a5 1d 3e bd
       -0.2947128 0.01402886 -0.06312688 -0.04641499
0001e0 01 8b 5a be 02 e9 8b bd 2f ed 00 bc 34 c0 93 be
       -0.21342088 -0.06831552 -0.007869049 -0.28857577
0001f0 d8 93 27 3d 31 b2 8c 3e c6 dd 11 3d 1a 8e 2a be
       0.04091248 0.274797 0.03561189 -0.1665577
000200 b6 61 fb be f3 a5 65 3e 27 f8 84 3d b1 9b fb bc
       -0.49097985 0.22426586 0.06492644 -0.030713888
000210 11 b7 4c be f2 4e 9e 3e 56 08 8a 3d a7 8b de bd
       -0.1999171 0.30919605 0.06739871 -0.1086648
000220 19 d1 de 3e 4f 65 7c 3d e7 19 1a 3e 17 6a 8f 3b
       0.43518904 0.061620053 0.15048943 0.0043766606
000230 75 b4 79 be d3 e2 81 3e 07 56 46 3f 3b 7a 0f 3f
       -0.24385245 0.25368366 0.7747502 0.56045884
000240 96 9f 1d be cd 79 2a 3e 86 e3 84 bb 51 43 34 be
       -0.15392908 0.16648026 -0.004055443 -0.17603804
000250 c4 20 2e be 97 fe 34 3e e8 7f dd bd cb b8 cf 3c
       -0.17004687 0.17675243 -0.10815412 0.02535667
000260 c6 c3 0e bd 24 80 b1 3c 1a 8d aa 3e 2c d0 17 be
       -0.034854673 0.021667548 0.33310777 -0.14825505
000270 ee 64 b1 be 72 80 12 be 7b 20 8c 3e 17 23 0d be
       -0.34647316 -0.1430681 0.2736853 -0.13782917
000280 5b 73 55 be 43 2e 0d be 41 ec e7 3e f8 9a 2a 3e
       -0.20844786 -0.13787179 0.45297435 0.16660678
000290 28 ef 97 be aa b7 4f 3c 43 ef df bd 21 a8 a5 3e
       -0.2967465 0.012678066 -0.109343074 0.32354835
0002a0 e4 60 df 3d 5c 98 83 bd e6 06 97 be ec 04 55 3e
       0.10907152 -0.064255446 -0.2949745 0.20802659
0002b0 22 8c 7d 3e 66 02 26 3d 1a ae 8c 3e cd 7d 8d be
       0.24760488 0.04052963 0.2747658 -0.2763504
0002c0 5b d7 6b bd 8a 4d c6 3d 3a ec 35 be ab a2 f6 3d
       -0.057578426 0.09682758 -0.17765895 0.12042745
0002d0 4f 7a 0d bc 51 87 c1 3e ae d3 cb 3d 00 a0 eb 3c
       -0.008635118 0.3779855 0.09952484 0.028762817
0002e0 34 8c 59 bd 18 5c 3b be 12 74 39 be ce c5 38 3e
       -0.053112224 -0.1829685 -0.18110684 0.18044207
0002f0 56 8a a9 be 16 7b 03 be d5 8e aa bd 60 68 4a be
       -0.33113354 -0.12839922 -0.08328024 -0.19766378
000300 e0 39 da 3d 71 24 41 bd 79 3d 52 3e ad 76 9e 3d
       0.1065557 -0.047153894 0.20531262 0.07737479
000310 79 1a a5 3e 18 25 09 be ed 25 07 bd f8 86 83 3b
       0.3224676 -0.13393056 -0.032995153 0.0040138923
000320 2c e6 d2 3d 9a 22 2a 3e 92 46 85 3e 2e 5d d7 bd
       0.10297808 0.16614762 0.26030403 -0.105158195
000330 29 96 50 bd f5 84 23 be 0a d4 ef 3d 76 b2 f7 bd
       -0.050924454 -0.15968688 0.11710365 -0.120945856
000340 01 3d 19 3c 40 df 05 bc 30 a2 cb 3e 58 d0 5c 3e
       0.009352923 -0.008170903 0.39772177 0.21563852
000350 71 0a 30 be d5 b1 a7 3e 4e 49 fd be 37 6f 95 bd
       -0.17191483 0.32752863 -0.4946999 -0.07296603
000360 73 6d 5d be 66 71 25 3d b1 f5 19 bc a7 a7 3a 3e
       -0.21623783 0.04039135 -0.009396956 0.18228017
000370 2c 1b 8a bd a9 c4 78 3e d4 44 7c 3d f0 ff 20 3e
       -0.06743464 0.2429377 0.061589077 0.15722632
000380 d1 56 27 3e 03 af 34 3e 40 46 a4 bd 9c 38 78 3e
       0.16341712 0.17644887 -0.080212116 0.24240345
000390 18 b6 a6 3d b6 d2 3f 3c 39 7e d1 bd 04 62 4e 3d
       0.081402004 0.011707952 -0.10229153 0.050386444
0003a0 0a bc 79 3e e5 ef ce 3d 0f 1e 45 3d ee bb 16 be
       0.24388137 0.1010435 0.04812437 -0.14720127
0003b0 20 90 03 bf bb 4e 77 3e 0a 13 4b be 03 b0 da 3d
       -0.5139179 0.24151127 -0.19831482 0.10678103
0003c0 fa e1 88 be 0b dd c2 3d 25 65 95 bd 00 0d 00 be
       -0.26734906 0.09514817 -0.072946824 -0.12504959
0003d0 ce 49 e5 bd 2b d1 24 bc d8 ed cf 3d 17 af 19 3e
       -0.11195718 -0.010059635 0.10152787 0.15008198
0003e0 eb e9 8d 3d 77 56 a4 3e 79 44 82 be 6a 8a 08 be
       0.06929382 0.32097217 -0.25442865 -0.13334051
0003f0 b5 e1 4e 3d 13 8b 09 be 65 ab 96 3d 8c 86 2d be
       0.05050822 -0.13431959 0.0735691 -0.16945857

affine_layers.0.bias f4 [64]
000000 08 8a 76 bd 10 41 27 3c e1 9a 49 3e 66 5e 99 be
       -0.06019023 0.010208383 0.19687988 -0.29954833
000010 ba 74 4f be 58 58 a3 3e df 7c 2e bd ef 53 e1 3d
       -0.20259371 0.31903338 -0.042599555 0.11002337
000020 cb 97 be be 40 6f d3 3c 36 82 64 3d 78 3e ed 3d
       -0.37225184 0.025809884 0.05578824 0.115841806
000030 8b 95 7c be 86 fa 87 bd bb 8a 45 bd f9 f2 3f 3e
       -0.24666421 -0.066395804 -0.048228007 0.1874503
000040 83 80 26 3e 53 db eb bd ad fa 03 3d 65 a8 95 3d
       0.16259961 -0.11516442 0.032221485 0.07307509
000050 17 31 02 3e ca c4 c8 bd 3e f2 84 3e 8a 92 83 3e
       0.12714039 -0.098031595 0.25966066 0.25697738
000060 4e 88 c0 3e f7 e2 38 be e9 14 85 3e 76 06 f5 bd
       0.37603992 -0.1805533 0.25992516 -0.11964123
000070 4d a5 39 3e f2 ce 2c 3d 7a 75 b0 3d 77 27 e6 3d
       0.18129463 0.042189546 0.08616157 0.11237996
000080 a3 e2 aa 3d 40 18 2b be b0 2c a7 3e 5f 35 ab 3e
       0.08344009 -0.1670847 0.3265128 0.33439156
000090 aa 46 02 be 78 41 2e bd 14 45 9b 3c eb 0b 1d be
       -0.12722269 -0.042542905 0.018953837 -0.15336578
0000a0 a4 55 a9 bd 17 60 69 bd 35 cd 9c 3d 76 f8 09 3e
       -0.08268288 -0.056976404 0.07656328 0.13473687
0000b0 7c 45 89 be 2d 3f db 3d 8e 72 0f be 2d 3b a9 be
       -0.26810825 0.10705409 -0.14008543 -0.3305296
0000c0 ea 84 58 be e6 5e 58 3e 66 d1 fd bd 9b 5c 4c 3e
       -0.21144453 0.21129951 -0.12393455 0.19957201
0000d0 7f cb f9 3d c3 a7 b9 3d bc 4a 2c 3d dc bf 08 be
       0.12197017 0.09065201 0.04206346 -0.13354439
0000e0 7f 26 95 bc 2a 97 12 bf 9e 9a dd bc 5a cb b6 3e
       -0.018206833 -0.5726191 -0.027051266 0.3570202
0000f0 89 04 3d be 76 a5 3c 3e 93 57 4d be 49 c2 8a 3d
       -0.18458761 0.18422493 -0.20052938 0.06775338

affine_layers.1.weight f4 [64, 64]
000000 6c 1a b9 3d f0 62 51 3e bd 0e 1e be ae ee 04 be
       0.09038243 0.20447898 -0.1543531 -0.12981674
000010 11 2c 84 3d f6 76 79 bd 1e 41 c9 be 4e 5a 05 3d
       0.064537175 -0.060904466 -0.39307493 0.032556824
000020 65 81 17 bd 79 87 45 be 6d 09 52 3e e3 6d a7 3c
       -0.036988635 -0.1928996 0.20511408 0.02043814
000030 f1 d7 c4 bd 70 9d be be 03 72 a8 be 3f d0 a7 3d
       -0.096115 -0.3722949 -0.32899484 0.08194017
000040 97 10 12 3e 77 df 4c be 2a 66 87 bd 6d 01 7a bd
       0.14264141 -0.2000712 -0.06611283 -0.061036516
000050 5d 5a 75 3e 5a 1b 9a bd cf 9b 81 bd 3a 73 b5 be
       0.23960252 -0.07524748 -0.06328546 -0.35439473
000060 7e 64 73 3c 56 cd 3d 3d 53 b5 8b be b5 d6 b3 bd
       0.014855502 0.0463384 -0.27286777 -0.087811865
000070 61 93 88 3d db a1 2e 3e a5 63 66 3e a5 38 a4 3d
       0.06668735 0.1705393 0.22498949 0.080186166
000080 0a 8e d4 bd d7 ec 0f 3e 03 0c 3a be 26 67 ff 37
       -0.10378654 0.14055191 -0.18168645 3.0446401e-05
000090 55 ec 57 be 43 75 de 3b 9f c1 6e bd 5a 14 38 3d
       -0.21086247 0.006788881 -0.05829012 0.044941284
0000a0 0d c4 00 be 08 ea e9 bd fd 74 7f bd 65 58 92 bd
       -0.12574787 -0.11421591 -0.062367428 -0.07145766
0000b0 78 bc b0 bd 28 30 03 3f fd 8a e0 3d 4b 44 48 be
       -0.086296976 0.51245356 0.1096401 -0.19557302
0000c0 54 39 03 be 5d 3b a3 be d7 fa 8f be 76 16 18 3e
       -0.12814838 -0.31881228 -0.28121063 0.14852318
0000d0 01 89 74 3e 75 47 45 3c 7b 53 90 3e 9f 80 53 3e
       0.23880388 0.012040962 0.2818869 0.20654534
0000e0 7f 55 d9 bd 20 8b 14 be a3 8c b5 bd 01 d9 7e 3e
       -0.1061201 -0.14506197 -0.08864715 0.24887468
0000f0 d5 48 5c 3e 5b 8d ab bd bf 1f 81 be b9 05 65 3e
       0.21512158 -0.08376571 -0.25219533 0.22365464
000100 87 55 98 be 3c d5 90 bd b7 0b b4 bc 88 59 ef 3d
       -0.29752752 -0.07071921 -0.021978242 0.116869986
000110 11 c6 01 3e 77 3b 22 be 7f 55 99 bd 40 e8 5e be
       0.12673213 -0.15842997 -0.0748701 -0.21768284
000120 12 d1 37 bf f5 0e e0 3d 82 ab 53 bd 60 70 c6 bd
       -0.7180339 0.10940353 -0.051677234 -0.096894026
000130 5e d9 02 be e0 ed 98 be 8f f5 40 3e 15 cf 92 be
       -0.12778232 -0.29868984 0.18843673 -0.28673616
000140 8d c9 93 bd 32 5d 06 3e 93 f7 42 3d 1f b9 43 3e
       -0.07216177 0.13121489 0.047599386 0.19113587
000150 83 fb fc 3d cd be 7f be de a4 59 3c 94 c9 3c 3d
       0.123526596 -0.24975128 0.013283936 0.046090677
000160 7f f2 13 3e 57 3a 26 bd f1 bd a6 be aa 55 dc bd
       0.14447974 -0.04058298 -0.3256679 -0.107585266
000170 c1 c1 46 bd a4 eb 41 3d fa d7 17 be 57 c9 ac 3c
       -0.048524622 0.047343865 -0.14828482 0.0210921
000180 9b a0 d6 3d 38 55 8f 3e ed 2b d8 bd cb 74 33 bc
       0.10479852 0.27994704 -0.10555253 -0.010953139
000190 9e 6d 46 3e 99 c6 2c 3e a7 2a ab 3d 30 3e 2f be
       0.19377753 0.16872634 0.08357745 -0.17113566
0001a0 bd aa 6e 3e 0a 40 8e bd 74 f4 6d 3e dd 81 6d be
       0.23307319 -0.06945808 0.23237783 -0.2319407
0001b0 7d 5b 89 bd 77 a0 a7 be 1a 92 95 3e ac a5 90 be
       -0.06706903 -0.32739612 0.2921303 -0.28251398
0001c0 30 9e 45 3e 54 ae ba bc 8b 52 e5 bd 6c fd 0f 3e
       0.19298625 -0.022788204 -0.111973844 0.14061517
0001d0 1b 79 4d 3d 09 d1 16 be d1 31 be bd c6 8f 87 bd
       0.050164323 -0.14728178 -0.092868455 -0.066192195
0001e0 d2 e6 e9 bd 41 6f 22 3e 7d c1 34 be cd 71 6f be
       -0.114209786 0.15862752 -0.17651935 -0.23383255
0001f0 fd 30 39 3e c7 4b 2e be 93 93 69 3e 32 18 c9 3e
       0.18085094 -0.17021094 0.22810201 0.39276272
000200 25 74 65 be 28 a2 fc bd 59 c7 51 3d a1 6e 01 3e
       -0.22407587 -0.12335616 0.051215503 0.12639858
000210 58 f4 83 3e eb aa 2d 3e 9f 25 8d bc db 8e 31 be
       0.25772357 0.16959731 -0.017229853 -0.17339651
000220 c5 9e 4a 3b d2 6e 02 3e df 9f 63 bc 5d 51 f1 bd
       0.0030917388 0.12737587 -0.013893097 -0.11783097
000230 14 c8 f7 3d 61 8d ed 3d 1c 57 b6 be 03 7a 20 3d
       0.12098709 0.115992315 -0.35613334 0.03917886
000240 a1 ff 5a be af 4d 83 3d 11 fd 8d be 2f 32 5f bd
       -0.21386577 0.06411301 -0.27732137 -0.05449122
000250 b2 d6 9c be 57 3b 56 3e b2 a8 96 bc 75 df 3f 3e
       -0.3063255 0.20921074 -0.018390987 0.18737586
000260 50 43 27 be 8e 96 f8 bd f4 8b 7b be 2a 5d 57 be
       -0.16334271 -0.12138091 -0.24565107 -0.21031633
000270 89 c9 3d 3d 03 23 3e be ac c6 59 3e 6c dd ec bc
       0.046334777 -0.18568043 0.21267194 -0.028914176
000280 36 fa e3 bd 0d e5 ee 3e e4 61 28 be 81 e9 34 3e
       -0.11131708 0.46659127 -0.16443592 0.176672
000290 ab 49 21 be e9 7d 92 be bd 93 2e 3e 18 65 a6 bc
       -0.15750758 -0.28611687 0.17048545 -0.020311877
0002a0 0c d2 93 be 6a a0 4b 39 76 8c 36 3e 97 d9 5f be
       -0.2887119 0.00019419348 0.17827019 -0.21860348
0002b0 36 e2 cb be e2 23 54 3e 0a a1 54 be a8 b6 d8 3c
       -0.39821023 0.20716813 -0.20764557 0.026454285
0002c0 0c 22 74 be 47 32 e9 3b e7 ec 4a 3c 58 74 d4 bd
       -0.23841113 0.007116589 0.0123855835 -0.10373753
0002d0 26 47 de bd ef 16 b8 3e fb 4e da be 15 32 5d 3e
       -0.10853414 0.35954997 -0.42638382 0.21601136
0002e0 95 4e 4a be 46 e1 3f 3e 2d 9a 6e bb 21 32 3f be
       -0.19756539 0.18738279 -0.0036407814 -0.18671466
0002f0 7c f3 7a 3e 82 eb 58 3d dd 13 fe bc a0 99 b9 bb
       0.24506944 0.052958973 -0.03101533 -0.0056640655
000300 a5 34 42 3e 64 20 53 3d 8a ed 1b 3c 71 a2 3d be
       0.18965395 0.051544562 0.009517083 -0.18518998
000310 8a 6e 09 3d 40 d8 a1 bd 05 56 1c be 65 b8 77 be
       0.033552684 -0.079025745 -0.15267189 -0.24191435
000320 22 fb 45 be 74 6a 27 3d f2 7f a0 bd b2 76 96 3e
       -0.19334081 0.040873006 -0.07836904 0.29387432
000330 7c 1b 34 3e b5 43 bf bb 50 b9 46 bd 76 08 67 be
       0.1758861 -0.0058369287 -0.04851657 -0.22561821
000340 f3 7a 0b be 4b bf 3c bc e5 76 22 3e f2 07 84 3d
       -0.1362112 -0.011520217 0.15865667 0.06446828
000350 d2 1a 89 3e d4 82 58 3d 04 38 ff 3c 5c c5 40 3e
       0.26778275 0.052859142 0.03115464 0.18825287
000360 7a bd 23 3e 41 4c 8a 3d 15 dc 9d 3e 74 df 5c 3e
       0.15990248 0.067528255 0.30831972 0.21569616
000370 9e 84 bf 3c 4b 2e 72 bd eb 48 1b 3e 07 5e cd 3d
       0.023378666 -0.05912618 0.15164535 0.100277
000380 2d 98 84 3e 3a 98 ba 3e a1 9a c5 bc 2f 24 8f bd
       0.2589735 0.36444265 -0.024121584 -0.06989323
000390 97 ee a8 be 49 12 b3 be 11 84 7b be 15 f8 c1 bd
       -0.3299453 -0.34974888 -0.24562098 -0.09471146
0003a0 f6 2e 08 3e 8c 71 e0 bd e6 53 93 3d 7e 4a c1 3e
       0.13299164 -0.10959157 0.07193737 0.37752146
0003b0 5b 1d 21 be aa 5c ac 3e f1 13 bc 3d 69 60 a6 3d
       -0.15733854 0.33664447 0.09183491 0.081238575
0003c0 77 f0 7b 3e ea 96 21 be 5a 17 cd 3d 89 4c c4 3d
       0.24603449 -0.15780225 0.100142196 0.095849104
0003d0 db 88 ba bd c4 27 d4 3d f8 bc 9e bc d1 f3 88 bc
       -0.09108134 0.10359147 -0.019377217 -0.016717823
0003e0 2d 1f 09 bf 39 21 98 be a6 01 63 bd f1 fe 82 be
       -0.53563195 -0.29712847 -0.055421494 -0.2558513
0003f0 74 56 db bd 7f d4 8a 3d 79 48 f1 3d de bb 36 be
       -0.10709849 0.06778812 0.11781401 -0.17845103

affine_layers.1.bias f4 [64]
000000 d7 dc 17 3e 23 a3 34 be ec 91 c6 bb 61 68 bc bb
       0.14830337 -0.17640357 -0.0060598757 -0.0057497476
000010 7d 2e 88 3e 35 0a 1f 3e 41 c1 24 3b 5e 29 86 be
       0.26597968 0.15531237 0.0025139602 -0.26203436
000020 e6 72 8f 3d 28 e6 ea bd cf 16 f9 3d 44 ce a6 3c
       0.07004337 -0.1146968 0.121625535 0.020362027
000030 e3 76 8b 3c 87 02 b8 bc ee a5 2c be a5 90 c9 bd
       0.017024463 -0.022462143 -0.16860172 -0.09842042
000040 4d 18 02 3e de 18 2d bd 91 21 1e be 31 d3 3a be
       0.12704583 -0.042260043 -0.15442492 -0.18244626
000050 c4 6a 2b be b0 d7 2f be c4 0e 71 3e 62 17 74 be
       -0.16739947 -0.17172122 0.23540789 -0.23837045
000060 93 81 70 3d 06 62 78 3e 40 ae 50 3e ef 72 21 3e
       0.05871732 0.24256143 0.20378971 0.157665
000070 d5 78 47 3d 46 8c a7 3c d8 36 ef bd f3 87 80 bc
       0.04869922 0.02045263 -0.116803825 -0.015689826
000080 56 42 4f be 58 eb 8f bd 3c 1b ad bd 10 b4 5f 3d
       -0.20240149 -0.0702731 -0.0845246 0.05461508
000090 95 73 90 3e 35 64 0e bd f3 77 05 bd df b7 25 3e
       0.28213182 -0.034763534 -0.032585096 0.16183423
0000a0 98 0a 57 bd 8c f2 fb 3d 8a a5 25 be b1 dc 94 bd
       -0.052500337 0.123021215 -0.1617643 -0.07268656
0000b0 ab 29 64 3e f7 96 5a 3e a7 05 76 be c3 84 2d be
       0.2228152 0.21346651 -0.24025594 -0.16945176
0000c0 6d b2 91 3d 59 a7 02 3d ad 40 e6 3c 75 da 0a bd
       0.0711411 0.031897876 0.028107012 -0.033899743
0000d0 f9 15 28 be a9 a4 69 be de 98 d6 3b 25 68 51 3e
       -0.16414632 -0.22816719 0.006548985 0.20449884
0000e0 19 6f 8a be ae e1 b1 be ff 5c 52 bd 48 94 e3 bc
       -0.27037886 -0.34742492 -0.05135822 -0.027780667
0000f0 0d bb 6f 3d 36 a8 cc 3d ac 3e cc 3d be c9 54 bd
       0.058527995 0.09993021 0.09972891 -0.05195021

final_mean.weight f4 [6, 64]
000000 fc ad 2c 3d 0a 50 f7 3d fb 53 54 3d aa f4 89 bd
       0.042158112 0.12075813 0.051837903 -0.06736119
000010 fd 02 c3 bd 21 3e 30 3d 0f 80 c4 bd 4e 55 ba bd
       -0.09522054 0.043028 -0.09594738 -0.09098302
000020 8e 48 e5 bc 6b 3c c7 bb 2d 09 bd bc 3c ae c4 bb
       -0.027988698 -0.0060802004 -0.023075664 -0.0060022157
000030 f5 1d f3 bd 15 c4 a5 bb e7 c6 e4 bc 41 c8 46 3d
       -0.11870948 -0.005058775 -0.027926875 0.04853082
000040 a3 6d 57 3b 46 52 0b 3c 64 4e 1f 3d e2 2e fc 3c
       0.0032871745 0.008503502 0.03889312 0.030784074
000050 dd a0 31 bd 1b 5b 93 3c 1e e8 16 3b a2 1b 9a 3c
       -0.0433663 0.017987778 0.0023026536 0.018812004
000060 97 87 9e 3d 67 60 6f 3c cc d0 48 3d 6d ca eb 3b
       0.077407055 0.014610386 0.04902725 0.007195762
000070 66 03 a1 bc 12 66 15 bd 2e a6 02 bd 79 18 4c bd
       -0.01965494 -0.036474295 -0.031896763 -0.049828026
000080 cf 2d b6 3c f9 f3 40 bd 9f 06 6a bc 8d 37 8f bd
       0.02223864 -0.04710767 -0.014283805 -0.06993017
000090 0b 63 a2 3d d8 46 2c 3d 9d 35 a2 3d 8b 14 03 bd
       0.07929047 0.04205975 0.07920382 -0.032002013
0000a0 49 d5 31 3c 61 0e 0b bd 8b f4 75 bc 63 ba d7 3c
       0.010854074 -0.03394926 -0.015011917 0.026333993
0000b0 f0 47 05 3d 92 6a 3f 3d b5 34 39 bd f2 79 96 bb
       0.032539308 0.046732493 -0.04521628 -0.0045921737
0000c0 4a e8 69 bd 50 1b cf bd 36 44 27 3d 6c 42 8b 3d
       -0.057106294 -0.10112631 0.040836535 0.06799778
0000d0 26 6c b7 bd 5b 0d 9e bb f7 d0 e8 3d 52 1b ad 3d
       -0.089561746 -0.0048233694 0.11367982 0.084524766
0000e0 56 83 8c bd 7f 9f 2b bd e0 eb 8d 3d 5a 81 4a bd
       -0.06860988 -0.041900154 0.06929755 -0.049439766
0000f0 60 19 73 3c 4f 4e be bc ea ff 2c 3a d9 4d 28 bc
       0.014837593 -0.0232307 0.00065994135 -0.010272467
000100 85 cd cb 3d 4f d7 19 bd be 35 96 3d 04 c2 31 3d
       0.09951309 -0.03755885 0.07334469 0.04339792
000110 c4 a8 a7 bc 99 bd 27 3e 27 e3 bf bd 8c 9a 03 be
       -0.020466216 0.1638092 -0.09369498 -0.12851924
000120 34 05 28 bd d0 ef 3a bd 08 7e d4 bd a4 cf 62 bd
       -0.041020587 -0.04563886 -0.10375601 -0.055373803
000130 b0 14 87 3d 44 8b d9 3c 7c 3c dc 3c 7c af 8e bd
       0.06595743 0.026555665 0.02688431 -0.06967065
000140 bd c3 9e bb 64 fe 32 bd 75 b0 b7 bd 61 f2 6c bd
       -0.004845111 -0.043699637 -0.089692034 -0.057848338
000150 a9 a3 ed bd 7b df 15 3d 41 f0 16 3e 08 59 5c 3d
       -0.11603481 0.03659008 0.14740087 0.053795844
000160 65 69 96 bd fd 07 e0 3c 57 54 58 bd 74 6e 23 3d
       -0.07344321 0.02734756 -0.052814808 0.03990026
000170 67 52 63 bd ca 6e 96 bd 5a 0a 78 bc 8e e4 6c 3d
       -0.055498507 -0.0734535 -0.015139187 0.057835154
000180 b6 d2 e4 bd 78 79 03 be bd 91 b1 bd 4b 54 0c bd
       -0.111730024 -0.12839305 -0.086703755 -0.034260076
000190 f0 d9 0c bd c4 73 4f 3d 89 98 a1 3b 93 4f 16 3d
       -0.03438753 0.050647512 0.0049315137 0.03669698
0001a0 bc 54 08 3d b8 46 f8 bc f0 46 55 bd df 1f 52 3d
       0.033283934 -0.030307159 -0.052069604 0.051299926
0001b0 13 55 65 bc 55 1a d0 3d 20 40 fe bd e5 bd 42 bd
       -0.013997334 0.101612724 -0.124145746 -0.04754438
0001c0 0d 71 22 3d 17 79 bb bd 84 a1 ef 3c 4f 7d 40 bc
       0.039658595 -0.091539554 0.029251821 -0.011748626
0001d0 86 a5 b6 bd 7e e0 c2 bd 75 bc 6a 3d fb bd 4a bb
       -0.0891829 -0.09515475 0.057308633 -0.003093599
0001e0 8d 50 ab 3c 52 f0 34 3d 15 84 fd bd f8 c6 8a bd
       0.020912433 0.0441745 -0.12378708 -0.067762315
0001f0 90 d9 04 bd fc a5 0e 3d 86 e0 02 3c 44 10 76 3d
       -0.032434046 0.034826264 0.007988101 0.060074106
000200 b1 d3 70 bc d6 4c c9 bc fd e3 6e bd 68 49 34 bd
       -0.014698909 -0.024572771 -0.058322895 -0.04401532
000210 df f5 59 bd c0 ac a0 bd 90 52 26 3d 82 a5 ee bb
       -0.053212997 -0.078454494 0.04060608 -0.0072829137
000220 8a d7 3a 3d b5 c6 72 3b 91 8c f4 3c 60 61 cd 3d
       0.04561571 0.0037044708 0.029852184 0.100283384
000230 5e e5 c9 bd 90 fb d7 bd 1b 31 ba bd 86 70 79 bc
       -0.098582014 -0.105460286 -0.090913974 -0.015224582
000240 ce 06 40 3d be 5e 67 bc bc da 7a 3d 69 08 82 3d
       0.04688149 -0.014121709 0.061243758 0.0634926
000250 80 fb c8 3d a1 0c 32 bd 73 b5 fe bd 0c 79 0f bc
       0.09813595 -0.043469075 -0.124369524 -0.008756887
000260 54 2b 59 3d ee d7 f6 b9 1e b0 af 3d a0 97 21 3d
       0.053019837 -0.00047081657 0.085785136 0.03945124
000270 1e 28 e2 bc 0b 2c d4 3c 64 a1 0f b9 8e 9f 26 3c
       -0.02760702 0.025899908 -0.00013697665 0.010169877
000280 fb 1d bc 3c ac 75 f0 3c 16 a5 1b bc 97 2e ec 3c
       0.022963515 0.029352985 -0.009499809 0.02883081
000290 1e 6d b5 3d de 2a b9 bc e3 7c 62 bb 8e c4 d0 bd
       0.08858703 -0.022603448 -0.0034559302 -0.1019374
0002a0 bb 40 77 bc d5 79 bf 3d fb fe 33 bd 5d bc 9b 3c
       -0.015091117 0.093494095 -0.04394434 0.019010717
0002b0 26 cd 10 3d 8b 32 a7 bd 3e 4f 6a 3d db 92 a6 bd
       0.035351895 -0.08163937 0.057204477 -0.08133479
0002c0 9c f9 0b bd ef b6 8d bd 78 95 53 3c 0c 30 21 3d
       -0.034173593 -0.069196574 0.012914054 0.03935246
0002d0 ac fb 2e 3d 31 97 a0 3d 88 da a3 3c 5b 6d a0 3d
       0.04272048 0.078413375 0.020001665 0.07833358
0002e0 25 1a ad 3c 03 d3 8b bd e0 d3 c6 3d 6d d5 ea bc
       0.02113063 -0.06827357 0.09708381 -0.028666222
0002f0 f4 d0 71 3d f7 2b 33 3d c3 07 01 bd ca 0f 13 bd
       0.059037164 0.0437431 -0.031501543 -0.03590373
000300 0b 83 52 3c a2 53 37 be 41 24 19 3d 81 18 d3 bc
       0.012848626 -0.17902997 0.03738809 -0.02576852
000310 c1 c2 6c be 7a 02 6b bd 15 20 1e bd dd f3 f4 3d
       -0.23121168 -0.05737541 -0.038604815 0.11960576
000320 b0 f5 19 3d 58 1d 26 3d 6d 6c ab 3d 2d ee df 3d
       0.03758782 0.040555328 0.0837029 0.109341
000330 c9 a3 86 bc 7e 0f bc bd 9b e4 ca bd 86 92 cf bc
       -0.01643552 -0.091826424 -0.09906884 -0.025338423
000340 e0 a4 e6 3d 13 ba 07 bc c3 85 bd bd fc c5 02 be
       0.11261916 -0.00828411 -0.09254029 -0.12770838
000350 87 9b b1 3d 8a b3 af bd 37 d5 db bd a7 80 1e be
       0.086722426 -0.08579166 -0.10734027 -0.15478764
000360 12 8b ca 3d 3a 29 3e be 57 38 23 3e e1 8f 11 3e
       0.09889807 -0.18570414 0.1593946 0.14215042
000370 be e7 25 be 7a 34 03 be dd 92 e8 ba 1b 0b 3e 3d
       -0.16201684 -0.12812987 -0.0017743964 0.04639731
000380 12 e8 e7 bc da c2 8a 3d 28 4c 7a bd a7 37 e3 3c
       -0.028308902 0.06775446 -0.061107785 0.027736498
000390 fa 59 9b 3c 97 cb c0 bd 69 ee 6b bd 9d 51 85 be
       0.018963803 -0.09413832 -0.057600413 -0.26038828
0003a0 bc 0e 8f bd b0 74 9b 3d e2 09 33 be 10 43 95 bd
       -0.06985232 0.07590616 -0.17484239 -0.07288182
0003b0 9f fe 37 be 64 c2 d6 bd 22 e8 41 3e 31 7a a5 bd
       -0.17968224 -0.10486296 0.18936208 -0.08079947
0003c0 c7 a2 e8 3d 2c f6 b5 bc 60 fa 3c 3e 15 ed 07 3d
       0.11359172 -0.02221211 0.18454885 0.033185083
0003d0 50 a6 ad 3d 93 46 7b 3d f0 9d 06 3e c3 49 ef 3d
       0.08478987 0.0613466 0.13146186 0.11683991
0003e0 c2 01 33 3e 0d 6a 4f be d3 71 55 3d d5 be 20 bc
       0.1748114 -0.20255299 0.052110504 -0.009811123
0003f0 d2 6b 78 3d 7b 69 00 3d 19 60 b1 3d 52 dc 9a bd
       0.0606497 0.031350594 0.08660907 -0.07561554

final_mean.bias f4 [6]
000000 76 28 06 bd 1a 6a a9 3d 57 2e a7 3c d1 54 da 3d
       -0.03275343 0.082721904 0.020407839 0.10660709
000010 f2 3e 54 bd f4 ec ee bd
       -0.05181784 -0.11666289
