src/models/car_ppo_sgld_hopper.model (torch, 136462 bytes, 36 tensors)

affine_layers.0.weight f4 [64, 11]
00000000: 5752 1dbe a812 023e 5579 053d 4017 16bd
00000010: 0b24 a13d f6d5 3b3f 471c ee3c 496c 6ebd
00000020: b9f4 273e 8afb 05bd 231a f93c 92c8 d03c
00000030: 06c5 933e 5ff3 c6be 903f abbe 3a7e a7bd
00000040: 9a0f fe3b 5260 f3bd 9413 c83d a77c 113c
00000050: 25ab 37be f661 053e ff4b f63d 94d9 09be
00000060: a970 833e dd8b 093e d538 c33d 4d93 d83d
00000070: 9fce 8e3d efe4 12be 7b33 ba3d 9900 4f3e
00000080: ab59 42be 0254 973d 84a8 0abe c2c7 86bd
00000090: f7b2 27bd e9c3 db3d 5b9f dfbe bfcb 803d
000000a0: 0170 d53d 9ff1 60be a8ba 94bd 448a 863c
000000b0: afa9 78bd 9813 403e aada f1bd 9f0d a5bd
000000c0: 8fbb c1bc e2a6 0f3e be7f 7abd 657b 3d3d
000000d0: 7be2 2a3c 352e 9bbd 276f 343d cb53 e43d
000000e0: 9370 603c 9b42 33be 2d87 5abd 40ea e3bc
000000f0: 058b a73e f48b d8bd f37b 2b3e dc37 96be
00000100: 623f ccbe 4d48 63be 6bc2 17be 5139 cfbd
00000110: 92ee 273e 0d2d b83e 4ef1 e2ba 5b4b bebe
00000120: ce43 07bd 861f b4bd 607c 2a3e 7ec2 0a3d
00000130: 3967 3f3e e7cf 11be a0a8 65bd efc6 e03e
00000140: 53f2 e33d 4700 cabd 0973 f63d af1b ea3e
00000150: 0b83 b0bc 460f 243d 4e1b 633d 57a9 9cbd
00000160: dea8 393c 6602 9e3c 4e92 b63d 1f04 c33d
00000170: ff80 57bd 0c03 a73e 7e2c 0cbf 10f9 52be
00000180: 50f8 d83e 23c8 803e 9a13 f9be c373 493e
00000190: 0e7c fe3b 4c82 4dbe dae9 5ebe 739f 9cbe
000001a0: 8e9c e43e 4408 9abd 1881 96be d562 833e
000001b0: 502b 1a3e 2e8b afbd 9f71 c23d fdc2 c73d
000001c0: 1755 babd 9923 b23d 0b0b ea3d 0b63 243f
000001d0: 9363 b1be 2405 2a3e 9a4f 73be b3ed 9bbe
000001e0: 0ea7 61be bd42 913e afe5 94bc 9662 33be
000001f0: 1b5f 56be f242 4d3e eb2c a83e cf07 3abe
00000200: 4594 c4bd 3c57 fd3d 3e2d 9e3b 0161 543d
00000210: d63d d3bd f21d 1e3d 3273 143d f022 e73d
00000220: b5fb a1bd 12c1 19be 3f67 a7be 223c b23d
00000230: 8766 87bd 9652 59bd 5c20 9cbd 66d9 f3be
00000240: 2bb3 693d fbf9 86bd e6e9 2fbe d523 413f
00000250: 3455 1fbe ddd7 513e 3c10 5f3d f835 37bc
00000260: a208 143d 0e01 1ebe 968c 3dbf 7470 013e
00000270: 3e96 6bbd b3c3 94bd 4344 8a3e eb81 78be
00000280: c3fe 68bb 4d72 ac3c c2c7 313d 598f 4a3e
00000290: d723 003f 8914 8dbe 48b9 ad3d f2e7 ea3c
000002a0: 09cb c2bd 594c 543e 8759 163f 8ad9 4cbf
000002b0: 8db6 5bbe 1b22 933e a695 2bbd b6f9 923c
000002c0: 566b 103e 9f59 64bd 3e60 433e 98a8 583d
000002d0: ff10 c5be 1f86 9fbe 140e cd3e 3a7c 633c
000002e0: 2fed 0fbc 23de aa3d 2613 5ebe 9726 05be
000002f0: 3e8a 983d 6dc8 333f f9d8 1f3e 3502 acbd
00000300: dfdf a43d 8bc6 88be 3e01 ef3c 8859 5b3e
00000310: 851a d83d 8991 0e3e 0432 f1bc 4966 c0bc
00000320: 0e77 ffbe c76b 55be 5a49 923d 0d7e b33e
00000330: 8e86 a8bc 439e 97be 19bb 5d3e 3a5e f03d
00000340: fe62 51bd 618f 2d3e 62bc 2b3e 7b27 8dbe
00000350: ac02 bc3d db48 70bd e680 6f3d 1e00 a4bd
00000360: c872 ba3d b149 d23c 9829 833e 42be 683c
00000370: 7b3d 9abd 63d9 c6bd 89a8 46be f18d 89be
00000380: c98c 68bd 9588 1d3e f67d 63be 8049 c5bc
00000390: 0c0d b8bd 643d cbbd b862 c13d 8bdc c13d
000003a0: ccc2 213e 9503 f8be e07a 5cbe 8925 10bb
000003b0: 442d 23be aca0 1b3e 83d1 9b3d b871 b4bd
000003c0: 45bc 853d 78af 81bd ffcc 52be 94e4 9dbd
000003d0: 3106 8c3e f121 8f3e 8098 30be a64c 843e
000003e0: 83c4 c3bc 8457 36be bcca 723e 9a8a 91bd
000003f0: 0ea2 a4bc e48d babe c3ce 043e f742 2fbd
-0.15363441 0.1270243 0.032586414 -0.036643267 0.07868203 0.73373353 0.029066218 -0.058208738
0.16401948 -0.03271059 0.03040797 0.025486264 0.28861254 -0.38857552 -0.33446932 -0.08178373
0.0077533247 -0.11883606 0.09769359 0.008879817 -0.1793638 0.1302565 0.12026214 -0.13461906
0.2567189 0.1343226 0.09532324 0.105749704 0.069730036 -0.14345144 0.0909185 0.20215072
-0.18979518 0.0738907 -0.13540846 -0.065810695 -0.04094216 0.10730726 -0.43676266 0.062888615
0.10421754 -0.21967171 -0.07262164 0.016423352 -0.060708698 0.18757474 -0.11809285 -0.08059239
-0.023649005 0.14028504 -0.06115698 0.046260256 0.010429974 -0.07577173 0.044051316 0.11148795
0.013698715 -0.17505877 -0.05335157 -0.02782166 0.3272325 -0.10573569 0.16746502 -0.29339492
-0.39892107 -0.2219555 -0.14820258 -0.10118354 0.16399601 0.3597187 -0.0017314346 -0.37166867
-0.033023648 -0.08795075 0.16649008 0.03387689 0.1869172 -0.14239465 -0.056069016 0.43901774
0.11130204 -0.09863334 0.1203366 0.45724246 -0.021546861 0.04005363 0.05544596 -0.076494865
0.011331765 0.019288253 0.08914624 0.095222704 -0.052613255 0.32619512 -0.5475539 -0.20602822
0.42376947 0.25152692 -0.48647767 0.19673066 0.0077662533 -0.20069236 -0.21768895 -0.305904
0.44650692 -0.07521108 -0.29395366 0.2566134 0.15055585 -0.08571468 0.09494328 0.09753988
-0.09098261 0.08698196 0.114278875 0.6421363 -0.34646282 0.16603523 -0.23760834 -0.30454788
-0.22036383 0.2837123 -0.018175928 -0.17518076 -0.20934717 0.20045069 0.3284677 -0.18167041
-0.09598593 0.12370154 0.0048271706 0.051850323 -0.10314529 0.038602777 0.03624267 0.11285961
-0.079093374 -0.15015057 -0.32695958 0.08702876 -0.066113524 -0.053057276 -0.076233596 -0.476268
0.057055634 -0.06590649 -0.17179069 0.754453 -0.15559846 0.20492502 0.05445884 -0.011182301
0.036141045 -0.1543009 -0.7404264 0.12640554 -0.05751633 -0.07263889 0.27005205 -0.2426831
-0.003555224 0.021050597 0.043403395 0.19781245 0.5005469 -0.2755473 0.08482605 0.028675053
-0.09511382 0.2073225 0.5873036 -0.8001944 -0.21456356 0.28736958 -0.041890763 0.017941337
0.14103445 -0.05574953 0.19079682 0.05289516 -0.3848953 -0.31157014 0.40049803 0.013884598
-0.008784576 0.083431505 -0.21686992 -0.13003002 0.074482426 0.702277 0.15610112 -0.083988585
0.080505125 -0.26713976 0.029175397 0.21420872 0.10551933 0.13922705 -0.029442795 -0.023486273
-0.4989552 -0.20841895 0.07142897 0.35057107 -0.020571973 -0.29612932 0.21653403 0.11736722
-0.051119797 0.16949226 0.16771081 -0.27569184 0.09180197 -0.05866323 0.058472537 -0.08007835
0.09103924 0.025669904 0.2561767 0.014205517 -0.07531258 -0.09709432 -0.19400229 -0.26866105
-0.05677489 0.15384133 -0.22216019 -0.0240829 -0.089868635 -0.09923819 0.09442657 0.09465893
0.15796965 -0.48440233 -0.21531248 -0.002199503 -0.15935236 0.1519801 0.076083206 -0.08810753
0.0653005 -0.06332296 -0.20586012 -0.077096134 0.27348474 0.27955583 -0.17245674 0.25839728
-0.023897415 -0.17806822 0.2371015 -0.07106514 -0.020096805 -0.3643638 0.12969498 -0.042788472

affine_layers.0.bias f4 [64]
00000000: d294 c63e 6527 d2be 001e b23e 7244 d9be
00000010: c4b8 263f 18de ef3e b784 cbbe 22e6 8c3e
00000020: fc44 663e 2a4e 37bf 76fa 103e b246 3f3c
00000030: a921 4d3e 1162 3a3e 6f0c 143f 790f 0abe
00000040: 7505 c5bc d6e7 edbe 7f86 c23e 7447 dbbe
00000050: b6c9 dfbe 1d81 163f 3d16 b43e e8f0 e33e
00000060: 4199 e7bd 3ce5 e9be 05cc ef3e 7879 b23e
00000070: 84a4 dbbe 0592 0c3c 1775 c9be 45e0 8a3d
00000080: 9325 1f3d 51bf d63e 1f75 36bf c808 913e
00000090: 3d8a c43c 90e0 c2be bca3 7fbe dfad 1d3e
000000a0: 4207 23be eecf 2f3e d0ac 0dbf 1fc4 f63e
000000b0: d92f 6dbe c1f1 1bbf 8cfb afbe bbcd 9d3d
000000c0: 2f8c 1e3e 638f cfbe 05f1 5fbd 1660 07be
000000d0: f78d bb3d 127d ce3e b312 8c3d 3fae 2a3f
000000e0: 846e 15bf 0a29 1a3d d95a 9dbe 3be2 d5be
000000f0: db71 6fbe ef6f 7abe 28b4 c5be c52c bdbe
0.38785416 -0.4104568 0.34788513 -0.42435032 0.6512568 0.46849132 -0.3974969 0.27519327
0.22487253 -0.71603644 0.14158043 0.01167457 0.20032372 0.18201472 0.5783147 -0.13482465
-0.024050454 -0.4646594 0.37993237 -0.42827952 -0.4370858 0.5879076 0.35173216 0.44519734
-0.11308528 -0.45682704 0.46835342 0.34858298 -0.42898953 0.008579736 -0.39347145 0.06781057
0.038854193 0.41942838 -0.7127246 0.28327012 0.023991698 -0.38061953 -0.24964803 0.15398358
-0.15920737 0.17169163 -0.55341816 0.48196504 -0.23162784 -0.6091576 -0.34371603 0.077052556
0.15483163 -0.40539083 -0.054673214 -0.13220248 0.09157937 0.40329796 0.06839504 0.6667213
-0.5837176 0.037636794 -0.30733374 -0.41774163 -0.23383276 -0.24456762 -0.3861401 -0.3694822

affine_layers.1.weight f4 [64, 64]
00000000: 3661 933d 8018 9e3d 3249 debd 645c debb
00000010: c138 2b3e 7330 083e 43f6 02be 9de8 17bc
00000020: 54a4 1a3e f655 d0bd d17e 10bd 8fa6 e7bd
00000030: 13b2 533e a701 4b3e d290 bebd 1c4a 49be
00000040: a6c2 353e 42a5 06be d0d5 6b3d e919 c83b
00000050: af14 043e decf 443d 5e56 043e e972 6d3e
00000060: 8c2e e03e 5bed 88be 8adf 723e 44e8 0b3f
00000070: 05eb ddbe 47b7 32be b9b6 2d3e ff64 1cbe
00000080: 5761 6b3e 7fa6 97bd 9044 b53d 5850 7b3c
00000090: 5915 bfbe c611 d73d 9f02 fe3d d763 6c3d
000000a0: 8c18 f83d d389 323e 99d6 303e a933 bb3d
000000b0: a7c1 dfbd d5b2 1b3e a6d2 883e c77a 1f3e
000000c0: 8e5a 9e3c 4cd1 a63e 6382 3f3d 4251 933d
000000d0: 15cb 8ebe ffe7 04be 4802 003d 84c3 e2bd
000000e0: ef90 f3bd f938 0abe d090 e93c 5794 a23d
000000f0: de02 593e 88bc 83be 200d 09be cc20 7b3e
00000100: 9470 2ebe 6e1b 18be bcdd fe3d 8300 19be
00000110: 28f8 1c3e 67da 163d fa51 d1be 81db fd3e
00000120: 1c44 53be e73c 31be f1c7 9cbe 7af1 713e
00000130: b950 c6bd b54e b43d 7bd7 3abc c638 b0be
00000140: 72d1 78bd cf3f 35be 569c b93c 5e5b b4be
00000150: ab1e 4cbd 5584 9e3e c79f 943e 1685 e13c
00000160: cf3a c8bd 93f1 043f 77ef aa3e 900e de3e
00000170: 3f89 a33d c5b2 0d3e 16cf 87bc a957 28be
00000180: 2d7e 3b3e b2d3 583e a247 abbe e7d6 a23d
00000190: 03f6 093e 0263 babd 0987 a3be 4d6d a9bd
000001a0: b1a3 2bbb e2dc 1c3e 5867 b9be e4b9 e63c
000001b0: 6334 5f3e 7fbd d83e d65f 69be d30b 58be
000001c0: 9eb3 dc3e 459e c43d 706e 2a3e a560 d43d
000001d0: 642c e33d d247 a0be a51f c63d d3c5 3e3e
000001e0: 325e a8bd 4097 053f 685b a0bd 5643 96be
000001f0: a930 e0be 3ab5 65be 6d5f f8bd b7c7 743d
00000200: faf5 973d 58b0 833e 55a3 3cbe 2bd6 80be
00000210: dde9 36bd a015 77be 1ad6 a13e 13d6 4abe
00000220: a25a 423d 46e3 01be 2537 d33d 8653 2abe
00000230: dc18 513e 72cb b6bd 84c5 c03e cf3a 2c3d
00000240: c88b 393d f159 963e 4f68 2abe 347f 193e
00000250: 203e 58bd f7ac 1cbf 561f 173e 090c 0a3d
00000260: 2da7 87be ad11 9d3c 453e 0cbe 71b4 95be
00000270: f422 ee3e 3cc2 413e 4890 6b3e 54bc 543e
00000280: 6117 443c 42f6 f7bc 841a 823e 4da8 9fbc
00000290: f44e 583c 0b1c e1be 4b15 3c3e 174c d2bd
000002a0: b6c2 98bd 98cb 83be a92d 6fbe 0407 67bc
000002b0: 3981 313e 62bc e13e d64b 98bd cedd 7d3d
000002c0: 4aa4 e23c e75f 7c3e c19b c2be 9d50 843e
000002d0: 04eb bfbc 55e3 9e3e 7196 ac3d c943 02bc
000002e0: 8d0b e2bd 3aac c53d cf8a 823e 206d aebe
000002f0: 5786 243f 068b 923c 3dd0 03be 0540 99bc
00000300: 0a2f 213e 857e fc3c ea92 133d 43de ea3d
00000310: 6608 0bbf d3a6 0c3e e35e afbc 8869 8fbd
00000320: 8113 433e 647d aa3e e6f2 99bd 2b30 29be
00000330: 6d01 223c e99f a73e af96 f53e 9dcb af3d
00000340: cda5 c1bd 67fd df3d 12e6 c7be b9fb 3ebe
00000350: d561 113e 8839 613c f6dc 203e ca86 6a3e
00000360: 44ce 093e bf22 7abe 6708 41be 8e36 d33d
00000370: 155d ef3e fb39 513e 04de 623e 1e6a 9abd
00000380: ae2b 81be 766e d6bd b2d1 adbe eaae 013e
00000390: df1f 973d 8b2d bf3c 8804 363e bc5e 89be
000003a0: 5adb a1be 037e f0bc 2e22 0ebe b94d 613d
000003b0: 5ea6 6c3e ef7c 783e 8092 ddbd a1a0 9a3d
000003c0: bd52 c6be 36e8 173d 5714 45be 9e77 bc3e
000003d0: d78e a43d 072b 033e 2c61 93bc 9a65 aa3e
000003e0: a4e4 033e 3758 89be 07d3 433e d0f4 ac3e
000003f0: 4ddf 583d fc07 663e dc04 61be 5a83 28be
0.07196276 0.07719517 -0.10853805 -0.006785916 0.16720869 0.13299732 -0.12789254 -0.009271768
0.15101749 -0.10172646 -0.03527719 -0.113110654 0.20673399 0.19824849 -0.09304966 -0.19657177
0.17750034 -0.13148978 0.057576954 0.0061066044 0.12898515 0.0480498 0.12923571 0.23188366
0.43785512 -0.26743588 0.23718086 0.54651284 -0.43343368 -0.17452727 0.16964234 -0.15272902
0.22986351 -0.074048035 0.08850968 0.01533898 -0.37320974 0.10501437 0.12402844 0.057712402
0.12114057 0.17435388 0.17269363 0.09140713 -0.10925608 0.15204938 0.26723212 0.1557418
0.01933029 0.32581556 0.046755206 0.07193233 -0.27889314 -0.12979124 0.031252176 -0.11072448
-0.11892878 -0.13498296 0.028511435 0.0793845 0.211925 -0.25729775 -0.13383913 0.2452423
-0.17035133 -0.14854214 0.12444636 -0.14941601 0.15329039 0.03682938 -0.40882856 0.4958153
-0.2063145 -0.17308389 -0.30621293 0.23627272 -0.096833654 0.08804075 -0.011403914 -0.34418315
-0.060746618 -0.17700122 0.022657555 -0.35225958 -0.049833935 0.30960336 0.2902815 0.02752928
-0.09776842 0.51931113 0.33385822 0.43370485 0.07985162 0.13837726 -0.016578238 -0.1643969
0.18309851 0.21174505 -0.3345309 0.079511456 0.13472752 -0.091009155 -0.3193896 -0.082728006
-0.0026190097 0.15318635 -0.36211658 0.028164811 0.21797328 0.42332074 -0.22790465 -0.2109826
0.43105787 0.096005 0.16643691 0.10369996 0.11092451 -0.31304795 0.096740045 0.18630151
-0.08221091 0.52183914 -0.07829934 -0.29348248 -0.43787125 -0.22432414 -0.12127576 0.059760775
0.07419963 0.25720477 -0.18421681 -0.25163397 -0.044656623 -0.24129343 0.3160866 -0.19808225
0.047449715 -0.12684354 0.10313252 -0.16633424 0.2041964 -0.08925523 0.37650692 0.04204827
0.04529932 0.29365495 -0.16641353 0.1498993 -0.052793622 -0.61201423 0.14758047 0.033702884
-0.26494732 0.019173468 -0.13695629 -0.29239228 0.46511042 0.18921751 0.23004258 0.20774966
0.011968465 -0.030268792 0.25410855 -0.019489432 0.013202418 -0.43966708 0.18367498 -0.10268419
-0.07459013 -0.25741267 -0.23357262 -0.014100794 0.17334451 0.44089037 -0.074363396 0.061979108
0.02766623 0.24645959 -0.38009456 0.25842753 -0.023427494 0.31032816 0.08427132 -0.007950732
-0.110373594 0.0965199 0.25496528 -0.3406763 0.64267486 0.017888557 -0.12872405 -0.018707285
0.157406 0.030822048 0.03602878 0.11468174 -0.5430969 0.13735513 -0.02140755 -0.0700255
0.19050409 0.3329879 -0.07517032 -0.16522281 0.009888035 0.3273919 0.47966525 0.08583758
-0.09455452 0.109370045 -0.39042717 -0.18650712 0.14197476 0.013746627 0.1570929 0.2290298
0.1345759 -0.24427317 -0.18850861 0.1031314 0.46750703 0.20432274 0.22155005 -0.075397715
-0.25228637 -0.104702875 -0.33949047 0.1266438 0.07379126 0.023337146 0.17775166 -0.2683009
-0.31612664 -0.029356962 -0.13880226 0.055005763 0.23110339 0.24266408 -0.10818958 0.07550169
-0.38735 0.037086688 -0.1924604 0.3681001 0.08035057 0.12809382 -0.017990671 0.3328064
0.12880188 -0.26825115 0.1912347 0.33780527 0.05294733 0.22463983 -0.2197451 -0.16456357

affine_layers.1.bias f4 [64]
00000000: 295f 2c3e 45ef 903e 13ab 68bc c428 0e3e
00000010: 7bce 013e 9d49 0abe d9af 883d 9b65 d43e
00000020: c044 973e 1e8b 603d fc14 30be 9be9 433e
00000030: 3b15 80be c2f6 ad3c c14a 32be 4421 b4bb
00000040: 5cef 0e3d fb17 8e3d 8b55 813e 910b c53e
00000050: a70f 563b f5cc 70bd 950d 8dbe 8d96 da3d
00000060: b8cc 14be e039 acbe 1453 053e 245a 71bd
00000070: 46ac ca3d 5a45 3fbe 7901 4f3d c688 ad3e
00000080: 2a54 d8bc a663 4d3e 6c02 693e 62f1 66be
00000090: a080 aabb d9ec 8b3d 0718 33be 3c92 43be
000000a0: 4c92 00be fb00 0f3e fc0e 923e e934 033e
000000b0: 345b 593e 0514 243e cfcf 4a3e b988 74be
000000c0: 7a46 373e 8bbe a03e 7314 2a3e 1ca5 90bb
000000d0: 9f22 b13c 4465 943e a456 9c3d 7590 2abe
000000e0: 5c90 2b3e d901 793d 0369 bd3e e9ff 1fbe
000000f0: fe2f bf3d 9a78 1b3d e559 6ebd 92e0 3c3e
0.16833176 0.28307548 -0.0142009435 0.13882738 0.12676422 -0.13504644 0.06674165 0.4148377
0.2954464 0.054820172 -0.17195505 0.19132082 -0.25016198 0.021235827 -0.17411329 -0.0054971296
0.03489624 0.06938168 0.25260577 0.38485387 0.0032663138 -0.058789212 -0.27549425 0.106732465
-0.14531219 -0.33637905 0.13019973 -0.058923855 0.0989614 -0.186788 0.050538514 0.33893412
-0.02640732 0.20057544 0.2275483 -0.22553018 -0.0052033216 0.068322845 -0.17489634 -0.19098753
-0.12555808 0.13965218 0.28527057 0.12813152 0.21226197 0.16023262 0.19805835 -0.2388028
0.17897978 0.31395373 0.16609363 -0.004414214 0.021622954 0.2898351 0.07633713 -0.16656668
0.16754287 0.060792778 0.3699418 -0.15624966 0.09335326 0.03795681 -0.0581912 0.18445042

final.weight f4 [1, 64]
00000000: 74af afbd 12a4 7e3e 5be5 263e fb45 863d
00000010: beb8 6a3d b5b8 06be 7674 9c3e c721 9c3e
00000020: 67f3 913e 69dc 443e 9ba5 29be 8898 fb3d
00000030: 377b e0bd afce 093e 5add 17bd d88a 1abe
00000040: e8e7 f93d 02ea 38be 39b0 733e 8852 5e3e
00000050: 3fdf 51be f29a 43be e0b4 6bbe e763 163e
00000060: 6ba1 503e ad41 1bbe be5e 563e 3b3e f3bd
00000070: c065 72bd 0c5d 52be 08df a3bd eea7 5c3e
00000080: df27 a6bd 32a0 adbe 08ee 683e cc4d 28bd
00000090: 4b95 523e f17b 403e f87d 2c3e 9b44 87be
000000a0: 6c91 80be 97e8 3a3e 83bb 213e 1260 5c3e
000000b0: bef5 8f3d 0ffa 253e d698 b23d 178e 883d
000000c0: bdb9 7d3d a0ab 0d3e cc8f 223d e9a4 3ebe
000000d0: e3a9 5d3e cfca db3e 0cc1 433e 8dcb 95be
000000e0: c455 393e a66c 753e a8fe 053f 5811 6fbe
000000f0: a989 393e 0b03 ef3d 3806 33be 6eb4 983d
-0.08578387 0.24867275 0.1629843 0.065563165 0.05730509 -0.13156398 0.30557603 0.3049452
0.28506014 0.19224705 -0.1656708 0.122849524 -0.10961001 0.1345775 -0.03707633 -0.15092027
0.12202436 -0.18058017 0.23797692 0.2171117 -0.20495318 -0.19102076 -0.23018217 0.14686547
0.20374076 -0.15161772 0.20934579 -0.11877104 -0.059179068 -0.20543307 -0.08001524 0.21548435
-0.081130736 -0.33911282 0.22747052 -0.041089818 0.20564763 0.1879728 0.16844928 -0.2641953
-0.25110948 0.18252788 0.15794186 0.21521023 0.070292935 0.16208671 0.087205574 0.066677265
0.061944712 0.13835001 0.039687917 -0.18617596 0.21646838 0.42928168 0.1911661 -0.2925686
0.18099123 0.23967227 0.523417 -0.2334646 0.1811892 0.11670502 -0.17482841 0.07456289

log_stdev f4 [3]
00000000: 09d2 11be cf7d 69bd 6e8e 373e
-0.14240278 -0.057004746 0.17925426

affine_layers.0.weight f4 [64, 11]
00000000: d18f d0bc 76ad 83be ad89 e13e 04cb 97ba
00000010: 5033 293e 2262 41bf 3a85 07bd 0352 073e
00000020: 8cab 8cbe 6098 863c dae6 ab3d 3da5 0c3e
00000030: cc06 8fbc a4b2 9abe 2968 abbe a232 58be
00000040: d5ac dc3e 8d41 0dbf a17f 3abe e887 173d
00000050: cb92 68bd 9a0d 783e 9c8d f9be 9a46 5abd
00000060: 089b 3ebe 9e52 61bc 7a54 c9bd ab0d e3bc
00000070: 814c 723e 861c f8bd ec74 8bbc 5932 dfbc
00000080: 3612 f5be e1a6 f2be 4b1c 17be a12e 143d
00000090: ff80 45bd c124 93bd cef8 713d eec4 dbbe
000000a0: c412 353d 8229 27bd 1875 d13d 5125 f7bd
000000b0: 0f80 923e 9acf 003e 669a 063e dfc4 503e
000000c0: 2e1e 9d3d 2269 fabb afa9 283e 0c74 13be
000000d0: 165d 50be e816 b73c e0ce 003d dfcc aa3d
000000e0: bffa 7fbe ee01 a73d b54a 453e 157d 7e3e
000000f0: 22f0 19be f77a 9bbe d24d d03c 70f7 44bd
00000100: 64ad 8cbd fd18 a9bd d008 5cbf 3819 653d
00000110: 6040 d83d a8fd 3d3d c62c 61be 6a2b 653e
00000120: a251 333c d378 ad3c 30c7 e3bc 64b8 7bbe
00000130: 1fab 15bf 7d15 c13d 2a69 72be a47b 1e3e
00000140: 6d81 7e3e 7fec 86be 99f1 f2bd 78ad cf3d
00000150: 93b4 97bb 4412 813e 1b6e 46bd 4520 bdbd
00000160: 60c1 1bbe cf82 f3ba 8c29 ef3e 98ea 823c
00000170: 8436 75bd 9ff6 9fbe ef0f ddbd 1818 a1bd
00000180: 616d 5a3d 63f8 62bc e055 10bf cb19 843e
00000190: a393 5dbe 4999 3a3c 648f 52bd 8921 413d
000001a0: 476e c83d 1368 1f3e 5673 01be 6a29 003e
000001b0: d712 83be 7200 da3e 3e45 743e be8d aebd
000001c0: e2b9 013d 8163 4a3e a69f fa3c ff43 8ebe
000001d0: d6a3 f13e 1c92 32be 9ddd 42be df1a 9b3c
000001e0: e3e0 8cbd becd aebd 05c4 813b 64e6 5fbe
000001f0: 8e66 ecbd 4760 e0bd 7856 d1bd 6387 1d3e
00000200: fe78 8fbd ac50 a0be 8379 1f3e 8a21 a43e
00000210: fa0e 42bf 96af c73c 4b9f 3abd f67f 27be
00000220: fdd6 adbe f41f 663d 7dde 07bd 917a 02bd
00000230: 547d 0f3e 1cc9 00be aafb 75be 685e 343d
00000240: 196c 0a3e 8bff acbd a9ed b13b 6fe0 8dbd
00000250: 076a b83d 8a21 9d3d 38e2 ff3d a7b1 33bd
00000260: e0c5 063e 2484 ec3d ba59 5bbd 42fc 913e
00000270: 621c 7a3d 241e 793e 8a3b 0abd 8bf4 813e
00000280: 81fb edbe 8ccd 24ba 81ee 36bd bf38 b73d
00000290: bf2e 90be eb60 d03c 4b2f c13d 9a99 5d3d
000002a0: a110 04bc 4433 2fbe c96a 763d d568 373f
000002b0: da94 05bc 337f 543c c530 19be 5082 9ebd
000002c0: 3a3c e43d c2eb 81bd 3839 b03c cb1e e4bc
000002d0: 7756 b13c a333 95bc 4130 b5be 0b1f 73be
000002e0: 16d4 ffba 4ca4 923d bd8d 423e 8856 673d
000002f0: 4743 1cbe 8fee 233f 3352 bd3d 4f05 84bd
00000300: eede 32bf f1ba ab3e d4ff 74bd c2f5 3d3d
00000310: ebf3 2dbe 112c 19bf fb20 0d3f fdff 1cbe
00000320: fba9 6e3d 7f56 cf3d 0b3b 69bc 8d11 8d3c
00000330: 2058 47be ab37 6db9 b1db 843e 3ac5 6f3c
00000340: e0c8 523f 1323 88be ce36 45be 9775 db3d
00000350: e70a 09be a018 d93d 4d7c f43d 56e9 adbe
00000360: 2954 04be 49b6 9d3d 8f51 543d 76ab 8c3d
00000370: 5052 02bf 4326 fc3e 1849 e43d 49f4 7abd
00000380: de15 553c 3431 353b 8cea 92bd 110a 80be
00000390: e337 d83d dabb 4cbe 53ea 74be 4347 5e3e
000003a0: 24a0 4fbd 7884 353e 6af6 aabe ff1a 67be
000003b0: d8a5 63be 123b 29be a45b 1c3e 8dd3 1bbe
000003c0: f4c7 07be 4bd0 3abd 034f 033d aaa1 843e
000003d0: ab64 afbe 52f3 0dba f880 773e b224 8dbd
000003e0: 4766 f9bd 6129 023e f90f 7b3e 1674 b63d
000003f0: addf 12be 8af3 d63b b4d0 62bd f384 8e3d
-0.025459202 -0.25718278 0.4405035 -0.0011580889 0.1652348 -0.75540364 -0.03308604 0.13214879
-0.2747463 0.01643008 0.08393641 0.13734908 -0.017459296 -0.30214417 -0.33477905 -0.21113065
0.4310061 -0.5517815 -0.18212749 0.036994845 -0.056780618 0.24223939 -0.48740852 -0.053289987
-0.18613827 -0.013752608 -0.09830566 -0.027716478 0.23661996 -0.121148154 -0.017023526 -0.027245687
-0.47865456 -0.47392944 -0.14756887 0.03617728 -0.048218723 -0.071847446 0.05907517 -0.42923683
0.04420735 -0.04081107 0.10227412 -0.120676644 0.28613326 0.12579194 0.13144836 0.203876
0.07671772 -0.0076419273 0.16470979 -0.14399737 -0.2034801 0.02234979 0.03144729 0.08339857
-0.24997996 0.08154665 0.1926678 0.24852403 -0.1503301 -0.30367252 0.025427733 -0.048087537
-0.06869009 -0.08256719 -0.85950947 0.055932254 0.105591536 0.046384484 -0.21989736 0.22379842
0.010944756 0.021175778 -0.027804941 -0.24582058 -0.58464235 0.09427927 -0.2367293 0.15476853
0.2485406 -0.26352307 -0.11862487 0.101405084 -0.0046296804 0.25209248 -0.04844485 -0.092346705
-0.15210485 -0.0018578413 0.46711385 0.015981004 -0.059866443 -0.31242844 -0.10794055 -0.07865924
0.053326968 -0.013853165 -0.56381035 0.25800928 -0.2163835 0.011389085 -0.05140628 0.047151122
0.09786659 0.15567045 -0.12641653 0.12515798 -0.2560031 0.42578465 0.23854539 -0.08523129
0.031671412 0.1976452 0.030593704 -0.27786252 0.4719531 -0.17438549 -0.19029851 0.018933712
-0.06878831 -0.08535336 0.003960135 -0.21865231 -0.11542998 -0.109558634 -0.10221571 0.15383677
-0.07005499 -0.31311548 0.15573697 0.32056838 -0.758041 0.024375718 -0.04556207 -0.16357407
-0.33953086 0.056182817 -0.033171166 -0.03185517 0.14012653 -0.12576717 -0.24021783 0.044035345
0.13517798 -0.084471785 0.0054299426 -0.06927573 0.09004598 0.07672413 0.1249432 -0.043870594
0.13161421 0.11548641 -0.053552367 0.2851277 0.061062224 0.24327904 -0.033748187 0.25381884
-0.46480945 -0.00062867324 -0.04466105 0.0894637 -0.28160664 0.02543684 0.094328485 0.054101564
-0.008060605 -0.171094 0.060160432 0.71644336 -0.008153165 0.01296978 -0.1496001 -0.07739699
0.111443 -0.06343795 0.021511659 -0.027846714 0.021647675 -0.018213099 -0.35388377 -0.2374231
-0.0019518163 0.071602434 0.18999381 0.056479007 -0.1526004 0.64035887 0.09244194 -0.06446325
-0.69871414 0.33541062 -0.05981429 0.04637695 -0.16987579 -0.59832865 0.5512845 -0.15332027
0.058267575 0.1012392 -0.014235268 0.017220283 -0.19467211 -0.00022622819 0.2594886 0.014634425
0.8233776 -0.2658926 -0.19259188 0.10715788 -0.13383065 0.106004 0.11937771 -0.33967084
-0.1292273 0.07700784 0.051835593 0.06868641 -0.5090685 0.4924794 0.11146754 -0.061268125
0.013005702 0.0027647736 -0.071736425 -0.2500768 0.105575345 -0.19993535 -0.23917513 0.21706872
-0.05068983 0.17726314 -0.33391124 -0.22568892 -0.22231233 -0.1652644 0.15269333 -0.15217419
-0.1325987 -0.0456088 0.032057773 0.2590459 -0.3425649 -0.00054149807 0.24170291 -0.06891765
-0.12177711 0.12711097 0.24517812 0.089088604 -0.14343138 0.006559794 -0.055374816 0.06958952

affine_layers.0.bias f4 [64]
00000000: 4f2a e3be f0b4 f5bd 89d2 1cbf ae0c 1abf
00000010: f496 853e 5901 8b3e 1110 e8be e5af 1e3f
00000020: 1658 d4be 97e9 a0bb 5c34 efbe 1905 a93d
00000030: 3304 473d a69f 403f e883 d03c 5ff3 443e
00000040: 95e7 8e3e c692 2e3e 030c f53e 482d babe
00000050: ac29 ff3d 087e 4d3e ca8a 9fbe b532 c8be
00000060: d19f 083e a709 c63d 2192 66bd 40bc 7f3e
00000070: 89a4 673e bd6d dabe b86e 053f 380b 193e
00000080: 3a20 623e 6491 34be 4d22 833e e77e f4be
00000090: 60f0 043e 257f 27be 13fe ae3d 63b6 9e3e
000000a0: c525 3cbe 1181 a9be 505e 9c3e 3a45 ddbc
000000b0: 5746 e53e 48a0 68be 7ea0 a53d b161 d53e
000000c0: acdc c4be a918 68be 44d5 bf3e ce71 163f
000000d0: a7b7 133f 0975 343d fcd9 a43e ae31 803d
000000e0: e2bd be3b d381 d03e 3c56 9dbe 3812 1a3e
000000f0: 1d49 debd 28e2 efbe 5f8c b6be af53 38bd
-0.44368216 -0.11997402 -0.6125875 -0.601756 0.2609173 0.27149466 -0.45324758 0.61987144
-0.41473454 -0.0049106586 -0.46719635 0.082529254 0.04858799 0.75243604 0.025453523 0.19233464
0.27911058 0.17048177 0.47860727 -0.36362672 0.1245912 0.20067608 -0.31160575 -0.39101186
0.13342215 0.0966981 -0.056291703 0.24974155 0.22621359 -0.4266185 0.5212207 0.14945686
0.22082606 -0.17633587 0.25612107 -0.4775307 0.12982321 -0.16357096 0.085445546 0.30998525
-0.18373783 -0.33106282 0.30540705 -0.027010549 0.44780228 -0.22717392 0.08087252 0.41676095
-0.3844961 -0.22665657 0.37467396 0.587674 0.57702106 0.044056926 0.3219756 0.06259476
0.0058209756 0.40724048 -0.30729854 0.15046012 -0.10853789 -0.4685223 -0.3565397 -0.045001682

affine_layers.1.weight f4 [64, 64]
00000000: 1a44 323e b2b5 a43d f4f7 b5bd f48c 37be
00000010: 9e72 203e f5f7 d5bd 9442 21bf ac96 f7b7
00000020: 79f5 86be db72 0ebe 0b13 a63d 624e 51be
00000030: 0e65 f6bd effe f73d af02 15bd 02d0 ad3d
00000040: 0298 b0bd 44d5 d93d 3e4c 8a3d 6d0e 33bd
00000050: 8b80 83be 269e 93be f1d2 b23d e474 b83e
00000060: 5d9d 01be de1a 593e 8c25 60be 8001 bb3e
00000070: 73ea 7ebd 109d be3c c13a de3d 6297 c33e
00000080: 4cfb c43a 6ca7 903d 8462 c23b 3acd 70bc
00000090: dec3 2f3e 196f 023f 2cf6 d0bb a3e8 b13d
000000a0: be16 303e 2bfd 83bd 59cd 6f3e fa59 963d
000000b0: 2232 ad3e 6165 143a 705b fd3c 2ba7 80bd
000000c0: 8a16 1f3d 92da 94bd e467 48be 18a5 413e
000000d0: d26a c53e cd21 143e 0bfc f13c 819e 63be
000000e0: 77de c7be 8e25 f73e 999f 74bb 3cdf 673e
000000f0: 6b25 d7bd 35d3 9bbd 8133 aa3c e474 f13e
00000100: 5710 dabe 4112 1bbb 961b e4be 8421 0fbe
00000110: c7e3 68bd 5824 943d af67 e93d 5898 7bba
00000120: 6658 6dbe 72d2 aebe 3bb4 f1bd 62cb 583d
00000130: da52 fabc c07e 2c3e 97b0 ccbe cdeb 003e
00000140: 2d24 18be d0c4 35bd 50a9 b43e d12a e2bd
00000150: 273b 74bc 1c16 543e 1f2c 4dbe 8fbb 0bbe
00000160: 765d 9b3d b28a e1bd e8fc c73e c82c 653c
00000170: ac31 53be f7e8 ed3d b3cf 4abe 4c49 3abc
00000180: ba88 e5bc 46f4 bdbe 3237 623d f6c8 a5bd
00000190: 7970 d6bd 4863 3bbe 07bb 033f 73cd 45be
000001a0: 6a6d 15bd a7a8 88be 9c18 6e3e af58 debc
000001b0: d1b3 053d 301b 0c3e 522c d2bd 89e5 e3bd
000001c0: cc23 c73e 8ae5 9e3d 9245 a1bd 615e 8d3e
000001d0: 9d60 ba3d ec74 b2bb 3de4 de3e a554 1e3e
000001e0: 078a 983e 8740 8b3d f9fc e7bb 2301 95be
000001f0: bcd3 833d 57f1 913d b97c 833e 1592 ccbe
00000200: 80b8 a93e e070 8ebe 44d6 2cbe ef96 2b3e
00000210: a106 00bd 6698 7ebe a24e b6bd 7c7e bcbe
00000220: cb6b 303e abe8 bc3d 52fe 6dbe fa54 973d
00000230: 78ad 533d b1d7 57bc 8d22 26be 9dc0 043e
00000240: 533b 31bc 33b2 353e fa44 c33e baee 3fbb
00000250: ae17 adbe 2315 9cbd 0980 303e b626 013f
00000260: 30db e0bd 6fb2 bd3d d8b9 a13e 5d48 923e
00000270: 7766 9ebd 59c0 8cbe 8e93 12bf 9d81 a43e
00000280: 9bcf 88bd 73e4 083e 9865 7fbe e66b 543d
00000290: ad4b 843c 061d 3cbc 961b f43d acf1 3b3d
000002a0: 863c 173e 757d da3d 78f4 eebd 5593 993d
000002b0: b66e 8ebe 8fa4 ca3d cc6f 2e3d 17a6 a03c
000002c0: fef6 85be c21f b33e 96f7 c73d e0c8 24bd
000002d0: a4c5 95bd 338d 343e 6acd 743d ec9c 483d
000002e0: db1f 623e 74d1 0c3d 080b 85bd 1c19 b53c
000002f0: d8a3 423e 5425 223e f2d9 59be be82 533e
00000300: 0529 f53b 79c8 dfbe 59c0 913e 0a51 e33d
00000310: 6209 dabe 79c8 01be f277 f03e a280 fabd
00000320: 0fb6 12be db4c 82bd f480 03bd a2dd f73d
00000330: e66b b3bd a036 263e 16e2 5e3e c42b 67bd
00000340: 1339 b7be 408b bc3d f638 293d b92b 12be
00000350: f886 80be 1ab4 8fbe 1acb f63d 2876 873e
00000360: 3235 243d bf7e 64be 3a0f a8bc 5c3d 15be
00000370: aa12 52bd 06a7 7d3e c53c 48be 6b45 0cbd
00000380: dcf7 9c3d 5193 1f3e 2a41 ee3d f366 56be
00000390: a2bd 07be 6221 38be 5c03 53bd 8b90 2f3d
000003a0: 3c7a 1ebd f8d7 16bd 90e5 5f3d 6a64 7dbe
000003b0: f686 423e ed7f 113f e7f4 2bbe ce40 98bd
000003c0: 77a0 ed3d f0c5 853e 8d31 64be a2a9 663e
000003d0: a07a 1f3d bb07 36bd c474 713d 1696 123e
000003e0: 8287 3abe 7885 763e e614 fc3d 9871 15be
000003f0: 37f5 bfbd f763 1c3e b0b7 963e e662 793d
0.17408791 0.08042468 -0.08885184 -0.17924863 0.15668723 -0.10447685 -0.62992215 -2.9514857e-05
-0.26359156 -0.13911001 0.08109101 -0.20440057 -0.120309934 0.121091716 -0.036379512 0.0848694
-0.08622743 0.1063638 0.06752823 -0.04371493 -0.25684008 -0.28831595 0.0873164 0.3602668
-0.12657686 0.21201655 -0.21889323 0.36524582 -0.062235307 0.023268253 0.1085105 0.38201433
0.0015028506 0.07063183 0.005932154 -0.014697367 0.17164561 0.5095077 -0.006377002 0.0868695
0.17196175 -0.06444772 0.23418178 0.073413804 0.3382731 0.00056608586 0.03092739 -0.06281885
0.038839854 -0.072682515 -0.19570881 0.18910635 0.3855806 0.14466019 0.029539129 -0.22228433
-0.39036915 0.4827084 -0.0037326573 0.22643751 -0.10505184 -0.07608644 0.020776512 0.47159493
-0.4259059 -0.0023662003 -0.44552296 -0.13977629 -0.05685785 0.072334945 0.11396729 -0.0009597591
-0.23178253 -0.34144932 -0.11801954 0.052928336 -0.030557085 0.16845226 -0.39978477 0.12589951
-0.1485755 -0.04437715 0.35285425 -0.11043323 -0.014906681 0.20711559 -0.20036362 -0.13645767
0.07586186 -0.11012782 0.3906014 0.013987727 -0.20624417 0.116167 -0.19805793 -0.011370014
-0.028019298 -0.37100428 0.05522842 -0.08094971 -0.10470671 -0.18299592 0.51457256 -0.19316654
-0.0364813 -0.26691172 0.23251575 -0.027141897 0.03264219 0.13682246 -0.1026236 -0.11127765
0.38894498 0.07758625 -0.078745976 0.27611068 0.09100459 -0.005446067 0.43533507 0.15461977
0.29792807 0.06799417 -0.0070797172 -0.2910243 0.064368695 0.0712611 0.25681093 -0.39955202
0.33148575 -0.27820492 -0.16878611 0.16756795 -0.03125632 -0.24862823 -0.08901717 -0.3681525
0.1722862 0.092240654 -0.23241547 0.07389255 0.051679105 -0.013173983 -0.16224118 0.12964101
-0.010817367 0.17743759 0.38138562 -0.002928658 -0.3380713 -0.07621219 0.17236342 0.50449693
-0.10979307 0.09262549 0.315871 0.28570834 -0.07734387 -0.274905 -0.572564 0.32130137
-0.066802226 0.13368396 -0.24941099 0.051860712 0.016149366 -0.011481529 0.11919324 0.045884773
0.14769182 0.1066846 -0.116677225 0.074988045 -0.2781884 0.09894668 0.042587087 0.019610448
-0.26165003 0.34985167 0.0976402 -0.04023063 -0.073130876 0.17631988 0.05976621 0.048977777
0.22082464 0.034379438 -0.06496245 0.0221067 0.19007814 0.15834552 -0.21274546 0.20655343
0.0074816965 -0.43707636 0.28467062 0.11099441 -0.42585284 -0.1267413 0.4696651 -0.12231566
-0.14327262 -0.06362315 -0.0321054 0.1210282 -0.08760814 0.16231775 0.21765932 -0.056438223
-0.35785732 0.09206247 0.041314088 -0.14274491 -0.25102973 -0.28067094 0.12050457 0.26457334
0.040089794 -0.22313975 -0.020515073 -0.14574188 -0.05128733 0.24770746 -0.19554432 -0.03424589
0.07664463 0.1558354 0.11633523 -0.2093771 -0.13255933 -0.17981485 -0.051516876 0.042862456
-0.03869079 -0.036827058 0.054662287 -0.24745336 0.18996796 0.56835824 -0.16792642 -0.074342355
0.11602872 0.26127577 -0.22284527 0.22525647 0.038935304 -0.044440966 0.058949247 0.14315066
-0.18215755 0.24074352 0.123086736 -0.14594114 -0.09372943 0.15272509 0.29437017 0.060885333

affine_layers.1.bias f4 [64]
00000000: 3240 e5bd 6ad6 243e 9a3e 88be d048 15be
00000010: f5ed 31be d294 d4be 68a3 b43c 0206 a63e
00000020: f10b be3e 7ffa db3d d314 b03c 0ef3 51be
00000030: 71da e4bd 83cf 4ebe a5b8 98be 78c3 6abe
00000040: 43e7 8fbe 48e0 44be d46b 00be e3c0 c03e
00000050: b894 44be 4d8b 613e e176 18bd 48e0 44be
00000060: 1d1e 9d3e 0842 d53d 8681 a23e 3d07 d53d
00000070: ea67 53be e994 243d 1dce 0d3d 90e5 e23e
00000080: 92d9 cb3e 9b40 aa3b 9cdd 39bd 1867 233e
00000090: f517 e03d 589e b13c 1653 4e3e 83c0 75be
000000a0: 07c8 c13d 7852 d53d f011 e23d 8d74 e83d
000000b0: 8e88 e7be 76a1 08be 2fef 92bd c136 b03b
000000c0: 7ae6 34be 1a03 013d 2202 debd 6ede 073f
000000d0: a193 853e 660e 213e b826 453e be35 a03d
000000e0: a7ef debc 12e4 893e 2926 9c3e fae3 d53d
000000f0: bd39 1fbe 220d 7cbd 1788 5bbe ef8c 3a3d
-0.11193885 0.16097417 -0.2661026 -0.14578557 -0.1737593 -0.4151979 0.022050574 0.3242646
0.37118486 0.10741138 0.021494305 -0.20502874 -0.11174477 -0.20196347 -0.29828373 -0.22926128
-0.28106126 -0.19226182 -0.12541133 0.3764716 -0.19197357 0.22025795 -0.037222747 -0.19226182
0.30687037 0.10412985 0.31739444 0.10401771 -0.20645109 0.040181074 0.034620393 0.44315767
0.3981443 0.00519569 -0.04537736 0.15957296 0.109420694 0.02168195 0.20148882 -0.23999219
0.0946198 0.1041612 0.110385776 0.11350355 -0.4522137 -0.13342842 -0.07174527 0.005377621
-0.17666045 0.0314971 -0.108402506 0.53073776 0.26089194 0.15728149 0.19253051 0.078227505
-0.027213885 0.26931816 0.30497864 0.10443874 -0.15549369 -0.061535962 -0.21438633 0.04554456

final_mean.weight f4 [3, 64]
00000000: 0b8c 583d 1a5e b8bd 4ddb c2bc 4166 0ebe
00000010: fb53 ffbb d68b b93d 8a82 063d e040 f2bc
00000020: 05d5 863c 219d ce3d a4a3 603c 0894 58bc
00000030: 7b3b 273d c901 67bc 0f26 3a3e 5152 d73b
00000040: b3c3 18be 149e e5bc df5f 3b3b e593 653d
00000050: 5628 09be 1524 8c3c a7cd 69bc 407d 4d3c
00000060: 0b86 0abd 6336 6dbd 4fb4 213d ec43 493c
00000070: aff1 ffbc a87e eeb9 d193 a03c 61d9 68bd
00000080: 0db3 9ebc ebec 623d 169a c5bd ef21 fb3c
00000090: fdbd a53d 9b85 8dbd a6b2 c6bd a4ee 61ba
000000a0: 6784 1f3d f324 16be 9439 91bc 8117 27bc
000000b0: b520 33bd 87d4 1b3d 47d0 e53c 65cd 103e
000000c0: b101 493c a3bf 2a3d 1b3a dbbc 406d 9abb
000000d0: 8a73 abbd ee02 093e b94c 613d c302 7b3d
000000e0: d411 003c ad42 0d3d 1221 f3bc 00fa 163d
000000f0: a974 4bbb cae3 3b3c 7bfa 13be 2114 ab3d
00000100: 2fcb 57be 818b c03d 9025 81bc b73a 62bc
00000110: cbb5 cc3d 96b3 30be 6f4a 163d d21a 843d
00000120: 9fb4 723d 9a09 4b3d 9e94 35bd 387e e23c
00000130: 8e79 cdbd 635d f3bd 344b e63c e36c d0bc
00000140: 1bbd 24bd 7fae 603c 9116 d8bd 8fb6 b23d
00000150: 194c 19bd 94aa 50be 9b2c d93d 2327 e3bd
00000160: 7786 083e 3455 ffbd 477d 8cbc d1b0 243b
00000170: 36be 203d 36bf 193e dca2 12bc 4289 243e
00000180: 1dc1 a63c 1ea1 eabd d83f 043d b639 d33c
00000190: 92fc 09be 9cd4 af3d 6188 8b3d 0cde cebd
000001a0: ca49 b3bd 14bc 63bd 392b 85bd 00ad 4e3d
000001b0: 17c3 7ebc 8b02 63bc f4f4 adbd db5a 8d3d
000001c0: 9f70 d6bd 3d47 54bd 696f 8cbd 8042 343d
000001d0: ba8f 283e e016 943d 6301 a2bd e921 84bc
000001e0: de38 6b3d d01e 363d 77a2 d8bd 31c3 43bb
000001f0: 33ea 48be cbd7 853c d643 b7bd 215a b3bd
00000200: bc4e 863d 28a0 48bd 8a05 253e c5e8 c0bd
00000210: 5ed7 093c 52fc 373e 4b1c 3cbc 63a5 a73e
00000220: c059 6ebe 4e0d 84bd 6fdf c63d 6078 843e
00000230: 2f29 13be 117f 79be 35ed 4c3d 2084 30be
00000240: adf4 8f3c de41 273e 353e 82be b5d3 b13d
00000250: ce52 bdbb 4605 10bd 128b 103e 7da7 7cbc
00000260: 7d7b f63d 5bee 423d 95ea a3be 6cd2 95bd
00000270: 809c 043e fcb1 1c3e 727c 033e 7fc5 e3bd
00000280: fbec b9be b173 afbc 41cf 7abc d091 d33d
00000290: 3075 8dbb a293 12be 0e32 733d 1117 27be
000002a0: 40e2 2fbe e74a bbbd 7c07 783d 0d19 d8bd
000002b0: ae50 393e 84e1 863d 7a77 62be 9a02 64bc
000002c0: f43c bdbd 999f bf3e 010b 3b3d e481 8dbd
000002d0: a113 523e 3b44 58bc 9d0e 37be fcc8 75bd
000002e0: 6454 1cbe c93f e53e 21f0 a1bd 6421 713e
000002f0: 7fc6 87bc 6c2c ae3d 09e9 a93d 8478 23bd
0.05286793 -0.090023234 -0.023786211 -0.13906194 -0.0077919937 0.09059875 0.032839336 -0.02957195
0.016458998 0.10088564 0.01371089 -0.013218887 0.04082821 -0.014099547 0.1817858 0.006571092
-0.14918403 -0.02802948 0.002859108 0.056049246 -0.13394293 0.017107049 -0.014270223 0.012542069
-0.03381924 -0.057913195 0.039478596 0.01228426 -0.031243173 -0.00045489264 0.019601734 -0.056847934
-0.019372487 0.055401724 -0.0964853 0.03065583 0.08092878 -0.06910249 -0.09702043 -0.0008618629
0.038944628 -0.14662533 -0.01772765 -0.010198475 -0.043732364 0.03804448 0.028053416 0.14140852
0.01226847 0.041686665 -0.026761105 -0.0047127306 -0.08371647 0.13380024 0.05500481 0.06128193
0.007816751 0.034487415 -0.029678855 0.036859512 -0.0031044877 0.011467883 -0.1445102 0.08353449
-0.21073602 0.09401608 -0.015764982 -0.013807944 0.09995612 -0.17256007 0.03669208 0.06450428
0.059254285 0.049569704 -0.044331186 0.027648076 -0.1003295 -0.118830465 0.028112032 -0.025442546
-0.040219408 0.013713478 -0.10551179 0.087262265 -0.037426088 -0.2037757 0.10604211 -0.11091449
0.13332544 -0.12467423 -0.01714958 0.0025129805 0.0392439 0.15014347 -0.0089499615 0.16067985
0.020355755 -0.11456512 0.03228745 0.025784355 -0.13475254 0.08585474 0.068131216 -0.10100946
-0.087543085 -0.055599287 -0.06502385 0.050457954 -0.015549443 -0.013855587 -0.08493987 0.06902095
-0.104706995 -0.05182575 -0.06857187 0.04400873 0.16461077 0.072309256 -0.07910421 -0.01612945
0.05742728 0.04446298 -0.10577863 -0.0029870982 -0.1962059 0.01633825 -0.089484856 -0.08757425
0.06557986 -0.048980862 0.16115394 -0.09419397 0.008413164 0.17967346 -0.011481355 0.32743368
-0.23276424 -0.0644785 0.09710585 0.2587309 -0.14371179 -0.24364878 0.050030906 -0.17237902
0.017572725 0.1633372 -0.25438085 0.08682958 -0.0057776934 -0.03516128 0.14115551 -0.015420792
0.12035272 0.047590595 -0.3201491 -0.073155254 0.12950325 0.1530227 0.12840441 -0.11121654
-0.36313614 -0.02141747 -0.015308202 0.10330546 -0.0043169484 -0.1431413 0.059373908 -0.16317393
-0.17176151 -0.09145146 0.060554013 -0.10551653 0.18097183 0.065859824 -0.22115889 -0.013916636
-0.092401415 0.3742645 0.04566479 -0.0690954 0.205153 -0.013199861 -0.17876668 -0.060006127
-0.15266567 0.44775227 -0.07907129 0.23547894 -0.016574143 0.085045666 0.08296401 -0.039909855

final_mean.bias f4 [3]
00000000: 677e 8b3b f239 983e e30e 39be
0.0042570117 0.2973171 -0.18072085

exp_avg f4 [64, 11]
00000000: f976 283c e666 923a d910 88ba 9002 0e3b
00000010: c647 b03b 484e 123a 720a f3ba ceed 3dbc
00000020: 6380 84bb d2a9 1f3b 3381 a73a cc85 8cbb
00000030: b136 7aba 3981 d13a f38b 26bb 1744 16bb
00000040: a5d0 1aba e4d0 f03a 133c 6f3b 3898 72ba
00000050: d46f 2d3b 39fa 0e3b f28b b63b f308 5d3b
00000060: 33db 2cba 7856 833a c91e 103b 97e8 ad3a
00000070: ebd0 8dba cd1a 63bb 6383 523a 1c69 a2ba
00000080: 0926 88b9 15eb 163a 04be d63a 2151 b8b9
00000090: 9d04 2839 4337 17ba 142f 0f39 95d2 b03a
000000a0: 1591 f039 bfcb 7b3a c00d 0aba d7eb a3ba
000000b0: 58c2 8c3a 1da6 15bb 161b b3ba edeb 963a
000000c0: 6602 bc3a 064e 1eb9 3048 54ba 516d 62bb
000000d0: 72e4 89ba 1f4f 98b9 dd4f 9cb9 f707 163b
000000e0: 1ea9 a43a 8739 973a 12e3 b7ba 2e79 e53a
000000f0: 92d1 f939 11ff fe39 46c3 0cbb efa0 49bb
00000100: a5da 943b 273d 0b3b 7dc8 a73a 8b7c b23a
00000110: 054f 083a e531 32ba ce4f 8cba 67f7 2b39
00000120: 21eb 153b 6046 1f3a e989 b83a eece e2b9
00000130: fe37 07ba 64ab d4b9 09e8 5bb8 c109 e739
00000140: 962a a8ba b5d5 7eba 1fbc 9639 2a7b 1dba
00000150: 0c80 213b 168b be3a 75d8 d6b9 270e 543a
00000160: a233 513b 90f2 2e3b 0da8 27ba 0ad7 133a
00000170: ddfc 4a3a dabe 1b3a af13 1c3b 9a91 f5ba
00000180: e2cd 823a 8974 5cb9 8ab6 10bb 1ead 3c3b
00000190: aeac 373b c525 0a3b 3ad7 08bb 2b52 6339
000001a0: 5a5b 0739 7f10 a63a cccd beb9 b752 7db9
000001b0: 1959 2a3b 86b1 273b 9177 25ba 0377 7dba
000001c0: 4cf4 163a 0877 b139 f484 e43a 7df9 37ba
000001d0: 81f6 dfba f8ac a7b8 cb0c 2abb 0d05 3e3b
000001e0: 2eed f33a 96fe fabb 83d5 57bb 94b9 68ba
000001f0: b9c5 9a3a b10e 18bb 6937 7dba e766 67ba
00000200: c96e 043c 51a4 f43a c3b3 05bb ae47 daba
00000210: a03c 0fbb 1df4 bab9 5489 b0ba 0656 043b
00000220: 5ec0 103a 4aa6 ee39 aff9 06bb f3ee 3d38
00000230: add3 00bb dd2f 13b9 f5df 92ba 702c a4bb
00000240: 7e67 98bb 81a1 76b9 e307 1fba ece2 1fbb
00000250: 3ab4 a2ba af62 e4b9 0713 753b 2697 f33a
00000260: aaf0 22bb 81de 71b9 bfcf fc39 fd40 80bb
00000270: 0e7b f9ba 0653 273b 6655 093b 6eca 2dba
00000280: 0a97 edba 9b55 98bb 2b0e 28bb 3074 51b9
00000290: 0d06 18ba 9147 64ba 99bb c038 67c9 5bb9
000002a0: 6295 b53a 3979 0339 ebd5 cbb7 26ed e3b9
000002b0: 240c 0a3b a9fe 9039 3900 61b9 1374 92ba
000002c0: 19aa 01bc e024 86bb 4c84 ebba 4f7d 6a3a
000002d0: 5f88 5abb 81e0 afba 5065 0a3a 3afc bb3b
000002e0: 5282 943b 4427 a5bb ac99 80bb 88f2 d03a
000002f0: d9cb 0e3b 23c5 23ba 2050 8b3a e2c8 9e3a
00000300: 7b8f 783a eb42 d7ba 4d58 1e39 9cda 7fba
00000310: 80a6 ab3a 50a9 0b3a 39ec 14b9 7c77 1ebb
00000320: 745b 54ba 8c81 173a cfc6 4c39 082b 3dba
00000330: c3a6 81ba f88c 90ba 5344 473a c19f cbba
00000340: 84b4 0e35 4bae 07bc 5b0e bbbb 0d35 84ba
00000350: 662f be38 93be 73bb ccee f5ba 6a0b 093b
00000360: db58 7d3b a0b3 3b3b 38c5 55bb 88d1 36bb
00000370: 6604 f9bb 14fe d0ba 30b5 0b39 3f13 d3ba
00000380: 16fe 8abb 7a54 22ba f044 0c3b d44b 003c
00000390: 14f1 113b 46f6 3aba e4c4 9dba 297a eeba
000003a0: 640b fdba ca81 00bb 9a18 413b 4d1e d83a
000003b0: 5984 5cb9 573d 27bb 22f3 feba 8f1a 08bb
000003c0: 20e0 fcb9 8fc5 bdba cf93 6f3b 3e8f 3e3a
000003d0: d5ae e5ba 61f2 0f3b 51b4 503b 6a42 a83a
000003e0: 60a3 6bbb 13f6 43bb 4b1d ffba 318b 2c3a
000003f0: c1c8 0a3a 825e 433b df43 4fbb 67a6 08ba
0.010282272 0.0011169582 -0.0010380998 0.0021669008 0.00537965 0.0005581123 -0.0018542542 -0.011592342
-0.004043625 0.0024362695 0.0012779593 -0.004288411 -0.0009544893 0.0015983946 -0.0025413006 -0.0022928768
-0.0005905724 0.0018372801 0.0036504313 -0.000925425 0.002646436 0.0021816625 0.005570882 0.0033727258
-0.00065939425 0.0010020277 0.0021991006 0.001326817 -0.0010819709 -0.0034653426 0.00080304424 -0.0012390944
-0.0002596828 0.0005757076 0.0016383533 -0.0003515566 0.00016023447 -0.00057684275 0.0001365508 0.0013490493
0.00045884462 0.00096052507 -0.0005266331 -0.0012506199 0.0010739071 -0.0022834607 -0.0013664688 0.0011514403
0.0014343977 -0.0001509712 -0.0008097915 -0.003455002 -0.0010520353 -0.0002905065 -0.0002981414 0.002289293
0.0012562608 0.001153753 -0.0014029464 0.0017507428 0.00047649123 0.00048636695 -0.0021478697 -0.003076609
0.004542666 0.0021246166 0.0012800839 0.0013617439 0.0005199763 -0.0006797596 -0.0010704936 0.00016399995
0.0022875743 0.00060758553 0.0014079186 -0.00043260254 -0.0005158185 -0.00040563487 -5.242977e-05 0.0004406702
-0.0012830074 -0.0009721176 0.0002875039 -0.00060074276 0.0024642972 0.00145373 -0.00040978534 0.0008089267
0.0031921645 0.0026694871 -0.0006395586 0.00056396483 0.0007743368 0.000594122 0.0023815443 -0.0018735409
0.0009979571 -0.00021024248 -0.0022081458 0.002878971 0.002802651 0.0021079641 -0.0020880238 0.00021679017
0.00012908634 0.0012669711 -0.00036392955 -0.00024158774 0.0025993048 0.002558799 -0.0006312067 -0.0009668918
0.0005758449 0.00033848756 0.0017434643 -0.00070180726 -0.0017087014 -7.9953985e-05 -0.0025947567 0.002899471
0.0018610114 -0.0076597435 -0.003293366 -0.0008877751 0.0011808194 -0.0023202116 -0.0009659441 -0.00088272843
0.008083054 0.0018664693 -0.0020401336 -0.0016653442 -0.0021856204 -0.00035658563 -0.0013468661 0.0020192876
0.0005521829 0.00045518792 -0.00205956 4.528365e-05 -0.0019657419 -0.00014036843 -0.001120566 -0.00501018
-0.004651009 -0.00023520553 -0.0006066544 -0.002439673 -0.0012413331 -0.00043561074 0.0037395374 0.0018584474
-0.0024862685 -0.0002306644 0.00048219968 -0.003913997 -0.0019033866 0.0025531664 0.0020955442 -0.00066295906
-0.0018126678 -0.004648877 -0.002564321 -0.00019975076 -0.00057992415 -0.0008708174 9.190216e-05 -0.00020960496
0.0013853724 0.00012538293 -2.42991e-05 -0.00043473503 0.0021064365 0.00027655557 -0.00021457755 -0.0011173509
-0.00791409 -0.0040937513 -0.0017968505 0.0008945064 -0.0033345444 -0.0013418348 0.0005279379 0.005736855
0.004532137 -0.005040081 -0.003924569 0.001594142 0.0021788983 -0.0006247332 0.0010628738 0.0012114311
0.00094818295 -0.0016423141 0.00015100949 -0.00097600534 0.0013095886 0.0005327659 -0.0001420238 -0.0024180105
-0.0008100786 0.0005779497 0.00019529018 -0.000721619 -0.0009891618 -0.001102834 0.00076014287 -0.0015535281
5.3161807e-07 -0.008281301 -0.0057084984 -0.0010086611 9.068735e-05 -0.0037192449 -0.0018763184 0.0020911344
0.0038657698 0.0028641 -0.0032618772 -0.0027895886 -0.0075994013 -0.0015944862 0.0001332357 -0.0016103758
-0.004241715 -0.00061923976 0.0021403395 0.007830579 0.0022268938 -0.00071320345 -0.0012036827 -0.0018194366
-0.0019305763 -0.001960861 0.0029464127 0.0016488523 -0.00021030138 -0.002551874 -0.0019451121 -0.0020767783
-0.00048232172 -0.0014478433 0.0036556607 0.00072692696 -0.0017523417 0.0021964537 0.0031845758 0.0012837176
-0.0035955533 -0.002990131 -0.0019463686 0.00065820204 0.0005294197 0.002981097 -0.0031626148 -0.0005212784
