src/models/car_ppo_pgd_hopper.model (torch, 136526 bytes, 36 tensors)

affine_layers.0.weight f4 [64, 11]
00000000: 8bbd 873e b60b 2c3d ee9a 42bf 8172 52bd
00000010: c717 83be a2af 313e e9d1 6bbd e33f 973c
00000020: 7e00 7cbd de30 dd3b 7899 003f 308d ea3c
00000030: 5b4c d5bd 8900 873e af84 aabb fd38 20bd
00000040: 2cac a23e d141 403e 6681 a1bd ae7c 9c3c
00000050: cf42 343d efe7 57be d1e8 c33e 9802 bbbc
00000060: a7d0 62bc 2cb3 90b8 9c2f fd3d e782 b7be
00000070: 1cd7 4c3e 8375 563d 9237 f2bd 12bb 7f3d
00000080: cf22 bebd 3167 1d3f f2bb f33d 6ad3 48bf
00000090: 570b 39be e630 bdbe 4e4e 2d3e 807d 7ebe
000000a0: ae32 273e 03ca 8ebe 8e3f 50be 7557 bb3d
000000b0: f1bc 80bb d536 00be ea02 0b3f c9af 1d3d
000000c0: 56e5 75be 72c7 0cbb 67a3 55be 1491 babd
000000d0: 35d4 463e 0b30 853d ee35 7c3d 4054 793e
000000e0: 53dd c4bd 1271 a63e dc33 f5ba 5e05 9abe
000000f0: 1fd2 aabd 701c 56bd ec1e 293d 9d1b c0bd
00000100: 0d70 58bd 793b 86bc 2991 ea3d 2530 dfbd
00000110: 21b1 e63e 085c fb3d a4e7 2f3e a599 2fbd
00000120: d047 223e 989d 0d3e 2a44 2ebe ded0 08be
00000130: 5bf3 8d3e 3d40 823e 87ac d3bd 4470 233f
00000140: 9848 8d3d 0ca1 b03e a9ac 3abe f948 50bd
00000150: 693b 573d 1c1b c2bd 67e2 a43d 1138 6ebb
00000160: 78e3 31bd fb33 b5bb 30d8 a2bb cef6 bcbd
00000170: 92a9 febc 6234 00be 48e1 18be 027f 953d
00000180: 62e1 f6bd 9408 69bc be5d 2cbe 1d46 01be
00000190: e913 d13d 3c87 29bf 4855 9d3d 791f 06bf
000001a0: 8e47 1b3f 8f7c 97be c4df 16be 7030 2f3e
000001b0: d295 543c 4668 8c3e 84b2 ba3d 2ae3 e4bd
000001c0: 087f b33d 065c 223e 4773 103d b2c6 b2be
000001d0: 30fa 62ba 6de9 ce3d ffea 26be ad76 88bc
000001e0: 8237 3c3e 2c7c a93d 10d7 82bb c061 ef3d
000001f0: ee8e 6a3c fa7e d33d 7130 5dbe 6fdd 1b3e
00000200: 6ee1 f63b bf6c 063d 59a9 2139 c1f6 84bd
00000210: a963 193e 7a76 f83c f9f8 be3d cec0 293c
00000220: b1cc c8bd c72c aebd fd45 483e 74a6 eabd
00000230: fc0e 1e3e bffe a63d dba6 5fbe 109f 88be
00000240: da12 9c3a efdb a93e 3f1a 2d3b 36ec 153e
00000250: 391a 42bf 6220 aa3e 1540 f1bd 3a5b c63e
00000260: c042 9b3e 77ef d13d 42c9 a7be 2370 b9bd
00000270: bf38 b13e 1b56 8b3c 5a0d 143d e87a 833d
00000280: 21a8 c73d 331b 9fbe dd0b 043f 991a 8b3e
00000290: f0ce f73d ae54 e8bd 8ea5 4fbd c990 073e
000002a0: 8004 463d 95b2 e33c 5e5b 333f 1aee 5fbf
000002b0: 6ea0 2bbe ce85 f53d e4dc 7abd 6904 e1be
000002c0: cfb7 1abe b3a4 68be fa27 0ebc d9fa 4d3d
000002d0: a65b 433d 8713 c2bd 4344 82bd cda9 4e3d
000002e0: 0d51 09be 22f6 60bd 7716 8c3e e501 233e
000002f0: ca86 113c c8e1 98be 6af0 6bbe 9134 463d
00000300: d846 64be e4fe 9fbd d256 b5bd 0a6e 003e
00000310: 4b00 083e 25fc 603c c904 853e 2e2e 383c
00000320: aa77 77be 6647 c6bd 5c0e 95bd 3da2 acbc
00000330: 62a7 7e3c 39f6 58bc 7570 193e 340b ec3c
00000340: 7b79 843e 1cb4 8e3e 63ca 1a3e 51a9 24bf
00000350: 8629 8fbd ba95 9bbd 9593 863e 6374 6cbe
00000360: ecb6 613e 335c a7be 1f49 5bbe c5a5 fc3d
00000370: 1942 063e 543c 7e3e bda9 e7be b1d2 0dbe
00000380: 5767 9cbe 8d6b c43e c2ba 24be 3d43 06be
00000390: 6811 0b3e 3d4e db3d 0785 e73c 0ab9 2f3e
000003a0: cc80 b93d b435 8fbf b532 20be a779 08be
000003b0: b97a 0b3f 8c1e 45bc f10e 2b3d f391 05be
000003c0: 40d3 ffbd a3cd 13be c8b6 2fbe a1d4 06be
000003d0: 41d0 e83e f9fa 8a3e e0f9 203d 96a6 f93c
000003e0: 2ddb cf3e 0464 c03d a326 efbd 3320 3abd
000003f0: 12ac fa3d 003c ed3e 5808 e5bd da44 23be
0.26511797 0.042003356 -0.76017654 -0.05137873 -0.25604078 0.17352155 -0.057573233 0.01846308
-0.061523907 0.00675021 0.50234175 0.028631777 -0.10414954 0.26367596 -0.0052038054 -0.03911685
0.31771982 0.18775107 -0.07886009 0.01910242 0.044009026 -0.2108457 0.38263562 -0.022828385
-0.013843692 -6.8998284e-05 0.123625964 -0.35842058 0.20003933 0.05235816 -0.118270054 0.062434264
-0.09283983 0.6148558 0.11901082 -0.7844759 -0.18070732 -0.3695137 0.16924402 -0.24852562
0.16327927 -0.27888498 -0.20336744 0.091475405 -0.0039287736 -0.12520917 0.5430132 0.03849772
-0.24013266 -0.0021481183 -0.20863114 -0.09109703 0.19416888 0.06503304 0.06157487 0.24348545
-0.09612527 0.3250814 -0.0018707472 -0.3008222 -0.08340859 -0.052273214 0.041289255 -0.09380267
-0.052841235 -0.01638578 0.11453468 -0.10897855 0.45057014 0.12273413 0.17178208 -0.042871136
0.15847707 0.13829648 -0.1701819 -0.13360927 0.27724728 0.25439635 -0.10335641 0.6384318
0.06898612 0.3449787 -0.18229927 -0.050850842 0.052546892 -0.09477827 0.08050995 -0.0036349336
-0.04342982 -0.005529878 -0.004969619 -0.09226762 -0.031086717 -0.12519982 -0.14929688 0.072996154
-0.12054707 -0.014223237 -0.16832635 -0.12624402 0.10208876 -0.66221976 0.07682282 -0.52391773
0.6065606 -0.29587218 -0.14733797 0.17108321 0.012975173 0.27423304 0.091160804 -0.111761406
0.08764464 0.15855417 0.035266187 -0.34917217 -0.00086584967 0.10103116 -0.16300581 -0.016658152
0.1838055 0.08275637 -0.0039929226 0.11688566 0.014316304 0.10326953 -0.2160051 0.15221189
0.0075341975 0.032818552 0.00015417243 -0.06492377 0.14979424 0.030329932 0.093248315 0.01036091
-0.09804667 -0.08504634 0.19557948 -0.1145753 0.15435404 0.08154058 -0.21840994 -0.26683855
0.0011907474 0.3317561 0.002641335 0.14640889 -0.7582126 0.3322783 -0.11779801 0.38741475
0.30324364 0.102507524 -0.32770735 -0.090545915 0.34613606 0.017008832 0.036145546 0.06419927
0.09748865 -0.3107544 0.515806 0.2716873 0.12100017 -0.11344276 -0.050694995 0.13238825
0.048344135 0.027795115 0.7006129 -0.8747269 -0.16760418 0.11988412 -0.061245814 -0.43948677
-0.1510918 -0.22719078 -0.008676523 0.050288055 0.047694825 -0.09476381 -0.06360676 0.050454903
-0.13409825 -0.05492223 0.2736089 0.15918691 0.008882234 -0.29859757 -0.2304093 0.048389975
-0.2229265 -0.078122884 -0.0885445 0.12541977 0.13281362 0.013731991 0.25980213 0.011241479
-0.24166742 -0.09681587 -0.072781295 -0.021073455 0.015542837 -0.013242298 0.14984305 0.028813936
0.25873932 0.27871788 0.15116267 -0.64320856 -0.06990342 -0.075969175 0.2628447 -0.23091273
0.22042435 -0.3268753 -0.21414612 0.123363055 0.13111152 0.24827701 -0.45246688 -0.13849904
-0.30547592 0.38363305 -0.16086867 -0.13111587 0.13580859 0.10708282 0.028261675 0.1716043
0.09057769 -1.1188264 -0.15644343 -0.13327657 0.54484135 -0.012031209 0.041762296 -0.13043956
-0.124914646 -0.14433913 -0.1715957 -0.13167049 0.45471385 0.27144602 0.0393008 0.030474942
0.40596905 0.093940765 -0.11677291 -0.045440864 0.12239851 0.4633484 -0.11183232 -0.15944234

affine_layers.0.bias f4 [64]
00000000: 8fd4 1ebd d37b 763e b5a1 e4bd bd18 85be
00000010: 1d33 1e3e 065e e03e 13d4 dcbd ff8f 703e
00000020: b960 48be 9267 8dbe 62b7 68be 2d63 12be
00000030: a2a8 cd3e 3253 ac3e bf34 b3be d401 75bd
00000040: eb9c 63be 5940 fd3e e81e 863e 9a8b 19bf
00000050: 0c32 06bf c1bc 0bbf 608f 013f c2cb 4bbe
00000060: 8367 013e 61e0 203e 389d 11be aecd 1d3f
00000070: 5e2a 64be bdd9 603d 7482 abbd c2f2 6abe
00000080: f2bd b7bd 68c2 b83e 49e6 d4bb 0e7c 303f
00000090: 7373 2f3f ccd3 bdbe 0824 073f a35f ef3e
000000a0: 7abd 2abd 58f2 a5be a4a8 403d 4881 9dbe
000000b0: bb40 5dbe 2359 b1bd fcd5 653c f84a 253e
000000c0: a5e6 a13e 87ba 7ebd 5e4d e33e af89 4bbd
000000d0: bb89 40be 7cc8 8f3e a339 9bbe ddba 8fbe
000000e0: 3dc9 88be d2c9 3bbd 39a6 c33e ab18 13bf
000000f0: 752f ee3e b2f1 b4be 6aff 50bc c73b cfbe
-0.03877693 0.24070673 -0.11163656 -0.25995436 0.15449186 0.43821734 -0.107826374 0.2349243
-0.19568147 -0.2761808 -0.22726205 -0.14295645 0.4016772 0.33657223 -0.3500118 -0.059816197
-0.22227828 0.49463156 0.26195455 -0.5997864 -0.52420115 -0.5458489 0.506094 -0.19901946
0.12637143 0.15710594 -0.1422013 0.6164197 -0.22281787 0.05489515 -0.08374491 -0.22944167
-0.08971776 0.3608582 -0.0064971787 0.6893929 0.68535537 -0.3707565 0.52789354 0.46752653
-0.041684605 -0.32411456 0.04703583 -0.30762696 -0.21606724 -0.086595796 0.014028069 0.1614188
0.3162128 -0.062189605 0.44394964 -0.049691852 -0.1880254 0.28082645 -0.3031741 -0.28072253
-0.26716033 -0.045846768 0.38212755 -0.57459515 0.46520582 -0.3534065 -0.012756208 -0.40475294

affine_layers.1.weight f4 [64, 64]
00000000: 447f a9be f80a b0be 27d2 23bd 0170 7ebe
00000010: 1849 3abe c8b9 d0bc 73fb 1d3d 4cdf 983e
00000020: 2f3c b63e 3f9c 81be 4899 8e3e b21f 183e
00000030: 951d 873e a470 1fbe e1bb 1bbe f841 913d
00000040: af36 133d 8a69 b23a 6f35 d13c 5a19 d0be
00000050: 273a 00be a848 f7bd 5acf 823e 86fe 9ebd
00000060: 73d3 523e cdfd 5bbe a6db fe3e aeaa 0f3e
00000070: 3c75 2dbe 3f4f 36bd 5134 87bd 4891 c03c
00000080: 7c18 8dbd 6546 c33d cb53 b83e dcb6 e7bd
00000090: 4349 183e 4a45 cbbe 6175 153b c10b c8bd
000000a0: 46de 23be 39af 03be 148c 9d3e c67a 8abe
000000b0: f86f 51be 2182 cbbe d8bd 35be ce6b 663e
000000c0: d8c2 6ebe c82a bf3d e1db 9a3e e203 223e
000000d0: 7381 bd3d 42ca 9abd 4892 d83d 2309 823e
000000e0: 47c8 ddbb 7d7e 4d3e 3de0 d13e e878 a83d
000000f0: 17ec bf3e 36eb cc3d b291 fdbe 60d2 c5be
00000100: 6f28 013d b540 e7bd 2659 10be e232 ca3e
00000110: f2d5 373d 0d7c aa3d 0035 e4be 0368 a7bd
00000120: 27a0 473e 86b4 c9be 54b5 9ebc 2a32 d83d
00000130: b9c4 13be 8d1e 1dbe c06b 533e c916 15be
00000140: 13f1 f5bd 3f89 3fbd 5454 63bd 2536 97be
00000150: 9487 ffbc 5ad1 183e 3fac 163e cc7b 723e
00000160: 528c e5bd 7a6a 13be b549 cd3d e22a 83bd
00000170: e8ec b33c 6307 a5bc 2010 283e fb71 663e
00000180: 15aa ccbc 245d 5fbe fc47 a7bd 29b0 30be
00000190: 28a2 763d e6e1 843e 6dac 89be c7b7 093d
000001a0: 6564 eb3d b6f5 f6bd c20a 3d3e 2b08 843d
000001b0: 15ee 02be d528 1f3e aba0 59be 95fd a53d
000001c0: 1ed3 b33d 5dbd 42be d279 22be b72a 013e
000001d0: 2284 973d fd44 89be cbf1 d2bc c247 97be
000001e0: ba46 f53d 3dfe 14bf d48c a5be 9b26 dfbd
000001f0: a9fb 4f3d afd5 b03e 4afd 553e b8b8 463e
00000200: 7c06 20be 5ea5 b63e 1759 8f3c ce30 14be
00000210: ab00 60be 3902 50be dd57 16be 3cc8 063e
00000220: f69b 5ebe 723d 0abe 0035 143d af21 debc
00000230: 8c6f 8f3e ab3b 2a3e e448 393d 8839 42bd
00000240: 787c 80be 9a2c 6e3d 8bd6 adbd 3990 83be
00000250: 33cb 6dbe 407a 933d a693 f23d 9c38 0abe
00000260: cbaf 903c 8f3c e1bb 3470 82be 5e93 263e
00000270: ce5c bebe 62cf debd 9aff 76bd c57d aabd
00000280: 5d8f 593e 45cb 31bd 407b 093d 1ef6 e43d
00000290: dff8 ac3d 56b4 883e ae5a 8ebe f5d7 38be
000002a0: 5263 8a3e ecc5 693d 5a26 fcbb 799c 2ebe
000002b0: f8db af3d ab86 0f3e 5f96 f2be ca41 0f3d
000002c0: 59bc 493e 6af2 323e 7156 3b3e 06c8 433d
000002d0: 5998 fbbe f20c 833e 317b 2d3e 694b 1abb
000002e0: bf64 0f3e 3ad7 913d 7914 6b3e 1ca0 cb3e
000002f0: 8467 213d 20e8 80bc 77fc 8dbe 1385 203e
00000300: 03fe aebe f4b1 403d 06e2 c93e 26ec 67bd
00000310: f946 c2bd de18 2fbd 69ca 9a3e e518 5e3e
00000320: 5975 86bc 65fe dfbd b759 9b3d ed5d d0bd
00000330: c2a7 193d 6771 2dbe 0e6a efbd 292b 51be
00000340: 552b ce3d f496 1a3f 9bb4 7a3d 84ed 61be
00000350: a5ff 86be d5d3 f53d 3324 753d 8ad8 243e
00000360: 5993 a53d 3c55 803e 698e 9a3e 210b e03e
00000370: 4297 803d de73 eabd 814a 673c 7baa 2f3e
00000380: fdd7 b33c 6059 4f3e 8858 82be 8d21 be3e
00000390: 0075 0e3e f564 cfbe dfe6 49be 5a19 72bd
000003a0: 313d 6f3e fe83 4dbe 63f5 8f3c 067f e33c
000003b0: 2197 163d a7cd c1be 9728 2cbe fb33 003d
000003c0: cb7c 01be 265c ed3e 3c3b 323e ae86 85be
000003d0: 30be 1b3e eaa6 933e ea1c bbbe 5ddd 64be
000003e0: 4ad9 133c 9df7 6c3d df1f fb3d c214 2fbe
000003f0: bd90 5d3e ad69 f2bd 9ac7 58be 75ac a83d
-0.33104908 -0.34383368 -0.03999534 -0.24847414 -0.18191946 -0.025479212 0.03856988 0.29857862
0.3559279 -0.2531452 0.2785132 0.14855841 0.26389757 -0.15570313 -0.15208389 0.07092661
0.035940822 0.0013611775 0.025538174 -0.40644342 -0.12522183 -0.12074405 0.25548822 -0.0776339
0.20588474 -0.21483536 0.49776953 0.14029953 -0.16939253 -0.04450917 -0.066017754 0.023506775
-0.06889436 0.09534911 0.3600143 -0.113141745 0.14871697 -0.397013 0.002280556 -0.09767867
-0.1600276 -0.12859811 0.30770934 -0.27046794 -0.20452869 -0.39747718 -0.17748201 0.22502062
-0.23316514 0.09334332 0.3024588 0.15821794 0.09253206 -0.07558109 0.10574776 0.25397596
-0.0067682597 0.20067783 0.40991393 0.08226186 0.3748481 0.100058004 -0.4952522 -0.38637066
0.0315327 -0.11291639 -0.14096507 0.39491946 0.04488177 0.08324442 -0.44571686 -0.081741355
0.19494687 -0.3939554 -0.019373573 0.10556443 -0.14430512 -0.15343685 0.20646572 -0.14559473
-0.12008872 -0.046761747 -0.055500343 -0.29533496 -0.031192578 0.14923611 0.14714144 0.23680037
-0.112084046 -0.14396086 0.10023824 -0.064046636 0.021963552 -0.020145124 0.16412401 0.22504418
-0.024983445 -0.21812874 -0.08168027 -0.172547 0.060213238 0.25953597 -0.26889363 0.03362253
0.11493758 -0.120585844 0.18461135 0.064468704 -0.12786134 0.1554292 -0.21252696 0.081050076
0.08780502 -0.19017549 -0.15866783 0.1261395 0.07398249 -0.26810446 -0.025750061 -0.29546934
0.11976381 -0.58200437 -0.32334006 -0.10896035 0.05077711 0.34538028 0.20897403 0.19406402
-0.15627474 0.3567304 0.017498536 -0.14471743 -0.21875255 -0.20313348 -0.14681955 0.13162321
-0.21739182 -0.13500002 0.036183357 -0.027115671 0.2801479 0.16624324 0.04523553 -0.047418147
-0.25094962 0.058148004 -0.084881864 -0.2569597 -0.23222046 0.07201052 0.11844568 -0.13498157
0.01766195 -0.006873674 -0.2547623 0.16267154 -0.3718018 -0.10879399 -0.060302354 -0.0832477
0.21246095 -0.043406744 0.033564806 0.11179756 0.08445906 0.26700085 -0.27803558 -0.18051131
0.270289 0.05707352 -0.0076950016 -0.17051877 0.085868776 0.14016216 -0.4738035 0.03497485
0.19700755 0.17475286 0.18294694 0.04779818 -0.4913967 0.25595814 0.16941525 -0.0023543483
0.14003275 0.07121129 0.22957028 0.3977059 0.03940536 -0.015735686 -0.27731678 0.15675764
-0.3417817 0.04704471 0.39430255 -0.056621693 -0.09486193 -0.042748325 0.30232552 0.21689184
-0.016413378 -0.10937194 0.07585471 -0.10174165 0.037513502 -0.16937791 -0.1169015 -0.2042662
0.10066859 0.60386586 0.061207395 -0.22063261 -0.26366916 0.120032944 0.059848975 0.16098228
0.08084745 0.2506503 0.30186775 0.4375849 0.0627885 -0.11447881 0.014116884 0.17154877
0.021953577 0.20248938 -0.2545817 0.37134972 0.1391182 -0.40506712 -0.19716977 -0.05910621
0.23363186 -0.20069882 0.017573064 0.02777053 0.03676522 -0.37852213 -0.16812359 0.031299572
-0.12645261 0.46359366 0.17405409 -0.26079315 0.1520927 0.28838283 -0.36545497 -0.22350068
0.009023974 0.05785333 0.12261938 -0.17097762 0.21637245 -0.11836562 -0.21169892 0.082360186

affine_layers.1.bias f4 [64]
00000000: 42a1 b5bd 6338 9a3d d4b3 583e 0593 873e
00000010: 3aef e6bd ffbd 483e 49db fb3d 0a8f 09be
00000020: 4c75 7ebd 4ec2 0b3e 25ef bc3d 844d 2b3e
00000030: e1c2 363e fae6 1fbe 104d f4bd 6a6b 9ebd
00000040: 8b0b c7bd 3f2f 25bd c69a 27be 03d7 9abe
00000050: f354 6b3e 334b a53e fa75 803c d15e 793e
00000060: 0225 adbd f655 673e 10d0 a93d 728e 6e3c
00000070: 892c a23e d942 06be 26e9 2dbe da82 943d
00000080: 6c6e 6ebe c0b4 0c3e b631 eabc cc78 50be
00000090: fada 00bd 9fce 28be 4b76 623e dcaa 4b3e
000000a0: e74c 07be f961 8d3e bed5 583e 93b0 723e
000000b0: f928 5dbb f2d8 a6be 61b6 16be 87ed 903e
000000c0: 1751 963d 466f f2bd 28f8 22be 9ce2 0d3e
000000d0: ad3b 85be 4abc 3f3e ee97 843e d360 e6bd
000000e0: 6693 743d 6788 763d 844c 55bd 5507 babc
000000f0: 78c8 1f3e df80 a23d d3e2 22be 7a3e 46be
-0.08868648 0.07530286 0.21162349 0.26479355 -0.112760976 0.19603728 0.12297685 -0.13433471
-0.06212358 0.1364834 0.09225301 0.16728789 0.17847778 -0.15615454 -0.11928761 -0.07735331
-0.097189985 -0.04032826 -0.16367635 -0.30242166 0.22981624 0.32283935 0.015681256 0.24352576
-0.08454324 0.22591385 0.08291638 0.014560329 0.31674603 -0.13111438 -0.1698347 0.072515205
-0.2328431 0.13740826 -0.028588157 -0.2035858 -0.031458832 -0.1648507 0.22115438 0.19889396
-0.1321293 0.2761381 0.21175286 0.2370017 -0.0033746345 -0.3258739 -0.1471801 0.2830622
0.073396854 -0.1183763 -0.15914977 0.13855976 -0.26022092 0.1872417 0.25897163 -0.112489365
0.059710883 0.060188677 -0.052074924 -0.022708574 0.15603817 0.079347365 -0.15906839 -0.1935977

final.weight f4 [1, 64]
00000000: 0640 0abe e9da da3c 78b6 c83c 9249 c93e
00000010: 8428 46bd 6cde 0e3e 3642 b13d f863 0dbe
00000020: 8bca 08be ad58 083c bbcf 3c3e 63e2 173e
00000030: 4bf8 863d af4b 86bd 41c9 0bbc c627 49be
00000040: 57bf 15be a1c5 11be 9293 17bc b5f3 c9be
00000050: 4205 e33e ed2b 5f3e 834f d43d 52bf 5f3d
00000060: e789 7fbe 2022 183e aa7d 023e a8f0 2ebe
00000070: b4c0 393e e3ee 1dbe c110 0ebe 3421 ab3d
00000080: c4c7 08be 9cd9 f03c 512e e8bd 7e11 62be
00000090: 838c e4bd b8f4 f7bd 9739 613e b075 0e3e
000000a0: e653 dcbd dbc1 163e 04ab 133e 3c2b 563e
000000b0: 5ecb 0dbe 96a4 92be 55a5 cebd 2d90 ca3e
000000c0: 3839 353e d834 ecbd c038 e8bd 4c42 f1bc
000000d0: 38be b2be ae6c 2b3d 1db5 4b3e a354 98bd
000000e0: b66a 8e3e 9d07 093e 842f 5ebd bdd4 b43d
000000f0: 8dc1 6e3d a812 d5bb 643e a1bd d394 d5bd
-0.13500986 0.026715713 0.02450107 0.39313942 -0.048378482 0.13952035 0.08655207 -0.13807666
-0.13358514 0.008321923 0.18438618 0.14832453 0.06590327 -0.06557404 -0.008531869 -0.19644079
-0.14623772 -0.14235546 -0.009251492 -0.39443746 0.4433995 0.217941 0.10366728 0.054625817
-0.2495495 0.14856768 0.1274325 -0.1708399 0.18139917 -0.1542316 -0.13873579 0.08355942
-0.13357455 0.02940064 -0.11336959 -0.22076985 -0.11159613 -0.12107223 0.21994625 0.13912082
-0.1075819 0.14722387 0.14420706 0.2091493 -0.1384711 -0.28641194 -0.10090128 0.39563122
0.17697608 -0.11533517 -0.11338949 -0.029450558 -0.3491075 0.041851692 0.19893308 -0.07438018
0.2781579 0.1338181 -0.054244533 0.08829639 0.058290053 -0.006502468 -0.07873228 -0.104287766

log_stdev f4 [3]
00000000: ae83 44bf ba73 17bf 44bf 26bf
-0.7676343 -0.5916096 -0.651356

affine_layers.0.weight f4 [64, 11]
00000000: 99c7 03be 4178 7fbe f442 96be 875c 8d3e
00000010: 3ad1 18be 9f6d 04be 7f82 d6bc 7ac5 f4bc
00000020: 5268 f4bd cbc9 d5bc ea39 cabe 9db4 393e
00000030: fd12 94be 759d d13c 06c5 3cbd 7a39 16bd
00000040: 2ece 883d 37e2 24bd 2f09 c2be 2253 f1bd
00000050: d789 0bbe 428d b6bd bac5 f6bb 4f06 b9be
00000060: aa56 f5be 4f4a 303e dd22 9e3e 3543 fd3d
00000070: 54ec e5bc f739 81be da33 92be 309a 463c
00000080: d6e7 febc 00ba f73d 3c18 95bd 4bbd 0b3e
00000090: b287 423e 5f2f c63d 2a47 ca3e a14f 3b3e
000000a0: a36a af3d 2487 03bc aa14 b7bd ec73 ccbd
000000b0: 7b97 14bf 4f4c 7f3e 729c 183d 3cf6 d0be
000000c0: 66d2 033e f635 cc3d ac9d 323d 3475 823d
000000d0: a3f8 f53d 8e36 9b3e a450 d83c 0976 5e3e
000000e0: 10cd d4bd 04d0 313f db63 033e 8353 3dbe
000000f0: 1e61 03bf 39c9 02be d02c 0c3e 9b39 273c
00000100: ad8b 50bd a1ea 493e 9818 8d3d 7ce3 a53e
00000110: b728 88bc 9002 46be 11f3 dd3d 7ae9 923d
00000120: fbcb 263e da0a b53c d02a eb3b ba0d 893e
00000130: 5c56 c6be 6eab e53d 4256 e3bd 394b 903c
00000140: 6fa3 ddbb f736 2cbe c02a 9abc 8231 9abe
00000150: a0ea a8be e091 223e 3281 a43e 4be0 803e
00000160: 6e4b a23c a59f 913e 2fee d43e 7265 ce3c
00000170: 0cff a7be 2523 bbbd 221c d43e d236 d5bd
00000180: f8ee 363d 8c15 b5bd af55 af3e 5d49 3cbf
00000190: 3e84 453d 4145 1bbe 1a45 dbbd e3d4 083b
000001a0: b1e4 8ebe 63f2 03bf c0a7 88bc dda1 a73c
000001b0: a18b 4cbd c806 ef3d 62a5 5fbe c8f6 1bbe
000001c0: f73c 8c3d ae67 00be 1398 8ebe 8a36 583d
000001d0: cbe5 79bd bc62 84be 36fd 4a3e 0c98 ccbd
000001e0: 56ba 453f af8c 8a3e 554f a5be 5b26 eabd
000001f0: 8462 13be b014 f3be 2004 e93d 0ee8 4abe
00000200: 251f 0f3e 43a0 133d ed1e 313d d079 073e
00000210: 8bf7 2c3f f019 0e3e d866 3dbe ef38 d83d
00000220: 8a0b 503d 74e0 a0be 334c e6bd 0526 293c
00000230: faa8 ff3d 5382 f03e aa47 6b3e 3565 63bc
00000240: 2f07 9bbe bacc 923e 6b40 9f3d 23e0 033e
00000250: 30ba 29be ea43 38bd 6dcc 343e 7a35 d9bd
00000260: c37c 28bd 4f7a c73c 925c 3dbe b46b 61bd
00000270: 9365 45bd ec73 833e 1474 87be 6e06 013e
00000280: 85f7 683d 8095 da3c 6cde b73c 1f59 4a3e
00000290: a9dc 20bf 505a a0bd a6ac 1fbe a5e0 4bbe
000002a0: 9752 da3d 159d 113e 95aa 2bbd c71e aabd
000002b0: 7e8b 79bd 356b 33bd 82ac 243e d6c0 c33e
000002c0: ae88 52be 7206 20be 1092 cfbd 393d e13d
000002d0: fd6b d13d fc03 a33e 93de f93d 8f34 1cbd
000002e0: ed93 abbd 2b68 d4bd d0c7 0ebe bbea 83be
000002f0: 3a20 5d3e 4510 1bbe 7e7c 31be fac0 b5bd
00000300: 6a19 a5be 4ae6 a0bd 4a56 b1be ed9e 213d
00000310: 5c44 f7bd ca3d ebbd 0f34 4e3f fb32 33be
00000320: 86d8 123e 5e0e 523c 54c9 8f3d a453 043c
00000330: 2cfd 7b3e 4f6e 753e 97b4 63bb 0731 49be
00000340: c0e9 8b3e b1ab 983e 2f8e 3abe 2d64 7fbe
00000350: 73d6 19be ff7e 49bd 2980 0cbe 4e97 dfbc
00000360: 2844 7bbe 4c4d a1be 153a 7c3c d353 ee3c
00000370: e977 a6be ea4a a33d 5303 b33d 6dbb 2f3d
00000380: 26ba ecbd c5ae b0be 8ae2 823e a53f acbd
00000390: c256 41be 1dad 91bd b0f0 56bf ee5a f8be
000003a0: dfff cb3e e5a8 cf3c 018d 8a3c c9a4 093d
000003b0: d799 153d 2f44 263d 530e cc3e bd55 a3bd
000003c0: 6468 00be 4dfa ddbd 51f9 69be 6fa4 74be
000003d0: 92d8 1ebd 54e7 793e c8e3 0dbe c65b 5abe
000003e0: 8d57 8ebe 0a77 eabd 3c9b 6a3d fc75 7abe
000003f0: dfd1 1b3f 4671 383e 7f90 0ebe 835a fc3e
-0.12869109 -0.24948217 -0.29347956 0.27609655 -0.14923564 -0.12932442 -0.026185272 -0.02987932
-0.1193396 -0.026097199 -0.3949731 0.18135305 -0.28920737 0.025587777 -0.046086334 -0.036675908
0.06679951 -0.040254798 -0.37897632 -0.117834345 -0.136268 -0.089136615 -0.007530895 -0.36137626
-0.47917682 0.17215846 0.30885974 0.12366334 -0.028066792 -0.25239536 -0.28555185 0.012121722
-0.031116407 0.120960236 -0.07280013 0.13646428 0.18997076 0.09677004 0.3950742 0.18292095
0.08565261 -0.0080278255 -0.08939488 -0.09983048 -0.5804364 0.24931453 0.037258573 -0.40812862
0.1287323 0.0997123 0.0436074 0.06370011 0.12010314 0.3031506 0.02640564 0.21724714
-0.10390675 0.6945803 0.1283106 -0.18488888 -0.51320064 -0.12772073 0.1368897 0.010206605
-0.050914455 0.1971841 0.068894565 0.3240012 -0.016620977 -0.19336915 0.10837377 0.07173438
0.1628875 0.022099901 0.0071767345 0.26768285 -0.38737762 0.11214338 -0.11100437 0.017613994
-0.0067638676 -0.16817842 -0.018819213 -0.30115896 -0.32991505 0.1587596 0.32129818 0.25171122
0.019811358 0.28442112 0.4158797 0.025194857 -0.32811773 -0.09137563 0.41427714 -0.10410847
0.044661492 -0.08842 0.3424506 -0.73549443 0.04822182 -0.15163137 -0.107065395 0.0020878843
-0.27908853 -0.5154173 -0.016681552 0.020462925 -0.049937848 0.11671215 -0.21840432 -0.15230858
0.068475656 -0.1253955 -0.27850398 0.052786388 -0.061010163 -0.25856578 0.19823155 -0.09989938
0.7723745 0.27060458 -0.32287088 -0.11433097 -0.1439305 -0.4747672 0.1137774 -0.19815084
0.13976724 0.03604151 0.043242384 0.13230062 0.6756522 0.13877082 -0.18496263 0.10557734
0.050792255 -0.31421244 -0.112450026 0.010324006 0.124834016 0.4697443 0.22976556 -0.01387911
-0.30278918 0.2867182 0.077759586 0.1287847 -0.16574931 -0.044986643 0.17656107 -0.10605903
-0.041134607 0.024350313 -0.18492344 -0.055034354 -0.04819257 0.2567438 -0.26455748 0.12600109
0.056876678 0.026682615 0.022444926 0.1976056 -0.628367 -0.07829726 -0.15593204 -0.19909914
0.10660284 0.14220078 -0.041910727 -0.083066516 -0.060924046 -0.043803412 0.16081432 0.3823306
-0.20559952 -0.15627459 -0.10135281 0.109980054 0.10225675 0.31838977 0.12200656 -0.03813606
-0.08377824 -0.10371431 -0.1394341 -0.25765023 0.21594325 -0.15142925 -0.17332646 -0.08874698
-0.32245952 -0.07856424 -0.34636146 0.039458204 -0.120735854 -0.11486395 0.80548185 -0.17499916
0.1434041 0.012820808 0.07020822 0.008076582 0.24608296 0.2396786 -0.003474509 -0.19647609
0.27326775 0.2981849 -0.18218301 -0.24940558 -0.15023212 -0.04919338 -0.13720764 -0.027293827
-0.24537718 -0.31504285 0.015394707 0.029092705 -0.3251336 0.07973273 0.087408684 0.042903353
-0.115589425 -0.3450834 0.2556346 -0.08410577 -0.18880752 -0.07113097 -0.8396101 -0.48506874
0.39843652 0.02534909 0.016912939 0.033604417 0.036523666 0.04059237 0.3985468 -0.07975338
-0.12539822 -0.10838757 -0.22849013 -0.23890851 -0.038780756 0.24404651 -0.13856423 -0.21324071
-0.2780117 -0.11448486 0.05727695 -0.2445907 0.6086711 0.1801196 -0.13922308 0.49287805

affine_layers.0.bias f4 [64]
00000000: b343 d7be 35bb c93e 5e98 a9be afff 2a3f
00000010: 577a 93be 0f6f a6bd d3c0 a63e ff88 dfbe
00000020: 1d42 9a3e 9e95 c6be 3977 1ebd fa53 8cbe
00000030: 7d0b 473e 72ec 863e b8a5 f73d cc58 263e
00000040: 95b7 673e fe73 41be 1acb 46bc 6b29 493e
00000050: 8b21 a1be a1ae e33d 3493 8ebe e0c8 dbbd
00000060: 94fe b2bd 21aa 4cbe 7538 2abe a16f 18be
00000070: 37b1 8b3e 6053 df3c a242 babe aab3 293e
00000080: 581e d2bd 4f52 2ebe 6da8 7fbd 7557 903c
00000090: 001f c0be ef56 c73e e2aa 4abe 3e81 03bf
000000a0: 7566 283c 0000 983e 2272 3a3e 9e0f 27bf
000000b0: 35f3 a53e 0cbf a43d 3d80 3abd 7522 943e
000000c0: 03c3 dabe 9c1b 9abc 885e a4be 27b8 08bf
000000d0: 914a 9cbe fe41 85be 523d 123e b0d8 85bd
000000e0: 520a e7bd 1b85 4f3c 1ce6 bcbd aa51 6c3e
000000f0: 7cae 903e 9f5f e03e 1cd8 ad3e 99e6 9cbe
-0.42043838 0.3940064 -0.3312406 0.6679639 -0.28804275 -0.081266515 0.32568988 -0.43659207
0.30128565 -0.38786024 -0.03868792 -0.2740782 0.19437976 0.26352268 0.12092155 0.16244811
0.22628625 -0.18891904 -0.012133384 0.19644706 -0.31470904 0.11117292 -0.27846682 -0.10731673
-0.08739963 -0.19986774 -0.16623099 -0.14886333 0.27283642 0.027261436 -0.36378962 0.16572443
-0.10259694 -0.17023586 -0.062416483 0.017619828 -0.3752365 0.38933513 -0.19791749 -0.5136908
0.010278334 0.296875 0.182076 -0.65258205 0.32412115 0.08044252 -0.045532454 0.2893254
-0.42726907 -0.018811993 -0.32103372 -0.53405994 -0.3052564 -0.2602691 0.14281204 -0.065354705
-0.11281265 0.012666012 -0.092235774 0.23078027 0.2825812 0.43822953 0.3395394 -0.30644682

affine_layers.1.weight f4 [64, 64]
00000000: 4ee3 2cbe 3720 f7bd 012c 3a3e 8183 a5bd
00000010: 64c0 3bbd d8f6 fabc b8f8 72bd 58b6 1ebe
00000020: dad9 333e d98d 1a3d 94c9 403d 3849 643d
00000030: e120 e0be ad11 3e3e 1aa8 0b3e 42c4 42bd
00000040: 1163 a03d b4b2 c6bd 2a8c 02bf d34e 133e
00000050: 4fbf 413d ed9b 6c3e 1de0 863e eef3 233e
00000060: 5782 31bd c281 0c3e e933 4a3d 130d d03d
00000070: 6887 ba3e 7728 153e 24ba ff3d 798c 6b3e
00000080: 3205 023c 3588 8abe 1637 963e 1993 103e
00000090: ef20 09be 838a e53d ff02 d6bd 86b3 e03c
000000a0: 3abe 393c 2308 073f ce9d 07be cc0d 7d3e
000000b0: 1037 22be 0d7f 2cbf e338 84be 533e 973c
000000c0: 6c07 46bc 9c62 413e 954d a0bd 2917 243e
000000d0: 3497 38be ffd7 e2be bff8 70bd b655 6b3e
000000e0: d5f6 d03e 2861 823e 6c35 a4be 9dd5 9cbe
000000f0: 726c e3bd 535a 47be cb2b 60be bfd3 2f3e
00000100: b9e2 abbe 43d6 dfbd 93bf 5ebc b70e 603d
00000110: c7fb a9bd 8e93 3abe 1d1f 89bd 9093 a73e
00000120: 1373 ebbd 47ac 07be 7d0c 87bd fc66 8b3e
00000130: 31bb 06be 9fb1 e5be 0d5a 8cbe e13f 3ebc
00000140: 62a6 3fbe 1699 403b a9e4 e33e 4d31 e83d
00000150: 49fd 17bc 7bc5 19be d87f d0bd 06fc 25be
00000160: 89d4 853e 64c5 07be b4bc 513d b5db 7c3e
00000170: f46a abbe 2273 bcbe 2a2c 543e 1f23 6f3d
00000180: e8fc bbbd d8de bf3c 34da bfbd b419 84bd
00000190: edf6 5c3e 25da 89bc 505f abbe 2d52 dbbe
000001a0: d182 ce3d df4c 0cbf 5560 62bd dca5 193e
000001b0: 54fa 62be 45df c13e 202f 64be 6199 34be
000001c0: d04e 253d 40e4 86bd dedb cebc 6fc5 8d3d
000001d0: 5fb4 3d3e 31c3 c53b aed3 713e 23f6 a2be
000001e0: 5326 0f3e 63cb 623e dd43 b4bd fc13 90be
000001f0: 59d8 8e3b 0562 0d3e a876 93bd 64ea 53be
00000200: 9940 bf3d ad0e a2be 86ec ba3d 420a 873d
00000210: 7f7a dfbc b69c 70be e53d 2cbe 250c 723e
00000220: 86b4 483e a763 4b3e 2342 293d 5b00 0f3e
00000230: 446c c83e b956 343d 56f3 dfbd f769 533e
00000240: 8324 b9bd d3ea adbe 9b84 113f 41ec 403e
00000250: f936 1fbf f3d3 70bd 6801 74be 6cfe 193e
00000260: 4c41 573e 7556 16be 0c79 b2be a5aa 0c3e
00000270: f2df 913e 1b36 b8be 5e60 9abe 69be 693e
00000280: b23e 713e f1c2 9cbe 11bd 39be 62bd dd3d
00000290: fc6d 06bc 9b48 26be f94e 22bd 30ba ad3e
000002a0: c496 c93d c08b 84be 5346 57be 2e5c edbd
000002b0: 8f1f 87be 7f99 dcbd b114 ce3d 7708 bd3e
000002c0: 457d 67be 8f77 43bd d97d f33d cb94 9d3b
000002d0: 917c 59bd c3ef 80bd 8361 10bd e7e2 4dbd
000002e0: 18e3 1abe 8275 86be 8534 76be 0ac6 aa3d
000002f0: c8bc 993e 4ff0 72bc 19da bcbd 8626 abbe
00000300: 7c5a 3d3d ee07 17be 4d12 543d 2243 243e
00000310: 987e 303e 7582 53be 2089 cf3d f744 7dbd
00000320: 6862 1c3e 416f 133e 20d3 1cbc 68a5 643d
00000330: bc17 d43d 1a72 b8be 82a4 d33e 1541 9e3d
00000340: e4be 90be a119 0d3f 7c35 c0bb 7eae cebd
00000350: daa6 123f 217b b1bd e8d7 723d 1a65 eb3e
00000360: f727 17be d032 c1be 0119 803e 2049 f93d
00000370: 711f e9bd 9297 6c3e 294b cc3d 6a80 8d3d
00000380: 875a 303d 8ba1 6dbe feb0 b23d 53ca 70be
00000390: 2563 79be e2e6 103f 7f6d 34bd 7dac 293d
000003a0: 69f2 d5bd 4877 03be f98f 8ebe c47c 613e
000003b0: 4c7a 86be c7a0 453e 8b93 82bb 7d7a 9f3d
000003c0: 9acb cebd b572 f7bd d045 e6bd 4720 89bd
000003d0: 96a8 123d 2f92 733e ae33 98bc 5b7e a2be
000003e0: 69a9 7f3d 1b26 82be 175f 4cbe 7743 3b3c
000003f0: 3baa 6a3d 4c5b 56be 6e8d 4a3d 3381 d6bd
-0.16883585 -0.12066691 0.18180849 -0.08081723 -0.045837775 -0.030635282 -0.059319228 -0.15499246
0.17563573 0.037732933 0.04706724 0.05573389 -0.43775085 0.1856143 0.13638344 -0.047550447
0.078313954 -0.09702054 -0.50995123 0.14385538 0.047301587 0.23106356 0.2634286 0.1601102
-0.043337192 0.13721374 0.04936591 0.10158744 0.36431432 0.14566217 0.124866754 0.23002805
0.007935809 -0.27057043 0.29338902 0.14118613 -0.1339147 0.1120806 -0.1044979 0.027429353
0.011336857 0.5274679 -0.13243791 0.24712294 -0.15841317 -0.67381364 -0.2582465 0.018462336
-0.01208673 0.18885273 -0.078272976 0.1602446 -0.1802643 -0.44305417 -0.058830973 0.22981915
0.40813318 0.2546475 -0.32072008 -0.30631724 -0.11104669 -0.1946805 -0.21891706 0.17170618
-0.33571413 -0.10929539 -0.01359548 0.054701533 -0.08299976 -0.1822035 -0.066953875 0.3272977
-0.11496558 -0.13249312 -0.06594179 0.27227008 -0.13157345 -0.44862077 -0.27412453 -0.01161191
-0.18715814 0.0029388121 0.4451039 0.113375284 -0.0092766965 -0.15016739 -0.10180634 -0.1620942
0.26138714 -0.13258892 0.051205352 0.24693187 -0.33480036 -0.3680659 0.20719972 0.058383103
-0.091790974 0.02342169 -0.09367791 -0.06450215 0.2157857 -0.016827652 -0.33471155 -0.42836133
0.10083545 -0.54804796 -0.05526765 0.15004677 -0.22165805 0.37865654 -0.22283602 -0.17636634
0.040358365 -0.06586504 -0.025251325 0.06922423 0.18525837 0.0060352315 0.23615906 -0.31828412
0.13979463 0.22147898 -0.088020064 -0.28140247 0.0043592867 0.13806923 -0.07200366 -0.20694882
0.09338493 -0.31651822 0.091271445 0.065937534 -0.02728009 -0.2349728 -0.16820486 0.23637445
0.19600114 0.19862233 0.04132284 0.1396498 0.391451 0.044028018 -0.109350845 0.20645891
-0.09040167 -0.3396822 0.56842965 0.18840124 -0.62193257 -0.05879588 -0.23828661 0.1503846
0.21021003 -0.14681418 -0.34857976 0.1373697 0.2849117 -0.3597878 -0.30151647 0.22826542
0.23559073 -0.30617478 -0.1813853 0.108271375 -0.008204933 -0.16238634 -0.039626095 0.33931112
0.098432094 -0.2588787 -0.2102292 -0.115898475 -0.26391265 -0.107714646 0.1006254 0.3692052
-0.2260638 -0.04772144 0.11889238 0.0048089973 -0.05309731 -0.06295731 -0.035249244 -0.05026522
-0.15125692 -0.26261526 -0.24043472 0.08338554 0.3002684 -0.014827802 -0.09221286 -0.3342783
0.04622887 -0.14749119 0.051775265 0.16041234 0.17235792 -0.20655234 0.101335764 -0.061833348
0.15271914 0.14397909 -0.0095718205 0.055821806 0.103560895 -0.36024553 0.41336447 0.07727257
-0.28270638 0.5511723 -0.005865751 -0.100918755 0.57285845 -0.08666063 0.059287935 0.45975572
-0.14761339 -0.3773408 0.25019076 0.121721506 -0.1138295 0.23104694 0.09975273 0.06909259
0.043055084 -0.23206155 0.08725165 -0.2351468 -0.24354227 0.566023 -0.044049736 0.041424263
-0.10446627 -0.12838471 -0.27844217 0.2202025 -0.2626518 0.19299613 -0.0039848736 0.07787035
-0.10097428 -0.120824255 -0.112437844 -0.066956095 0.035805307 0.23786233 -0.01857933 -0.31737027
0.06241742 -0.25419697 -0.19958149 0.011429659 0.05729125 -0.20933264 0.049451284 -0.104738615

affine_layers.1.bias f4 [64]
00000000: 62de 373e 9c34 95be 7b60 49be bb6c 30be
00000010: 7375 9a3d 957e 02bc eec5 9dbe 2157 6f3d
00000020: d49c bfbc f47c febd 000c e63a f557 e9bc
00000030: f00d 8cbe 3f5f 29be f4db 833e 2600 08be
00000040: 1f29 183e 0e18 b8bd ca92 1abe a598 11be
00000050: 066d 0d3e a4c0 49be 4ea6 a43e c0db 623e
00000060: 2cfe 753e 3bce fe3d f17c bcbd 07cc 793e
00000070: 4b34 943c 165c 893b 00d9 bcbd 3aed 833d
00000080: e253 49bd 31bc 9a3e 683a 9abe db94 4e3e
00000090: 3127 d8bd 723a 48bd 345e d53d de92 833e
000000a0: 5ed0 df3e 5062 713d 30ff d93e f03b d63c
000000b0: 1ba1 7ebd 1582 4e3e 436a dbbe d262 2ebe
000000c0: 4758 4c3e 782f 843e 05f3 2ebc eaa4 d33d
000000d0: 6a16 7f3e 2e94 923d f799 1ebe afb0 993e
000000e0: e03e 6ebe 678e 453e 22f9 1ebe f41e 74be
000000f0: 7a0f 2bbc 4417 bdbd 2a16 8ebe 16ca a83d
0.17955926 -0.291417 -0.1966571 -0.17228977 0.07541933 -0.00796475 -0.3081507 0.058432702
-0.023390211 -0.12426177 0.0017551184 -0.028484324 -0.27354383 -0.1654024 0.25753748 -0.13281307
0.14859436 -0.08988963 -0.15095058 -0.14218386 0.1381112 -0.19702393 0.3215813 0.2215414
0.2402274 0.12441679 -0.09203518 0.24394237 0.018091341 0.0041918857 -0.09221077 0.06441732
-0.049152263 0.30221704 -0.30122685 0.20173971 -0.1055435 -0.048883863 0.104183584 0.25697988
0.4371366 0.05893165 0.42577505 0.026151627 -0.06216536 0.2016681 -0.4285451 -0.17029884
0.1995555 0.25817466 -0.010678058 0.10334189 0.24910894 0.07157169 -0.1548842 0.3001761
-0.23266172 0.19292603 -0.15524724 -0.23839933 -0.010440702 -0.09232953 -0.27751285 0.0824167

final_mean.weight f4 [3, 64]
00000000: 9047 bc3d 7ee6 50bd 3d16 223d 7725 f23c
00000010: f5ef d23c 43b0 a1bd 7a6a ccbd 5b77 d43d
00000020: 945c 043e d9e0 2bbd 8ac8 a63b bc14 47bd
00000030: b5b3 463d f46c 493d 8b8c 9d3d 99d1 8ebd
00000040: ae7b 26bc 6483 5b3d 71b3 4c3d de68 4bbd
00000050: 5c61 8e3d ac5e 043d ab47 023d 042a 3f3d
00000060: 234f 3d3d 74e3 133d 29bb 94bd 66e4 29bd
00000070: a015 273d 2f22 95bd 354b 883d 8a38 063d
00000080: 3bbb 91bc 5763 533d 4c18 b83c ba78 243e
00000090: b90b 893d bcff 293e e95b 9fbd 3f77 88bd
000000a0: 74ac f239 e69b d3bd 52e3 be3c ac76 963d
000000b0: 4e72 f23d 37e0 a33d 955c 393d fd2b 0b3c
000000c0: 6dcf 45bc 0cd3 62bd 4357 803d d57c 853d
000000d0: 74ff 553c dc20 09bd 1d72 6f3c b304 10bd
000000e0: 1b4a 653d abd5 db39 b103 a7bc 346b 6bbd
000000f0: f810 88bd 058e 93bd f99d 033c 4bef ec3c
00000100: 2ca0 1c3d c4ac 19ba d637 e0bd de16 2cbe
00000110: 0f90 dabd 08e3 293e 9213 54bd 0f30 cdbc
00000120: 7a74 8cbd e9dc d43d 71ec 203e 298f c63d
00000130: 5129 933d 2515 ff3d 2bfd bc3d 7eb1 acbd
00000140: 622c 213e 10d1 a0bd 6c96 4fbe 6101 2abd
00000150: 73be 013e 0ced 6c3d 0985 63bd c542 dd3d
00000160: 39bb 03be dfa7 1c3e 6acf 3abe c7ab 3bbd
00000170: 2921 21bd cbc6 dfbd 326b 093c 4417 8bbc
00000180: 85b0 813c d7c0 a1bc 508a c63d a540 27bc
00000190: 4efc c3bd 0069 d6bd 5663 bcbd d5a9 1e3e
000001a0: 1240 8dbc 7e2d 063e 138c 613d 2736 cd3b
000001b0: a6f5 07bd 2b1f adbb a89a 4dbd acb6 e13d
000001c0: ae99 a3bc 2713 a43d 9535 d23d bff4 c1bd
000001d0: 1507 0ebd e810 c33c eecf 983d 0760 063e
000001e0: 897a babd c6f6 00bd 062f 12be 34ce ffbd
000001f0: 48ba 293e 681f 3abd 3c42 843d 0d6b fc3c
00000200: 7b79 e7bd 1cb8 ce3d d1e5 ce3d 6f99 44bd
00000210: 5cf8 2a3e 37b5 4d3c e256 5dbe 32d7 b03c
00000220: eca1 49bc 72f0 02be 0d5d c03d e739 f83c
00000230: 2f56 623e 788b 023d e9df 9a3d 20e0 98be
00000240: 8d4d 613d 925b 14be 838d 1f3d 3688 71bd
00000250: 7026 723d b199 483d 04c3 063e cf90 4f3d
00000260: 6191 823c d7e3 7a3e 9507 263c 453f d9bd
00000270: 04dc b23d 367c 10bc 2cd0 e2bc c23a 2cbd
00000280: d6b5 97bd 49a6 8bbd 51ca 4c3c f24a 29bd
00000290: a7ff da3d f9aa f2bc 5dd9 183d 4bbc b2bc
000002a0: 8469 07be 7774 fabc 4a43 a2be 8f70 60bb
000002b0: 970c 803d a489 9ebd a9a0 6e3e 95e6 a43d
000002c0: 6614 fb3c 62a7 b73d c3bd e9bc 7646 103e
000002d0: a745 903e 8fc1 193e aa90 1cbd a473 ea3c
000002e0: d4ce 3bbe d883 ac3d 070e 08bd 8782 c13d
000002f0: cf48 d7bc a90d 063e b70e 833d 9b32 f7bd
0.09193337 -0.051001064 0.03957199 0.02955888 0.025749186 -0.078949474 -0.09981246 0.10374328
0.12925941 -0.04196248 0.005089824 -0.04860376 0.048511226 0.04917617 0.07692822 -0.06973571
-0.0101613235 0.0535921 0.049975816 -0.049660556 0.069521636 0.03231685 0.03180663 0.04667093
0.04621805 0.036105588 -0.072622605 -0.041477583 0.040792108 -0.07281911 0.066549696 0.032768764
-0.017789474 0.05160841 0.022472523 0.16061679 0.06691689 0.16601461 -0.07781202 -0.066633694
0.00046286325 -0.1033247 0.023301754 0.073468536 0.11838208 0.0800175 0.04525431 0.008494374
-0.01207338 -0.05537705 0.06266644 0.065179504 0.013061393 -0.033478603 0.014614609 -0.03516073
0.055978876 0.0004193013 -0.020387502 -0.057475284 -0.066438615 -0.072048225 0.008033269 0.028922698
0.03823869 -0.0005862231 -0.1094815 -0.16805598 -0.10672008 0.16590512 -0.051776476 -0.02504733
-0.06858154 0.10393698 0.15715195 0.096952744 0.07185615 0.12455205 0.092279755 -0.084322914
0.15739587 -0.078523755 -0.20272225 -0.04150522 0.12670307 0.057843253 -0.055546794 0.10803751
-0.12864389 0.15298413 -0.18243185 -0.045818117 -0.039338265 -0.109265886 0.008387374 -0.016978867
0.015831241 -0.019745274 0.0969435 -0.010208284 -0.09569608 -0.10469246 -0.09198634 0.15494473
-0.017242465 0.13103291 0.055065226 0.006262559 -0.033193253 -0.0052832565 -0.05019632 0.1102117
-0.019970741 0.080114655 0.10264126 -0.0947051 -0.034674723 0.023811772 0.074615344 0.13122569
-0.09105403 -0.03148534 -0.1427575 -0.12490502 0.16574967 -0.045440108 0.06457946 0.030812765
-0.113024674 0.1009371 0.10102428 -0.04799789 0.16696304 0.012555412 -0.21615174 0.021586988
-0.012306672 -0.12787035 0.09392748 0.030301047 0.22103189 0.03187129 0.07562239 -0.29858494
0.0550056 -0.14488056 0.038953315 -0.05896779 0.059118688 0.048974697 0.1316033 0.05067521
0.015938463 0.24500977 0.010133644 -0.10607771 0.08733371 -0.008818677 -0.027687155 -0.042048223
-0.07407729 -0.06818826 0.012499408 -0.04133124 0.10693293 -0.029622542 0.03731667 -0.0218183
-0.13223845 -0.030573113 -0.31691962 -0.0034246778 0.06252401 -0.077410966 0.23303474 0.080517925
0.030649375 0.089674726 -0.028532868 0.14089379 0.2817814 0.15015243 -0.0382239 0.028619595
-0.18340617 0.08423585 -0.033216503 0.09448724 -0.026279835 0.13091148 0.06399291 -0.12070199

final_mean.bias f4 [3]
00000000: 1774 aebc 47b5 fb3d 3167 20be
-0.02129559 0.12290435 -0.15664364

exp_avg f4 [64, 11]
00000000: 70ee 17b8 380e 24b9 10f4 3fb8 c9a8 b838
00000010: 87a0 ab39 3d83 4fb8 b6f3 b8b9 f0b2 4438
00000020: 89b2 9a39 4557 93b9 009d 73b8 83e5 3fb9
00000030: a17a 483a 3554 b237 f0fa 6e39 cedc 06ba
00000040: 895f beb9 e11e 1d3a e839 2236 b6ec 0cba
00000050: 085c 3a39 d76a d939 d635 d23a f700 7fbb
00000060: 7575 fc39 aa89 95ba 3f55 4339 1fc1 8239
00000070: 1690 03ba 65c7 01ba 6225 4c39 4b8d 383a
00000080: b353 253a 51d6 94b9 a286 27b9 69a0 e5b9
00000090: fa78 64b9 ce11 88b9 dd10 8a39 ffa2 5d39
000000a0: eed3 95b9 dcd6 c7b9 e0a4 1eb8 a11f 8eb9
000000b0: c14b 06ba 96d8 863a 62bf 0039 bc5b 503a
000000c0: e307 bb39 4247 29ba fb52 bf37 da9a 3034
000000d0: c8a4 1d3a ab36 74ba 3893 88b9 730f 8539
000000e0: 13c4 aa39 39a7 a539 e993 1a3a cd86 c538
000000f0: a79f 89b9 47f8 8537 cd55 4e39 87b5 3d3a
00000100: 9984 0aba 1aa6 a438 591c 25b8 6649 b239
00000110: baf0 1cb9 aae2 56b9 2b38 51ba f609 a4b9
00000120: ccf5 713a 41a4 8fb8 be6e 0fba 53fd 0239
00000130: 5e44 5738 51e2 86b9 3eb8 493a f660 8939
00000140: 0dba d939 c089 4038 aa99 19b9 5069 cb39
00000150: 3824 90b9 fae2 38ba a3ad 9339 8a1b 31b9
00000160: 5dec 563a a20b 2dbb 7e33 14ba 3497 f1ba
00000170: c322 10ba ac7d 6d3a 3c00 d7b7 2e46 abb8
00000180: e18c 18ba 4bba af3a 8e34 303a 0939 73b8
00000190: c833 83ba 6c8e 36b9 d6bf 57ba 6d6e 6739
000001a0: 5ef2 ac39 c686 06ba a9a6 ddb8 6856 213a
000001b0: 4ca9 0fba 7f98 1ab8 6f35 113b 7503 4ebb
000001c0: 6581 823a 054a 0dba 0999 0539 6e66 d439
000001d0: 9813 89b9 59cd 9eb9 41ab c838 431f a73a
000001e0: d0f5 793a eb7f 8cb9 f565 a4b9 e649 3039
000001f0: 20f3 e039 ce46 e839 01e9 c5b9 6d3f 8eb9
00000200: aad6 96b9 a864 063a 3950 51ba 4852 6eb9
00000210: 13c3 fb39 87c1 783a aff5 2c3a ebd7 b53a
00000220: 0b48 163a 4672 91b9 41c4 90b9 c02f 4639
00000230: 4f35 093a fe34 9435 61d1 ab39 b762 21ba
00000240: 4d1d 133a 3723 cfb8 b31e 133a b56c 9439
00000250: cfcc 06ba 54a8 55b8 e0cd d1b8 eb60 6f39
00000260: c7b2 3eba f807 17b7 51ca 0ab9 2d9d 92b9
00000270: 9759 e438 4e0d 4bb9 f9a3 8eb7 7076 c0b9
00000280: 920e a339 fb2d eeb9 e4b5 b2b9 6186 8cb9
00000290: 3e56 86b7 99c3 2938 f057 b2b8 3373 0e39
000002a0: f794 76b9 3379 2a39 1a25 e438 ed07 e3b9
000002b0: bdc8 d336 5032 8a39 86aa 41b9 adae 9238
000002c0: b203 133b 90a1 adbb 592c 2c3a 581a 09bb
000002d0: 3cbc c339 7940 6e3a 75dc 59ba 64d3 47ba
000002e0: 640a 603a 05cf 0d3a d0fe cc39 8e82 a539
000002f0: 4033 7b38 91fa 13ba f66f a737 22d8 63b9
00000300: 63d0 153a dddd ab39 6771 a0b8 b2b7 4e3a
00000310: 5d4b 20ba 418d 22b9 79a2 093a 0cf7 9038
00000320: 3e63 5e39 225f d439 b5ac 2a3a 55f2 0c3a
00000330: 08ae 2fba 351d c739 aa07 373a c955 f8b8
00000340: e089 06b9 e10f cc38 568f a6ba 7af6 abb9
00000350: 279d d8ba a768 22b9 ec98 6c3a 5685 fbb9
00000360: 62a3 eb38 75e4 a7b9 8e71 443a 359e 42b9
00000370: 0c0a 9dba f882 1c3a 1363 d1b9 b0f5 113a
00000380: 4e8f ec39 e034 3438 c43f dfb9 0ce5 07ba
00000390: 0de3 9fb9 c14d 2cba 1dc1 0dba de1f 6cba
000003a0: 980e c13a 2703 be39 b5b9 183a b15c 8039
000003b0: 8fc9 94b9 cf9e ebb9 8cc5 c4b8 20b2 24ba
000003c0: 84f2 a3b8 1d7a 09ba 816c 3439 75fb 4f3a
000003d0: 23ca 023a fa67 3f3a 3f57 67b8 61d7 e5b9
000003e0: 5aae 0b3a 4dfe 68b7 6279 223a 63c8 5fba
000003f0: edff 34b9 ff23 f539 79c3 47ba 0532 8b39
-3.6223268e-05 -0.00015645556 -4.576525e-05 8.8052424e-05 0.00032735264 -4.947487e-05 -0.00035276794 4.689669e-05
0.00029506188 -0.00028103046 -5.8081932e-05 -0.00018300679 0.00076476677 2.1258465e-05 0.0002279093 -0.0005144597
-0.00036310803 0.0005993676 2.4173587e-06 -0.0005375849 0.00017772627 0.00041469067 0.0016037773 -0.0038910487
0.00048152698 -0.0011408825 0.00018628406 0.0002493942 -0.0005018724 -0.00049506716 0.00019468882 0.0007040097
0.00063067226 -0.00028388438 -0.00015976516 -0.000437978 -0.00021788842 -0.00025953207 0.00026333975 0.00021136923
-0.00028577395 -0.0003811632 -3.7823687e-05 -0.00027107916 -0.00051229825 0.0010287936 0.00012278327 0.000794824
0.00035673295 -0.00064574566 2.2807615e-05 1.6447612e-07 0.0006013629 -0.00093160075 -0.00026049628 0.00025379247
0.00032571013 0.00031595843 0.0005896674 9.4188006e-05 -0.00026249627 1.5970449e-05 0.00019677654 0.00072368275
-0.0005284041 7.851068e-05 -3.9365466e-05 0.00034005492 -0.00014966997 -0.0002049307 -0.0007981087 -0.0003128794
0.0009230047 -6.849366e-05 -0.0005471519 0.00012492137 5.1323666e-05 -0.0002572709 0.0007694996 0.00026202918
0.00041528084 4.5904657e-05 -0.00014648461 0.0003879764 -0.00027492805 -0.0007052865 0.00028167394 -0.00016890295
0.0008198673 -0.0026404639 -0.0005653425 -0.0018431903 -0.0005498344 0.0009059559 -2.5630106e-05 -8.1669874e-05
-0.00058193324 0.001340696 0.00067216984 -5.7988833e-05 -0.0010009939 -0.00017409929 -0.0008230185 0.00022071014
0.00032986974 -0.0005131777 -0.00010569144 0.0006154538 -0.0005480244 -3.6858484e-05 0.0022157093 -0.0031435166
0.0009956775 -0.0005389753 0.00012740878 0.00040512107 -0.00026145275 -0.00030289104 9.568642e-05 0.0012750406
0.0009535225 -0.00026798187 -0.00031356481 0.00016812197 0.00042905752 0.00044303242 -0.0003774837 -0.00027131606
-0.00028770167 0.0005126693 -0.00079846714 -0.00022728101 0.00048019792 0.0009489287 0.0006597889 0.0013873553
0.0005732781 -0.00027741696 -0.0002761204 0.0001890054 0.0005234079 1.1042282e-06 0.0003277166 -0.0006156372
0.0005611971 -9.8770885e-05 0.00056121795 0.00028309753 -0.0005142213 -5.0939925e-05 -0.00010004244 0.00022828921
-0.00072745647 -9.002157e-06 -0.00013236074 -0.00027964395 0.000108885746 -0.00019364545 -1.7004075e-05 -0.00036709337
0.00031100638 -0.00045429156 -0.00034086325 -0.00026803 -1.6014204e-05 4.0474904e-05 -8.504081e-05 0.0001358509
-0.00023515882 0.00016257614 0.00010878798 -0.0004330272 6.311659e-06 0.00026358897 -0.00018469439 6.9943584e-05
0.0022432622 -0.0052988008 0.00065678876 -0.0020920243 0.00037333544 0.00090885867 -0.0008310744 -0.0007622747
0.000854647 0.00054095715 0.00039099762 0.00031568523 5.9890794e-05 -0.0005644942 1.9960087e-05 -0.00021728923
0.0005714951 0.00032780963 -7.6505174e-05 0.0007885649 -0.00061147456 -0.00015502145 0.00052503456 6.912471e-05
0.0002120854 0.0004050667 0.00065107207 0.00053766865 -0.0006701653 0.00037978 0.0006982038 -0.0001184154
-0.00012830598 9.730436e-05 -0.0012707512 -0.000327993 -0.0016526327 -0.0001548851 0.00090254727 -0.00047973794
0.00011236106 -0.00032022936 0.00074937276 -0.00018560218 -0.0011981144 0.00059704436 -0.00039937402 0.00055679213
0.00045120198 4.2964588e-05 -0.00042581384 -0.0005183972 -0.0003049601 -0.00065728655 -0.0005407499 -0.0009007434
0.0014729081 0.00036241973 0.00058260123 0.00024483123 -0.00028378933 -0.00044941014 -9.382804e-05 -0.0006282646
-7.817618e-05 -0.00052443316 0.00017206559 0.00079338934 0.0004989227 0.00073015655 -5.5155946e-05 -0.00043838753
0.00053284096 -1.3887487e-05 0.0006197897 -0.0008536635 -0.00017261477 0.0004675686 -0.0007620375 0.00026549413
