src/models/car_ppo_sgld_walker.model (torch, 147684 bytes, 36 tensors)

affine_layers.0.weight f4 [64, 17]
00000000: c042 c23d cd9b 7c3b b52b 8ebd dd3a 3b3e
00000010: 96f8 3dbe 43ce 43be b995 35be 13dc eebe
00000020: 71ab 40be 7159 b2be d8fb c43e b173 03be
00000030: c5a8 5dbd fdc9 063d 12ab 9dbe 8d1e 2fbe
00000040: 6e11 9bbe a244 833e b11d eabe ffcf 85be
00000050: 4cab 833d 103f c5bd e80e 5dbd 8728 82bc
00000060: b308 a9be ed17 b8be a968 dd3d 9788 5fbe
00000070: 8ca0 40bd bc7f a33c 7574 4abd ddf9 403e
00000080: a20c ff3d 8007 423e cd53 93bd f4df 423f
00000090: b442 b2be 21a1 ac3d f7d9 17be 35cf 983d
000000a0: 5a1d f53d 1830 353c b08f a93d 2681 f83e
000000b0: 7ff0 233e 9b2c c53e b6c9 7c3e 474f f83d
000000c0: b33b b8be 26f2 96bd cb82 903d 8d06 5f3e
000000d0: b5bb 803e 768c dcbe e9c4 a9be bbcd af3e
000000e0: 6b28 193f abfd 863e 0372 243a b1ed 9e3d
000000f0: f875 7d3d 5801 b8be 26dd 383d 8381 083e
00000100: 1b82 df3d d0ee 163e d79f b23d 3e44 403c
00000110: c915 18be 70f6 ccbe 8044 7a3e 8118 a93e
00000120: 3232 01be d272 733e 9dd5 913d 67a2 9ebd
00000130: d2e6 eebe bd97 b13e 67b3 113f 610d 6b3c
00000140: 07fa 563d e194 4f3d bbdd cabe c739 a9bd
00000150: 31af 123d 0867 98be b6cf 09bf b41a a63e
00000160: e513 283e 6b97 6e3e 74a5 c13d b072 bf3d
00000170: 4dc1 583e 5f43 b13e 6118 413b 0192 5d3d
00000180: c38d 6f3e d73e 903d 49d3 abbd e25e 97be
00000190: eab5 efbd 7516 d43d 7136 89bb bc07 0b3f
000001a0: 9b1c c2bd 37be f8bd f6f8 84be f9e1 f6bd
000001b0: 7bb1 933c 8dd6 d1bd f44a 6938 987b 4c3d
000001c0: 29eb 993e ac2c b8bd fce3 583d c12b b13d
000001d0: 0314 efbd 0069 0cbd f3d8 d73b 0976 69bd
000001e0: 22cb 9dbc 68d9 93bd 5884 31bd 9348 76bb
000001f0: 8ab4 413e 4af4 503d d9e0 08be 7da7 6abe
00000200: 282f 24bd b772 9ebe 067f cd3e c64b 8a3e
00000210: 41a3 063e 6093 cc3c 58f9 d83b 30a0 9ebd
00000220: 568a d3be 226c 44be b8d0 1c3e 1f62 1b3e
00000230: f1dc 0bba b551 213e 12ce 083d 43d2 36bf
00000240: ac3a b63d bee4 743b 5b77 c4bd d6e4 99bd
00000250: a6c2 7dbd e3f2 573d 8723 683d 7f36 813d
00000260: 020e 553d edae a4be f0f6 df3d 9c39 9a3d
00000270: 4928 8cbd ff1f a4bc 097a 363d 7643 25bd
00000280: 5f7f b6be 2de6 f53d f940 10be c28a fe3d
00000290: fbe8 5cbd b441 fabb 4fd8 3dbd 0ecb a3bc
000002a0: 22cb 14bc 360e d1bd a351 903d 6776 8bbe
000002b0: 0ada aa39 5ca9 4ebe d228 86bd 02eb 183f
000002c0: a88b 7b3e 4bc2 37be f0e2 1bbe 4d4f 123f
000002d0: 7464 2a3f 4e24 bfbe 4c7e 52be 3d83 393e
000002e0: 490f 4cbd d894 55bd 573d 9cbd e83c af3e
000002f0: ce1a 253f 3fdf 153e dbd8 8d3e 0377 c73e
00000300: 766d aebc d9e3 6a3d 1fc8 53be 7843 1fbe
00000310: 75c6 d3bd e36d 1abe d80a 87bc c7d6 383d
00000320: f871 603d 8d17 0b3e f23f 343d 5faf 833d
00000330: 4546 9e3d 8891 c63e f9ee 78be d571 653d
00000340: f92c 863e ed90 043f 40b0 313e 89ae dabe
00000350: 7253 f1be e828 1a3f 6409 253e c3af 2d3d
00000360: 851f 3e3d 53e0 f03d dea5 753e 8751 213e
00000370: 5dad 0b3e 5487 acbc 6033 a13e 565f 5abe
00000380: 08b8 0c3e b04c 8e3d ff70 a3bd 01aa 85bd
00000390: 3865 2abe 1718 8a3e 20d1 23be 7615 913d
000003a0: 2ed1 603c c420 c6bd 2f0f e33c 1374 cebd
000003b0: b41b 8bbd 6408 7b3c e4d6 54bf 06d8 653e
000003c0: 3d13 eabb 0517 eabc 9d34 5ebe 4842 393d
000003d0: e2a6 6cbd 5a9f 893d dfea 303e cb0b 57be
000003e0: 86a9 be3c 2453 e83d 51a4 abbc f113 ccbc
000003f0: 6d64 78be 968b 94bd 7775 873d 22c4 3c3e
0.09485388 0.0038545013 -0.0694193 0.18284173 -0.1855186 -0.19121651 -0.17732896 -0.46652278
-0.188154 -0.34833863 0.38473392 -0.12837102 -0.05411603 0.032907475 -0.3079458 -0.17101498
-0.30286735 0.256383 -0.45725778 -0.2613525 0.06429157 -0.09631169 -0.053969294 -0.015888466
-0.3301445 -0.35955754 0.10810978 -0.21829449 -0.04702811 0.01995837 -0.04942747 0.18845315
0.124535814 0.18948174 -0.07193718 0.76122975 -0.34816515 0.084291704 -0.1482924 0.074613966
0.11968489 0.01105883 0.08279359 0.48536032 0.1600971 0.38510594 0.24686322 0.12124496
-0.35983047 -0.07370405 0.07056197 0.21779843 0.2514321 -0.43075913 -0.33158043 0.34336647
0.598273 0.26365408 0.00062730926 0.0776018 0.061880082 -0.35938525 0.04513278 0.13330655
0.109134875 0.14739537 0.08721893 0.01173502 -0.1485206 -0.40031767 0.24440193 0.33026507
-0.12616804 0.23774269 0.071208216 -0.077458195 -0.46660477 0.3468608 0.5691437 0.0143464515
0.05248454 0.05067909 -0.39622292 -0.08262973 0.035811607 -0.29766107 -0.53832567 0.32442248
0.16413839 0.23299949 0.09455386 0.09348047 0.21167488 0.34621713 0.0029463994 0.05409432
0.23393922 0.07043236 -0.08389909 -0.29564577 -0.11704619 0.10355846 -0.004187398 0.54308677
-0.09478112 -0.121456556 -0.25971192 -0.120548196 0.018028965 -0.102460004 5.5621334e-05 0.049922556
0.30062225 -0.089928955 0.052951798 0.086509235 -0.11673739 -0.034279823 0.0065871417 -0.056997333
-0.0192619 -0.07219201 -0.043339103 -0.0037579879 0.18916526 0.051014222 -0.13367023 -0.22915454
-0.040084034 -0.30946895 0.40135974 0.27010936 0.13148214 0.024972618 0.006621521 -0.07745397
-0.4131648 -0.19181874 0.15313995 0.15174149 -0.0005335352 0.15753825 0.03339965 -0.71414584
0.088979095 0.0037367786 -0.09593078 -0.0751435 -0.06195321 0.05272187 0.056674507 0.063092224
0.052015312 -0.32164708 0.109357715 0.07530519 -0.06843621 -0.020034788 0.044549976 -0.04034754
-0.3564405 0.12006793 -0.14087285 0.1242881 -0.053933125 -0.007637227 -0.046348866 -0.019994285
-0.009081634 -0.10207789 0.07046821 -0.2723877 0.00032587379 -0.20181793 -0.065507546 0.59733593
0.24564993 -0.1794521 -0.15223289 0.57152253 0.6655953 -0.37332386 -0.20555991 0.1811647
-0.049819265 -0.0521439 -0.07628887 0.34226155 0.64494026 0.14635943 0.2770451 0.38957986
-0.02129243 0.0573462 -0.20681809 -0.15553081 -0.10340587 -0.15080981 -0.016484663 0.045126703
0.05479619 0.13583203 0.044006296 0.06429934 0.077282466 0.38782907 -0.24309911 0.05601676
0.26206186 0.5178364 0.1735239 -0.42711285 -0.47133976 0.6021867 0.16116863 0.042403948
0.046416778 0.117615364 0.23989055 0.15753756 0.13640352 -0.021060623 0.3148451 -0.2132543
0.13742077 0.06948221 -0.07980537 -0.06526566 -0.16640174 0.26971504 -0.15997744 0.070841715
0.013721747 -0.09674218 0.027717201 -0.10080733 -0.06792393 0.015321825 -0.831404 0.22445688
-0.0071434067 -0.02857543 -0.21699758 0.045229226 -0.05777634 0.06719847 0.17277096 -0.21000592
0.023274194 0.11343983 -0.020952376 -0.024911853 -0.2425706 -0.072531864 0.066142015 0.18434194

affine_layers.0.bias f4 [64]
00000000: 0b01 65be 2ce5 d8bd dc1a 9e3e e88b da3e
00000010: 9b22 ce3a e35e d5be 5e2d 91be e9c5 39be
00000020: f6af c63d ba3a b7be 2d48 d7be 9dd2 c0be
00000030: 5d4b 303e 17f6 2bbf 7d57 903e 2a64 2a3d
00000040: c763 cb3e 0969 1fbf 500d 12bf 62f9 e73e
00000050: d0c6 a7be 0521 0a3e 5614 dbbe de9d 483e
00000060: 34ce f1be a75b eb3e dcb3 1cbe 52f6 cfbe
00000070: 3d84 24bf 6443 4b3d 1cbd 4a3b 994d 7a3e
00000080: 8e43 f4bd 8ded 37be aeff cb3e 14d8 b13e
00000090: c037 33be f0ea 9b3e 7bf4 36be 6d42 beba
000000a0: 481c 383e 118d d0be 3804 45be 3215 fa3e
000000b0: 4195 133e 11f3 1ebe d686 02bd 8097 803f
000000c0: 7fc3 b13e 4103 1bbe f523 0fbe 55e9 3e3e
000000d0: d23a 9f3e 8bc5 183f 093c 15bf a629 20bf
000000e0: d04c 3d3f e1ae 08bf ac8d ab3e 2888 20bd
000000f0: e0bc dabe 2479 2cbe 225d 063e 498e 97be
-0.22363679 -0.10590586 0.30879867 0.42684865 0.0015726866 -0.41673955 -0.28354925 -0.18141903
0.09701531 -0.35786992 -0.42047253 -0.37660685 0.17216249 -0.6717238 0.28191748 0.04159943
0.39724562 -0.62269646 -0.57051563 0.4530745 -0.3276887 0.13489158 -0.42788953 0.19591472
-0.47227633 0.45968363 -0.15302986 -0.40617615 -0.6426428 0.049624816 0.0030935472 0.24443664
-0.119269475 -0.17961712 0.39843506 0.34735167 -0.17501736 0.3045268 -0.178667 -0.0014515646
0.17979538 -0.40732625 -0.1923989 0.48844296 0.14412405 -0.1552241 -0.03186687 1.0046234
0.34719464 -0.1513796 -0.1397856 0.18643697 0.31099564 0.59676427 -0.5829473 -0.6256355
0.7394533 -0.53391844 0.33506525 -0.03919235 -0.42722225 -0.16843086 0.13121465 -0.29600742

affine_layers.1.weight f4 [64, 64]
00000000: e556 47be 7c03 0cbe 00e1 813e 24b0 083f
00000010: bb84 80bc 130d f83d e054 283e 4b27 b83d
00000020: cc9e bf3d 3cb7 903e a647 9b3d 61f1 483d
00000030: a21d 47be d362 6f3d 371c d63d af77 03be
00000040: e757 fc3e f27a 03be 99f2 283e 0282 653d
00000050: 0110 4ebd accd 873e d729 86be ae77 24bc
00000060: db07 053e ce5b 363e 5269 6d3e 9ce7 1ebe
00000070: 8cd8 fa3d 41c9 f73b 4537 993e 9f59 7d3c
00000080: ec91 703e 2796 edbd fe76 64be f992 453e
00000090: efcf 2e3e 74c0 bb3d be6c 9ebe bb3f b43c
000000a0: 6a0b d7bd 3fda 0c3e d007 a3bd b9a8 383b
000000b0: 1508 4bbe 448d b13e eda1 963d d071 5ebe
000000c0: 3edc c2bc 6c71 743d 809b 023e 56bb 94bb
000000d0: 1fd4 2a3e 661f cb3e 6a4a d9bc 34ba 3d3e
000000e0: fa18 c03e 98fe 9bbe 088e 313e 0923 613d
000000f0: d799 5a3c 0c96 853e 94dd be3e 4b31 93be
00000100: 3efa d9be b3cd 98bd 4565 19bb 3bf2 cabb
00000110: 0307 0bbe 9ae7 ccbd 7b0f 7d3e 1d20 2b3e
00000120: d301 ca3e 1cc0 90bd 3714 a03e 423d c9bd
00000130: 22fc 643e 0690 bc3e f2ef 883c e63b bd3e
00000140: 1bbc 823c 9872 4cbe fc17 d3bc c6a7 8f3e
00000150: 6e30 8e3e d2d4 01be c6fe 583e 0274 20be
00000160: bb88 5f3d 57b0 ae3e ceef 753e 97a7 72be
00000170: 756f 493e 395d e43e f2a3 95bd 7805 94be
00000180: 59e7 8b3e 0b69 953c 8fd5 1ebe f40a 1abe
00000190: 5541 b3bd 3b9d 8d3d b596 283e 55ab 28be
000001a0: be25 93bc 359d 163e f8b3 56be ee30 54be
000001b0: 2737 f43c b0e7 cfbe 17d0 613e 16f4 42be
000001c0: 53eb 7cbe 70fd 683b 0c2f 4e3e a7dc 443e
000001d0: 6b65 483e 6fc4 1fbe a4e6 df3e cb05 a0bc
000001e0: f40f 2bbe 643d 133e 6fac d73e 97a2 a6bd
000001f0: 1205 4a3b 57d7 59be 8a36 953d 7d18 033e
00000200: 17c8 9a3d 3e90 8fbe ae2a 923d 8aa3 94be
00000210: f300 91ba f4ca 213e 4619 f13d b1f6 85be
00000220: de70 79be fa27 2dbe cdf6 2d3f 2d5d 30bd
00000230: 68e8 26be 09d6 4e3d d762 9bbd 80a0 47bd
00000240: 1638 ad3e 60cf c33e 1f5d 803e abdb 613e
00000250: 2a43 75be d72b 52be 061a d5bd 1938 f93d
00000260: a54b 5fbe d920 0b3e 9c56 24bd 374b f53d
00000270: bf34 453e 256e 9bbb 496f 04be 2442 343c
00000280: a5f1 16be 3c6e eabb 0da0 8bbe 8aa1 663e
00000290: 9505 29be d07b cbbe 245d c6be 8a54 b23d
000002a0: f0af ddbe e40e 3ebe 5306 973e 159b c3be
000002b0: 81f3 67be d7a8 bf3d 9dab 5b3c 21b1 81be
000002c0: 2a7c cb3b 8df2 6c3e d8a8 63be 80a6 8f3e
000002d0: e7f5 f2bd 56e9 133d 645d 033f 6fea 9e3e
000002e0: 38f0 ddbb 5baa 9ebe f1f6 8e3c f92c c9bd
000002f0: 5b89 73be 0a4d 9fbd 5487 5c3e 3d8f 37bf
00000300: 0916 423e ceb5 783d 8d61 6e3e 7c67 483e
00000310: ad8c 32bd d4da 513e 800d 14be f628 0bbe
00000320: c84f 15bf 8601 90be f066 b83d dd05 77bd
00000330: c725 30be f495 3b3e 3220 e73e fa73 edbc
00000340: f4ac 903e 0a73 90bd 8094 7b3e 150e 613e
00000350: 6c13 a3bd 8759 a13e c875 17bd 0a25 3e3e
00000360: 7397 933e 57f3 b03d 539d 283e 1f59 563e
00000370: 7816 df3d 459f a6bd fb09 e73c 98c4 50be
00000380: 74c6 463d 7cf2 d33d bcc6 f5be 9f45 a7bd
00000390: eccb 09bd cbbd 88be b96f 3ebd 1efb 63be
000003a0: 6960 babe aef6 fabd 9b76 313e 52bd 06bb
000003b0: 3348 eb3d 8d02 edbc fa40 8dbd fa68 963e
000003c0: b165 bfbd 2380 923e c5db 94be 9c69 42bd
000003d0: 7f57 8cbe 8efb ef3e 1b77 1a3e fead 623d
000003e0: 7a1b 72bd a78d 85bd fc7d f53c 1933 383d
000003f0: cc3c 8e3e 1493 b6be c531 0a3f 6e62 06bf
-0.19466741 -0.13673204 0.25366974 0.5339377 -0.01568829 0.12111869 0.16438627 0.089918695
0.0935646 0.28264797 0.07582025 0.049058322 -0.19444898 0.058443855 0.104546 -0.12838624
0.49285814 -0.12839869 0.16498794 0.05603219 -0.05030823 0.26524103 -0.26203796 -0.0100382995
0.12991278 0.17808458 0.23184708 -0.1551804 0.12248334 0.007561833 0.2992498 0.015463262
0.23493165 -0.11600905 -0.22311017 0.19294347 0.17071508 0.09167567 -0.3094234 0.022003045
-0.10500224 0.1375513 -0.079604745 0.0028176738 -0.19827302 0.3467809 0.07355104 -0.21723104
-0.02378666 0.05967848 0.12754631 -0.0045389337 0.1668248 0.39672393 -0.026524741 0.18528062
0.37519056 -0.30467677 0.17339337 0.054965053 0.013342342 0.2609104 0.37278426 -0.28748545
-0.42573732 -0.07461109 -0.0023406309 -0.006193427 -0.13576894 -0.10005112 0.24712937 0.16711469
0.39454517 -0.07067892 0.31265423 -0.09826137 0.22361806 0.3682863 0.016715977 0.3695976
0.015958836 -0.19965589 -0.025768273 0.28057688 0.27771324 -0.12678841 0.21190938 -0.15669253
0.054573756 0.34118912 0.2401726 -0.23696743 0.19671424 0.44602373 -0.07306661 -0.28910422
0.27324942 0.018238565 -0.15511154 -0.15043241 -0.087526955 0.06914755 0.1646374 -0.16471608
-0.017962333 0.14708407 -0.2096709 -0.2072179 0.029811455 -0.4060645 0.22052036 -0.19038424
-0.24699144 0.003555145 0.20135134 0.19224797 0.19569938 -0.15602277 0.43730652 -0.019534012
-0.16705304 0.14378887 0.42123744 -0.0813648 0.0030825776 -0.21273552 0.07285793 0.1280231
0.07557695 -0.28039736 0.07137047 -0.2903102 -0.0011062905 0.15800077 0.11772399 -0.26164773
-0.24359462 -0.16909781 0.67954713 -0.04305761 -0.16299593 0.05049709 -0.075872116 -0.04873705
0.33831853 0.38244152 0.25071046 0.22056453 -0.23951402 -0.20524536 -0.10405354 0.12168903
-0.218062 0.13586749 -0.04012166 0.11977237 0.19258402 -0.004743355 -0.12933077 0.011002097
-0.14740618 -0.0071542542 -0.27270547 0.2252256 -0.16506036 -0.397429 -0.38742936 0.08707531
-0.43298292 -0.18560368 0.29497012 -0.38204256 -0.22651483 0.093583755 0.013407615 -0.2533045
0.00620987 0.23139401 -0.22232378 0.28056717 -0.118633084 0.0361112 0.5131438 0.31038234
-0.006773021 -0.30989346 0.017451735 -0.09823031 -0.23782866 -0.07778366 0.21535999 -0.7170294
0.18953718 0.060720257 0.232794 0.19570726 -0.04359119 0.20493633 -0.14458275 -0.13589844
-0.5832486 -0.28126162 0.09004009 -0.060308326 -0.17201911 0.18318921 0.4514175 -0.028985966
0.28256953 -0.07053192 0.24568367 0.21978028 -0.07962689 0.31513616 -0.03697756 0.18568817
0.28826484 0.086401634 0.16466264 0.20932434 0.108929574 -0.08135847 0.028203001 -0.20387495
0.048529103 0.103489846 -0.48003185 -0.08167576 -0.03364174 -0.267073 -0.046493266 -0.22263762
-0.3640168 -0.12254082 0.173304 -0.002055962 0.1148838 -0.02893188 -0.06897159 0.29376966
-0.09345568 0.28613386 -0.2907392 -0.047464 -0.27410504 0.46871608 0.15084498 0.055341713
-0.059108235 -0.06521159 0.0299673 0.044970606 0.2778076 -0.35659087 0.5398219 -0.5249394

affine_layers.1.bias f4 [64]
00000000: 4b58 1dbd 2729 ab3d 7891 81be 50e6 843e
00000010: b0cb 3c3e 21cf 6a3e deee f83c 0f4b e3bd
00000020: 7d45 6cbe 3bad d3bd 8281 193d e59e 343e
00000030: 57bb 68bc 499a 863e f3d6 edbe dc4d 55be
00000040: 2abb 883e abed 78bc c569 1cbe 8c14 453e
00000050: 1188 6e3d 7916 dcbe ec33 f03d 838b 35be
00000060: 84ca 263e d51b 9abd ceba 00be 156c 3e3e
00000070: 7c46 d53d 4c86 953e d402 a23e bdd8 623e
00000080: 9586 273f 318f 73be 5f79 b43e 4f73 af3d
00000090: 4464 54bd 069a fd3d f161 3cbe a43f 88be
000000a0: eff8 f3bd 7205 a1be c873 67be f5cd 1a3e
000000b0: ea3a bb3e 0f09 8d3d c05f 8b3d f655 98bc
000000c0: 6efe 6b3d fa15 ecbe 5dc4 5b3e 960d 263e
000000d0: 4f9b 9cbe 8b30 52bc c3c2 bc3d dfb1 82be
000000e0: da4a 3cbe cf36 68be 9d9e a4be 3c8a 21bc
000000f0: 4944 663d cdcb 9abe b962 733e a89f 3bbd
-0.03841428 0.083574586 -0.25306296 0.25956964 0.18437076 0.22930576 0.030387338 -0.11098301
-0.23073383 -0.103357755 0.037477024 0.17638738 -0.014204822 0.26289585 -0.46453056 -0.20830482
0.26705295 -0.015193383 -0.15274723 0.1924612 0.05823523 -0.42985895 0.11728653 -0.17729001
0.16288191 -0.0752484 -0.1257126 0.18595918 0.104138345 0.29204023 0.31642783 0.22152992
0.6543973 -0.23785092 0.3524885 0.08566915 -0.051853433 0.12382893 -0.18396737 -0.26611054
-0.11912715 -0.31449467 -0.22602761 0.15117629 0.36568385 0.068864934 0.06805372 -0.018595677
0.05761569 -0.46110517 0.21461625 0.1621612 -0.3058724 -0.012828956 0.09216835 -0.2552633
-0.18387929 -0.22677158 -0.32152262 -0.009859618 0.056217466 -0.30233613 0.23768128 -0.045806557

final.weight f4 [1, 64]
00000000: a52a 03be 3c34 a43d 8862 47be ea0a 003e
00000010: a674 e53d 5431 0dbd d0ab 073e 33b9 e2bd
00000020: 0af2 7bbe 4641 20be 710d 853e 09a9 7c3d
00000030: b969 5dbd dfa4 253e dc51 76be fddc 08be
00000040: 19eb 6d3e bc3d 1d3e 8013 2cbd b03f 173e
00000050: a929 263e 95f7 e8bd e64b 3c3e 189d e9bd
00000060: f988 283d f6d4 d8bd 55f2 53bd 9d8d 333e
00000070: 87bd d33d 2f31 4a3e 7342 4a3e 4939 533e
00000080: 1b21 8b3e 8b3a f9bd 7965 b93d f852 0d3e
00000090: c27a 7ebd bbab 0e3e 8512 c2bd 8855 5bbe
000000a0: a1ac 75be 77d6 3abe 471c 2abe d42d ec3d
000000b0: 8a9d 043e ae4a 043e 6d83 e73d 9d2d 24be
000000c0: efb9 bd3d 3508 c5be 9494 d33d bb85 bf3d
000000d0: 3e23 68be 8383 af3d 14a9 053e 5188 afbd
000000e0: b429 e7bd ff35 cebd 6f29 36be 2fac 5e3e
000000f0: 6619 123d 9d8d 96be 0ee7 8b3d 7117 a0bd
-0.12809236 0.080177754 -0.1947118 0.12504163 0.112038895 -0.03447087 0.13249135 -0.1107048
-0.2460405 -0.156499 0.25986817 0.061684642 -0.054055903 0.16176175 -0.24054664 -0.1336555
0.23234214 0.15355581 -0.042010784 0.14770389 0.1622683 -0.113753475 0.18388328 -0.114069164
0.041146252 -0.10587494 -0.051744778 0.1753449 0.10338884 0.19745325 0.19751911 0.20627321
0.27173695 -0.12169369 0.090525575 0.13801181 -0.06212879 0.13932697 -0.094761886 -0.21419346
-0.23991634 -0.18245874 -0.1661235 0.115321785 0.12950721 0.12919113 0.11304364 -0.16033025
0.0926398 -0.38482824 0.103310734 0.09351679 -0.22669694 0.08570006 0.1305278 -0.08570922
-0.11287251 -0.10068893 -0.17789243 0.2174537 0.035668753 -0.29404917 0.068311796 -0.07816971

log_stdev f4 [6]
00000000: dc18 edbe 66ee 37bf 2d7b fabe 2546 e4be
00000010: f2a1 c8be eb60 2dbf
-0.4630803 -0.7184814 -0.489221 -0.44584766 -0.39186054 -0.6772601

affine_layers.0.weight f4 [64, 17]
00000000: 68fd 14bf 191b f53e 0af4 9e3e bc7c 00be
00000010: c47a 5cbe e68f e83c 5ce0 12bf b089 bebe
00000020: bbfc 51bd b207 24be 52f4 ed3e d5de 933e
00000030: 2504 b43d b552 113f 2ede 993d 789f 26be
00000040: 5c43 79be 2811 d73e c696 613e 40ef e2be
00000050: 377f b8bd dfe7 043e 0a25 ee3e 7ac0 053e
00000060: beb5 babe ef88 653c e001 7dbd 599c 0dbe
00000070: 2cbf 843d 82e8 3ebe b310 86be 2f1b 42be
00000080: ee59 523c 56da f53e 8203 febe 3df8 7fbe
00000090: abc9 e5be 5b1e f83c 094c d3be 76e2 863e
000000a0: 88ce c5be 0cb6 75be 8819 933e 9f57 b13e
000000b0: c4f3 a73e 929f ba3d b106 d33d 34c5 c73e
000000c0: 9224 20be d109 a7bc b9dd 9abe e7be 74bd
000000d0: dc89 b33e ec43 833d 6f34 92bd c1c0 85be
000000e0: 3fac 723d 9dc4 0d3d 546d 33be eab9 793e
000000f0: b030 a83e 6401 d13e e8bb 82be 7fcb b43e
00000100: 6771 66be 685e 82be a86d a53e 05c4 cf3e
00000110: 5aaa cfbe 5555 17bd 95f2 3ebc 389f 70be
00000120: adf2 a43e b76a adbe 88f5 4fbd a537 f43c
00000130: 7d40 a0be 2b9a fdbe 48d4 383d 2eb6 473e
00000140: 8231 f83a 3d97 043e 2e82 fabd a9d1 023f
00000150: 8973 573d 9545 9cbe 72b3 923d b8e0 063c
00000160: a504 ed3d 457a 0e3f e786 8abe ffb6 943e
00000170: 446b bebe f7c7 38bd 7e9d 55bd d4a9 b23e
00000180: 79b1 c8ba be7c 0cbe 219f 8cbc 97f7 7bbe
00000190: cfdb 98be 4610 46be 64b1 2ebf 6f8c a6be
000001a0: 0da8 85be 2787 963d ba34 10bf 6035 98bd
000001b0: 4870 c7bb 2117 b03e 2d53 dbbc 6988 2dbe
000001c0: e3cd 783d edd2 5bbe 3104 f5bd da00 4e3e
000001d0: 910d f5bd 480d 7cbd ef07 0ebe 29a5 e63e
000001e0: db95 993d d101 a23e 92ac 323f 3b78 863e
000001f0: 298e 623e 1b23 9b3e 2373 933e b21b 623d
00000200: 5c26 303e c670 023f d13d 34be c8d8 30bd
00000210: 3462 8e3e 498a 56bd 38ff a73d d7cf a7be
00000220: 6743 9ebe 89d2 4dbf 0e3d 31bb a399 933c
00000230: 084d eebd 9224 843d d13a 0abe b41e 473d
00000240: 8d0b 06bf d821 9a3d 3f45 a4bd b41a 90be
00000250: 20b6 533d 403a 4cbc b949 e9bc 710f d23e
00000260: e11a 1a3e a69d 8e3d 5715 a83d fd47 0b3e
00000270: 120a 15bd 4bfa 1ebe ae8a 833e ad6e f6bd
00000280: a1e9 03bf 449e da3e 43e9 743e 6b76 1fbd
00000290: 500e bdbe ba34 74be b8c8 653e 4710 043e
000002a0: 64e8 96be 6e11 f23e 22b4 903d 8507 19be
000002b0: 52ec e73e 05a6 563d 414f 553e 2e59 e8bd
000002c0: 20bd 223d 2625 b2be 4a2e 983d ee2a 45bf
000002d0: 4358 b1bb 383e ec3d f643 ab3d fe6f adbe
000002e0: d69a b33b c4d7 8a3d 2412 633d 12b3 da3e
000002f0: ba39 25be 2a7b 813e e41d 243f 9c07 133e
00000300: 2cb2 fabd fc9f 65bd 8787 0bbf 2f5e 38be
00000310: 4bb5 f83e 61e7 d5be f8ff 853e 9df6 903e
00000320: 65e5 e23d 115b 22be 2c56 30be 4fed 173e
00000330: 0e06 d63d d15f b33e 1a91 6a3e 799a 233e
00000340: fa67 be3e b912 573d 590c 50be 4e44 9c3e
00000350: 6fc4 0e3e 1602 93bd 2720 cdbd 718c 18bd
00000360: 7710 efbe 546f 773e e73f 0fbd 5c77 14bd
00000370: db35 80be e168 b7be 8c34 19be 8ff2 543e
00000380: c9fe 9e3e ca87 58be 7981 2d3f c3da f4be
00000390: bfef 4e3e 5dc9 1bbe 59b9 843e 7578 1d3e
000003a0: eee6 b73e c85c e0bd ce8b ac3c 3e78 093e
000003b0: cde5 44be 5763 863d 707a 81be 06cd e23e
000003c0: d5c9 6f3d 414b 983e ccfd 763d 1b33 91be
000003d0: dc20 6d3e 1239 35be 72b0 eb3d 3a0b 7cbb
000003e0: 40b2 d6bd 96e9 493e aff3 3e3e 2bc3 acbe
000003f0: b1bf 8d3d f926 e13d 7ea8 eabe 3a44 243f
-0.5819917 0.47872236 0.31045562 -0.12547582 -0.21531206 0.028388929 -0.57373595 -0.37214422
-0.051266413 -0.1601856 0.46475464 0.28880945 0.08789853 0.56766826 0.075130805 -0.1627177
-0.24342102 0.42005277 0.22030172 -0.44323158 -0.09008639 0.12979077 0.46512634 0.13061705
-0.36466783 0.014009698 -0.061769366 -0.13829173 0.06481776 -0.18643382 -0.26184615 -0.18955682
0.012838824 0.4801814 -0.4961205 -0.24997039 -0.44880423 0.030287912 -0.41268948 0.2634465
-0.38634133 -0.23995227 0.28730416 0.34637162 0.32803166 0.09112467 0.10304011 0.39017642
-0.1563895 -0.020390423 -0.30247286 -0.05975237 0.35066116 0.064094394 -0.07138907 -0.26123622
0.059246298 0.034611333 -0.17522174 0.24387327 0.32849646 0.40821373 -0.25533986 0.35311505
-0.22504197 -0.2546265 0.32310224 0.4057924 -0.40559655 -0.036946613 -0.011654516 -0.23498237
0.32216397 -0.3387048 -0.050771266 0.02981169 -0.312992 -0.49531683 0.045124322 0.1950309
0.0018935653 0.12948318 -0.12231861 0.51101166 0.052600417 -0.30521837 0.07163133 0.008232288
0.115731515 0.5565532 -0.27056047 0.29045865 -0.37191212 -0.045112576 -0.05215215 0.34895194
-0.001531168 -0.1371946 -0.017165722 -0.24606167 -0.298552 -0.19342145 -0.68239427 -0.32529017
-0.26104775 0.07349997 -0.56330454 -0.074320555 -0.006086383 0.34392646 -0.02677306 -0.16946568
0.060743224 -0.2146718 -0.1196369 0.20117512 -0.11965478 -0.061536103 -0.13870214 0.45047882
0.07499286 0.3164201 0.6979457 0.26263604 0.22124542 0.3030022 0.2879878 0.055202194
0.17202133 0.5095333 -0.17601706 -0.04317549 0.27809298 -0.052377973 0.08202976 -0.32775757
-0.309108 -0.80399376 -0.0027044448 0.018017596 -0.11635786 0.06452288 -0.13498999 0.048613265
-0.52361375 0.075259864 -0.0802102 -0.28145373 0.05168736 -0.01246506 -0.028477537 0.41027406
0.15049316 0.06963663 0.08207195 0.1360168 -0.036386557 -0.15525167 0.25691742 -0.120328285
-0.51528364 0.42698872 0.23917107 -0.03893129 -0.36924982 -0.23848239 0.2243985 0.12896834
-0.29474175 0.47278923 0.070656076 -0.14944275 0.45297486 0.052404422 0.20831014 -0.11345135
0.039731145 -0.34793967 0.07430704 -0.7701863 -0.005412133 0.11535305 0.08362572 -0.33874506
0.0054811044 0.06779435 0.055437222 0.42714745 -0.16135302 0.2528928 0.6410811 0.14358371
-0.12241015 -0.056060776 -0.54503673 -0.18004678 0.48575816 -0.4177809 0.2617185 0.2831315
0.1107891 -0.15855052 -0.17220372 0.1483662 0.104503736 0.3503404 0.22906914 0.15976895
0.37188703 0.05250809 -0.2031721 0.30520862 0.13942121 -0.07178132 -0.10015898 -0.03724331
-0.4669225 0.24163562 -0.03497305 -0.036246642 -0.25041088 -0.35822204 -0.14961451 0.20795654
0.3105376 -0.2114555 0.67775685 -0.47823152 0.20208643 -0.15213533 0.2592266 0.15377982
0.35918373 -0.109551966 0.021062758 0.13424775 -0.19228287 0.06561916 -0.25288725 0.44297045
0.05854209 0.29744914 0.060300633 -0.28359303 0.23157066 -0.17697552 0.11508264 -0.003845884
-0.10483217 0.19718012 0.18647645 -0.3374265 0.06921328 0.109937616 -0.45831674 0.64166605

affine_layers.0.bias f4 [64]
00000000: ed0f 1ebe d258 153d 0619 00bf 3e0e e33e
00000010: 7a89 8ebe 38ad 9a3e 684d ae3d 3047 033f
00000020: 33c0 c53e a7eb 513e 703f c9be 7949 203e
00000030: 0d2e 383e b3d4 643e 8048 c43d e069 103e
00000040: 80bb 953e fe24 c73d 8bc8 c53e db69 353e
00000050: 5a1b 04bf bbfe d33e 8af8 fcbd dd8b d53e
00000060: 4128 cf3d 43b1 163f b05b 98be cf1f 09bf
00000070: cd53 9f3e 6227 0e3e 7286 783e 7c33 ae3e
00000080: 2e56 c83e 5a23 9fbe 53ac 70bd 1df8 b73e
00000090: 5f38 2cbe 52f0 d0bd ab8d a93e c327 8a3d
000000a0: 863f 303f c9af 873c feb0 9d3e feb6 f2bd
000000b0: 4a07 02bf a50b 8a3e fe6d d4be 60df fcbd
000000c0: 4eaa 223e 1759 143e a2b3 07bd 7543 afbe
000000d0: 78c1 60be e8d9 4b3e d57c 0b3f 720d d5bc
000000e0: 99d9 97be de4e c83d 7b03 56bd 06e3 a73e
000000f0: dfd0 d93e 240a 073f 4fe3 823e d2e3 dbbe
-0.15435763 0.03646166 -0.5003818 0.44346803 -0.2783926 0.3021028 0.08510858 0.512805
0.386232 0.2050005 -0.3930621 0.15653028 0.17986317 0.22346763 0.09584141 0.14102888
0.29244614 0.097238526 0.38629565 0.17716162 -0.51604235 0.4140528 -0.123520926 0.4170827
0.101151 0.5886423 -0.29757452 -0.5356416 0.31118622 0.13882211 0.24270037 0.34023654
0.3912825 -0.3108166 -0.05875809 0.35931483 -0.16818379 -0.102020875 0.33115897 0.06745865
0.6884693 0.016563313 0.30799097 -0.11851309 -0.5079237 0.2696201 -0.41490167 -0.12347293
0.15885279 0.1448711 -0.033130296 -0.34231153 -0.21948802 0.19907343 0.54487354 -0.026007388
-0.296582 0.09780668 -0.052249413 0.32790393 0.42542168 0.5274985 0.25564048 -0.4294725

affine_layers.1.weight f4 [64, 64]
00000000: 9c66 29be 50b7 efbd 2ae4 9a3e 264f 213e
00000010: 69a4 96be 56b7 2abe 704d 2f3d 43d4 ad3e
00000020: 2774 3b3f 680a 243e 1086 14be b255 abbd
00000030: 0ac0 de3e 1fd4 ca3b 8ca9 9b3d 51dd 0abd
00000040: 9d5b bcbd 85d3 85be 053c e2bd 4501 ce3e
00000050: dbb5 d63d 4d0e 3a3f 9b7c afbe ee46 fbbc
00000060: fa19 10be 9c53 6e3e 5e6d a33d 1b55 20bf
00000070: bef3 34bc 3a2d d6bd e17e a13d 5f1e c13d
00000080: 3e01 38be f8a6 8fbe b432 b13d 7021 7fbc
00000090: 5e5a 06be 2cbe 84be fbdc 943e 0b1f 92bd
000000a0: 05a1 823e c554 0cbe d382 823e 9293 b5bd
000000b0: 75f4 a83c 092d 7b3e f5fa 433e 702f c1be
000000c0: 7974 063f 27d8 60be e0a8 57bd c55f 973d
000000d0: 6461 81bc c5ee 38be 3a3f b63e 995a 683e
000000e0: 4f07 1ebe c83e c83e 3f06 e03d a039 123e
000000f0: 9db1 e0bd 7e4f 3ebb dab6 3d3c 8f5f 45be
00000100: 50f5 b0be 4a4a 0abe 022f 8dbe e937 c5bd
00000110: 3468 98bd 8818 30bd ba15 94ba 501b b73e
00000120: 7a38 1d3e 9132 fcbe 69b8 f73d 58ff e6be
00000130: 6d3e 4c3e d645 06be 59b6 de3e 4585 23be
00000140: e710 153e 0db1 b63e 8b25 b8be ef12 083f
00000150: b912 e3bd 6681 33bd a085 b0bd 661e 933e
00000160: 6823 cfbd e12e e93e 4405 84bd 9025 e6bd
00000170: 1a6a 4cbe 1d9e 913e 1f5d 783d 1e2e 09be
00000180: 73c1 8e3e f3e1 9fbe 3c29 4f3e 9e13 47bd
00000190: e643 523d 1061 b93d 71ae 2e3e 54c6 00bf
000001a0: c47e 22be 3bc3 d0bb 50f0 47be 4d94 d5bd
000001b0: 8e2e 8d3c c876 ad3d 7e94 303d 43c1 233e
000001c0: e358 3c3e e876 1dbd 164e 00be 6e01 10be
000001d0: 38da 083f 0544 3c3e f957 093f b575 a3be
000001e0: ade0 56bd 7a88 1abf cf28 86be 9eda d43e
000001f0: 5898 2dbc 2a05 783b 512c 9fbd 10b4 bcbe
00000200: 29e2 383d d6d8 a2bd c94d 46be 90f4 33be
00000210: f994 27bf 011d b5bd 4721 64be eb3a 953e
00000220: 9983 233d 6c96 68be 7f25 9cbe 9eec 003d
00000230: eeb3 443e 6ac2 5cbe 1ab9 093e 01da 3e3e
00000240: 33ca 243f 4bf6 b63e 6890 e13d c965 953e
00000250: 8bd5 dbbc c9fc 973e 2ef3 16be aa3f d53d
00000260: 2cc7 0cbe 2cb3 7b3e 5148 cbbe e3f4 e5be
00000270: dd42 0dbe 8534 98bd aad2 853e 818c c23e
00000280: 1d91 23bd 2331 86bc 844f 35be 5fc6 75bd
00000290: 7e92 edbd 5ef2 25be fe87 9b3c e209 d93d
000002a0: 3e46 ce3e 27c8 d63d 60bd 7bbd b981 1b3e
000002b0: 1ee8 ecbe 3eb7 a03c bd02 b3be 0e3b bc3e
000002c0: c0a7 833e 16cc 39bd bc1c 3c3b 54c6 18be
000002d0: 3185 40be 92a6 aebd 6b87 2d3e bbb6 2dbd
000002e0: c3a1 bebe d2cf 4f3d 994d 2dbe 35b2 233e
000002f0: e026 28be f699 de3e 3bc2 08be 7b00 24bf
00000300: eb80 83bd ba36 d1be 1701 9fbe a08f 2fbf
00000310: 6196 2fbd b9b4 823e c422 dc3e 4be3 9e3b
00000320: b4f0 473f e1bc d6be d78f b53d 9045 7fbe
00000330: cf25 c53b bf40 cdbd 5333 52be aa51 a83e
00000340: 4bd0 153e b670 8d3d 7fcf 1abe ebd6 8c3e
00000350: b13e 743d 9f38 4d3e bf7e 8ebe e437 c73a
00000360: dc80 8bbd 9379 8ebd 0090 d63e dc05 89be
00000370: be0c 64bc d8d3 dc3d 4b1b efbe 6bc1 2ebc
00000380: edfe ac3e 927f 453e cc83 0a3e caa7 75be
00000390: 2530 90bc deb9 cbbd 5548 423d a9b7 323e
000003a0: e7d3 9dbe 99b2 adbe 88f6 12bf dc73 b7be
000003b0: 0598 c73d ce45 75be e327 a5be 8291 ee3a
000003c0: 4bc3 873e c6d3 05be 9b00 cf3e 5891 863e
000003d0: 6cee 4f3e 9581 243e 842a 1f3d 36c9 7bbd
000003e0: ebab 353e 1510 673e d8a8 51bd 7988 3d3e
000003f0: 7bc0 33be baf9 dd3d 64b7 9cbe c150 f0be
-0.16543049 -0.11704886 0.302522 0.15752849 -0.2942231 -0.166715 0.04279846 0.33951005
0.7322411 0.16019595 -0.14504266 -0.083659545 0.4350589 0.0061898376 0.07600698 -0.03390247
-0.09197161 -0.2613794 -0.11046604 0.40235344 0.10483905 0.7267807 -0.34274754 -0.03067347
-0.1407241 0.23274082 0.079798445 -0.6262986 -0.011044441 -0.10457845 0.07885528 0.09429621
-0.17969224 -0.28057075 0.08652249 -0.015571937 -0.1312041 -0.2592634 0.29074845 -0.07134827
0.25513473 -0.13704212 0.25490436 -0.088660374 0.020624379 0.24528898 0.19138701 -0.37731504
0.52521473 -0.21957456 -0.052651286 0.073913135 -0.01579351 -0.18059833 0.35595113 0.2269081
-0.15432476 0.39110398 0.10938691 0.14279795 -0.10971377 -0.002903908 0.01157924 -0.19274734
-0.3456216 -0.13504902 -0.27574927 -0.09629805 -0.0744175 -0.042992145 -0.0011297979 0.35763025
0.15353575 -0.4925733 0.1209572 -0.45116687 0.19945689 -0.13112578 0.43498495 -0.15968807
0.14557229 0.35681954 -0.35966143 0.5315389 -0.110875554 -0.043824576 -0.08619237 0.2873413
-0.10114175 0.45543578 -0.06446317 -0.11237633 -0.1996235 0.28440943 0.060635682 -0.13396499
0.27881965 -0.31227073 0.20230573 -0.048602693 0.051334284 0.09051716 0.17058732 -0.50302625
-0.1586867 -0.0063709295 -0.19525266 -0.10428677 0.017234113 0.08469921 0.043110363 0.15991692
0.18393283 -0.038443476 -0.12529787 -0.14063045 0.53457975 0.18385322 0.5364986 -0.3192574
-0.05246036 -0.60364497 -0.2620301 0.41573042 -0.010595404 0.0037844875 -0.077721246 -0.36856127
0.045137558 -0.079515144 -0.1936561 -0.17573762 -0.6546169 -0.08843423 -0.2227832 0.29146513
0.039920423 -0.22713631 -0.30497357 0.031475656 0.19209263 -0.21558538 0.13449517 0.1863785
0.6437103 0.35734782 0.110138714 0.29179218 -0.026835224 0.29685047 -0.14741203 0.104125336
-0.13747853 0.24580067 -0.3970361 -0.44913396 -0.13795038 -0.07431892 0.26137286 0.3799782
-0.039933313 -0.016380852 -0.17706114 -0.060003635 -0.11600207 -0.16205737 0.018985745 0.10597588
0.40287966 0.10487395 -0.0614599 0.15186204 -0.4627084 0.019618627 -0.34963027 0.36763805
0.2571392 -0.045360647 0.002870365 -0.14919406 -0.18800808 -0.085278645 0.16946189 -0.042410593
-0.3723279 0.050735302 -0.16924132 0.1598595 -0.1642108 0.43476838 -0.13355343 -0.64063233
-0.064210735 -0.40862066 -0.3105552 -0.6857853 -0.042868022 0.25528505 0.42995274 0.004848873
0.7810166 -0.41940978 0.08865326 -0.2492888 0.00601647 -0.10022115 -0.20527391 0.32874805
0.14630239 0.069062635 -0.15118216 0.2750772 0.0596301 0.2004113 -0.27831075 0.0015199152
-0.06811687 -0.06956782 0.41906738 -0.26762283 -0.013919054 0.107825935 -0.4670051 -0.010666232
0.33788243 0.19286945 0.13526839 -0.23989788 -0.017601082 -0.09947561 0.047432262 0.17452873
-0.3082573 -0.33925322 -0.57407427 -0.3583058 0.09745792 -0.2395241 -0.32256994 0.0018201324
0.26516184 -0.13069066 0.4043015 0.26282763 0.20305794 0.16065057 0.038858905 -0.061471187
0.17741363 0.22564729 -0.051186413 0.18509091 -0.17553894 0.10838647 -0.30608666 -0.4693661

affine_layers.1.bias f4 [64]
00000000: 35ef c03e 6119 1fbe 5954 f13e 0b72 083e
00000010: 276c 593e f397 5e3e 3e58 e4bd 2a3e 983c
00000020: f7fe c73e c6b7 753d 3306 2a3e 10a7 e5be
00000030: bbfc a3be 7868 893d 499a 723e 0ebd 82bd
00000040: 7e2b 913e 60e7 da3e 895f ad3e c308 bb3d
00000050: f336 e7bc 9668 a23e c937 f8bd 7749 e5be
00000060: 4534 823e 8d33 553e 3e75 29bd d519 d7bd
00000070: afdd 7bbd 49c8 3e3e e5e9 bbbd 2ca9 fabc
00000080: 0af6 7d3e ccd7 01be 1229 593e cb36 f13e
00000090: 4242 963b 1e92 953d 5285 753e 2d28 c4be
000000a0: 29ad 773e 1875 993d 332b 423e 947b 1fbe
000000b0: bc53 8b3d fcf5 58bd 2e5a 86be c683 d2be
000000c0: b198 e73e 6fbb 47be 7633 3e3e 38b3 69be
000000d0: 32ed 993e 8b5a adbc 3cbd f6bd 99f5 8bbe
000000e0: 2ec7 b4be ed17 acbe d344 b33e e792 86be
000000f0: 4135 81bd 9b0d 36bc 7976 0a3e e953 9ebe
0.376825 -0.15537025 0.47134665 0.13324754 0.21232663 0.21737652 -0.11149643 0.01858433
0.3906171 0.059989713 0.16603927 -0.4485402 -0.32028756 0.06709379 0.23691668 -0.063837156
0.28353494 0.4275465 0.3386195 0.091325305 -0.028224444 0.31720418 -0.12120015 -0.44782612
0.25430503 0.20820446 -0.041371576 -0.10502974 -0.06149071 0.1863109 -0.09175471 -0.030598246
0.24800888 -0.12679976 0.21207073 0.47112116 0.0045855353 0.0730326 0.23976639 -0.38311902
0.24187149 0.07493037 0.18961792 -0.15574485 0.068030804 -0.052968964 -0.26240677 -0.4111616
0.45233682 -0.19505094 0.18574318 -0.22822273 0.30063778 -0.021161338 -0.12047812 -0.27335814
-0.35308212 -0.33612004 0.35013446 -0.26283953 -0.063089855 -0.011111642 0.13521756 -0.30923393

final_mean.weight f4 [6, 64]
00000000: 7d2a c03e 0178 5dbe f068 cb3d 9be6 63bc
00000010: ac77 57bc 61c4 3c3e 2869 d53c 621c 64bd
00000020: d06e 34be 9eb0 423e abe9 193e 8f30 06be
00000030: b5e5 0c3d 9337 083e 6213 50bd 108f f73d
00000040: 721e 8fbe 8142 f73d f31c c93d a6b3 02be
00000050: 4b81 38bd b02b 49bd 7e88 27bd fa85 7e3e
00000060: 03e2 6d3e ebf2 4e3e e9f1 d03c 0997 91bd
00000070: 75c5 4b3c 09e6 a7bd 0b2a 66bc d689 9cbd
00000080: 6464 a83c 38a4 433d 8c7b 40bd 6ee9 02be
00000090: a27e 42bc 9cf7 0c3e 5670 ea3c 45a6 84bd
000000a0: 855f c73d 46c9 e93d 3a36 0bbe af70 a9bb
000000b0: 0587 47bd 7fea edbd 6be1 a0bd 6e1f 1a3d
000000c0: 20a9 bf3d 22e2 3e3e 0483 193e 8c1f e0bc
000000d0: b1f9 a3bd 7405 eb3c cf9a 17bc 23e2 97bd
000000e0: b403 abbd f00b 85be 4363 443e db1c 8dbb
000000f0: 9030 bf3e 43fc aabd 8db7 61be 23a9 c3bd
00000100: b827 acbc a994 a5bd da22 a63d 97d4 1f3d
00000110: ab3d ca3d 3aea 0bbe bd1b 35be 73b0 d33d
00000120: 423f a43d 3286 a9bd e591 dc3d 376a 74bd
00000130: 24c6 49be cba0 adbd 6382 943d c125 153d
00000140: 9142 8fbd 401b 293d e4cf ee3d 074b 5e3d
00000150: 0d39 113e 9aad 153e 07e2 12bd 9aa0 853d
00000160: b0f3 153e b5f9 7c3e 7c7c dc3c 3718 aa3d
00000170: 8b0b 85bd d065 193d 0f72 4dbb 83d1 503c
00000180: d97a 16bc 76b6 45be e3b0 6ebd 39e9 0f3e
00000190: 32e4 f23d 30e0 913c dbe7 b0bd 387a 05bd
000001a0: 8ff8 a0bd b3a5 833d a351 09be dae9 523d
000001b0: 1524 ecbd 71b4 92bd ef1b 12bc af5d 93bc
000001c0: 69ea 653d 4fb2 4a3e 24ac 84be acc2 f0bd
000001d0: e415 433e 0e1f c4bd 9e5f b53d be43 ccbc
000001e0: 9360 9c3d e63f f13d 9cec 6a3e 1eef 1abe
000001f0: a556 a93d 4268 b63d d2bd b23d f2de 1ebd
00000200: b6c8 b2bd 2230 133d 5c80 fe3b 0b85 a5bd
00000210: 3b31 33be f449 6fbc 1c08 a63d cf5e b4bd
00000220: daba d23e e976 4e3e a541 0f3e c325 233c
00000230: 2f68 013e e540 81be aadf 8f3e 72c2 6fbe
00000240: f9f1 3c3e a0bf 253e 7787 5abe 0b16 41bc
00000250: 4c21 7ebe 262c 083e 3223 d43d 87b5 183d
00000260: 19ac 343e 1840 02bd 5115 263e ce30 363e
00000270: dae6 07be 56a3 2ebe 224a 5fbe 004d e23d
00000280: 449d e53d bfe0 80be da82 213d 14dd abbd
00000290: 79ab 053d 1ab6 b2bc 4966 8fbc 9b9f c7bd
000002a0: c81b 163d de10 883e 5106 a4bd 59ee 853d
000002b0: 4c09 d7bd dec8 863e fa5f d9bc ab34 45bc
000002c0: 0f00 eebd 9f2f d3bd e967 aa3c b812 c03d
000002d0: b613 07bd 61f5 69bd 57e7 afbc 84da 3c3e
000002e0: 8a0c 0a3e 3c01 a2bd 6a9b ee3c cdc7 aebd
000002f0: c2bb 6d3e 3f54 183e 5830 053e f282 c0bd
00000300: f1ef 0f3e db13 f0bd 5f25 243e 7460 1f3d
00000310: abe9 81bd b54c 19be 9b99 b13c 6d13 5c3c
00000320: a1cf 153e ca10 683d 6e77 20bd f8dc b8be
00000330: 1f67 03be 6bd0 66bc f334 64bd 3f1a b3bd
00000340: 3315 933d 322d 2e3c ffd0 293e c4ef 063e
00000350: ff8d bdbc 4c97 653d 14c2 cebd 2068 edbd
00000360: 0927 5fbe 0fd1 d1bc fe78 cb3d 5db9 6abe
00000370: b510 953d 19b1 0e3e 775b 7d3d 1d5e 0d3c
00000380: 940f 3d3e 7318 e03d 78b4 793c 1924 483e
00000390: aa82 acbb 006b 223e 0e92 2dbe 023f 19be
000003a0: 4a64 6d3e 4827 b93c 2b93 91bd 0776 dc3d
000003b0: 5cd7 9ebd b741 533d a62a 37be 4c1c 32be
000003c0: 6b9b 873d a44d 83be ee5e 5c3d 8f99 53bd
000003d0: 6f44 1ebd 7c76 04be 0e41 223e a183 8d3d
000003e0: ab46 c9bd 97b6 aa3c 477d 89bd 68d1 e9bd
000003f0: 07d2 cebd 4e97 82bd bfa4 433e 79ea ecbd
0.37532416 -0.21627809 0.099321246 -0.013909961 -0.013151091 0.18434288 0.026051119 -0.05569113
-0.17620397 0.19012687 0.15030544 -0.13104461 0.034398753 0.1330245 -0.050799735 0.12087834
-0.27952915 0.120732315 0.09819975 -0.12763843 -0.04504518 -0.04911393 -0.040901653 0.24855796
0.23230748 0.20209853 0.025505977 -0.07108886 0.012437214 -0.081981726 -0.01404811 -0.076434776
0.020555682 0.047764033 -0.046992823 -0.12784359 -0.011871012 0.1376633 0.02861802 -0.06477026
0.09735016 0.11415343 -0.13594905 -0.0051709036 -0.04871275 -0.11616992 -0.07855495 0.03762763
0.0935843 0.1864095 0.14991385 -0.027358793 -0.08006609 0.028689124 -0.009253218 -0.07416179
-0.08350316 -0.2598567 0.1917849 -0.0043064184 0.37341738 -0.08348896 -0.22042675 -0.09553745
-0.021015033 -0.08084995 0.08112116 0.0390211 0.098750435 -0.13663569 -0.17686363 0.103363894
0.08019878 -0.08277549 0.10770015 -0.059671607 -0.19704491 -0.084779344 0.07251432 0.036412958
-0.069951184 0.041285753 0.11660746 0.05427077 0.1418192 0.14617005 -0.035860088 0.06524773
0.1464374 0.2470463 0.026914828 0.083054 -0.06496342 0.03745061 -0.0031348502 0.012745264
-0.009184563 -0.19307885 -0.05827416 0.14053811 0.11859931 0.017807096 -0.08637973 -0.03258726
-0.07859909 0.06428089 -0.13410048 0.05149255 -0.115303196 -0.07163323 -0.008917793 -0.017989008
0.056131754 0.19794582 -0.25912583 -0.11755881 0.1905132 -0.09576236 0.08856128 -0.024934646
0.076356076 0.11779766 0.22941822 -0.15130278 0.08268479 0.08906604 0.087276116 -0.038786836
-0.08729689 0.035934575 0.0077667665 -0.080820166 -0.17499249 -0.014605034 0.081070155 -0.08807146
0.4115818 0.20162548 0.13989885 0.009957734 0.12637399 -0.25244823 0.2810033 -0.23414019
0.1845168 0.1618638 -0.21340738 -0.011785041 -0.24817389 0.13298091 0.103582755 0.037282493
0.17643775 -0.031799406 0.16219069 0.17792055 -0.13271657 -0.17054495 -0.21805623 0.11049843
0.11211637 -0.25171468 0.03943143 -0.08391777 0.032634232 -0.021815348 -0.017504828 -0.09747239
0.036647588 0.2657537 -0.08009017 0.06539602 -0.1049982 0.26325125 -0.026535023 -0.012036483
-0.11621105 -0.103118174 0.020801501 0.0937857 -0.032977782 -0.057118777 -0.021472616 0.18442732
0.13481346 -0.07910392 0.029126842 -0.08534203 0.23216155 0.14875887 0.13006723 -0.09399976
0.14056374 -0.11722537 0.16029881 0.038910344 -0.06343397 -0.14970668 0.02167969 0.013432366
0.14629985 0.056656636 -0.039176397 -0.36106086 -0.12832306 -0.014087777 -0.05571456 -0.087452404
0.07181778 0.010630893 0.16583632 0.13177401 -0.023138998 0.05605249 -0.10095611 -0.11592126
-0.21792234 -0.025612382 0.09935187 -0.22922273 0.07278577 0.13934745 0.061854806 0.008628395
0.18462974 0.10942163 0.015240781 0.1954502 -0.0052646 0.1586113 -0.16950247 -0.14965442
0.23182788 0.022601739 -0.07108148 0.107646994 -0.0775592 0.051576342 -0.17887363 -0.17393607
0.066214405 -0.25645173 0.05380147 -0.051660117 -0.038639482 -0.12935823 0.15845129 0.06909872
-0.09827932 0.020839019 -0.06713348 -0.11416894 -0.10098653 -0.06376515 0.19105814 -0.115681596

final_mean.bias f4 [6]
00000000: d912 853e 2a62 313e efe2 45bd 0719 4f3e
00000010: 4e05 813e 354f 12be
0.25990942 0.17322603 -0.048312124 0.20224391 0.2519936 -0.14288028

exp_avg f4 [64, 17]
00000000: cceb 3e3b 0451 37bb 390d a9b9 e061 08bb
00000010: d619 fb39 45b3 a3ba f091 83b8 51c7 c33a
00000020: 3937 183b f86f bdba eff6 3739 14c1 faba
00000030: 83a0 483a 5825 56ba ced5 5039 c902 413a
00000040: 05a0 463a 4e76 d9ba 65c4 eb3a 2cef e3b9
00000050: 3fa8 5a39 f934 85bb 532c 8c3a 94f0 b039
00000060: 3bd4 16b9 16e7 843a 56f2 98ba b162 f038
00000070: 95c5 00bb df3b c838 779f 343a 17b6 af39
00000080: 11e6 91ba ae7c 9ab8 1361 3a3b 31d1 d6b9
00000090: c358 023b cd58 ba39 5e40 953b 6d2c 83bb
000000a0: 3690 d6b9 0ee7 86ba b85d 143a be16 013b
000000b0: 09c1 acba e149 9c3a 7112 01ba 59d0 70ba
000000c0: 4334 03bb 44c5 603a 55a2 d03a ddc8 24bc
000000d0: 70a6 1a3c 73e0 9cba 6373 883b b63d 22bc
000000e0: ded9 9c3b 06f3 243b fc25 ecba af30 01bb
000000f0: 7f94 ce3a a3b1 573b 1ee6 ccba 5b20 463b
00000100: 4cb3 0c38 4676 9c39 6ff0 a4ba 1407 8bbb
00000110: 1f71 8ab9 279f ce3a 05f4 4dbb c108 0aba
00000120: 7a18 01bc f878 483b e5a8 003b 77aa 43ba
00000130: 53ea ec3b 6ad7 7a3a f04c 993b ad98 3ebb
00000140: f3f1 933b 32e4 153b 3d26 283b 028b 9eba
00000150: 624b 62bb 7669 80ba ea12 b437 5ce7 093b
00000160: 7a6d 133b 9a8d 7e3b a68a b0ba 7541 c3b9
00000170: 3dc6 373a d106 a2bb 5b76 68ba 08e8 8eba
00000180: 5580 163a 316f 9dba 2344 27b9 c4f6 a4ba
00000190: aa01 2b3a 0faa f13a c953 173b 60dc 90ba
000001a0: 716b 553b d1a5 a7b9 5a87 e73b 60a6 bdba
000001b0: 0210 5eba e350 a93a cb93 68bb b622 38ba
000001c0: d9c3 40b9 f4df a83a 201e 45ba c9a3 4bbb
000001d0: 595c 12b9 7959 9b3a 18b3 553b 2b7b 1b3b
000001e0: ae65 33bb 6b8d 6c3a 9835 3eba 5851 a33b
000001f0: c183 7abb 0a3a d9ba e47e 9439 eaa0 a2ba
00000200: a7d4 72ba 3843 66bb 9d7f ac3a c094 37bb
00000210: 373b b3ba e1a1 2cbb 6ecb 773a b9b4 373b
00000220: 9dad 0abb e02f f63a 6842 2a3a d7c1 313a
00000230: ae96 8dba 50e6 b83a 1245 6139 579e 14ba
00000240: a700 b4ba 82a2 193a 878b 7b3a bd24 af39
00000250: dcc6 553a 83bd 1ab9 0723 293a 66c6 75ba
00000260: 2d4c 85ba bc0c 773a befa cfba 66e8 233b
00000270: a285 2d39 9451 853b 6532 64bb c622 76ba
00000280: 3eaa e339 c08c 11bb 3ae7 35ba f0a1 07bb
00000290: 0714 cc38 7936 f1b9 5b5b b1ba 8b70 8aba
000002a0: 74e8 593a 74c9 2d3b 7aef 8a3b 3664 18bb
000002b0: 34ef 863a 2735 f4ba 7cb7 483b bbdd bdba
000002c0: d0f4 37ba 69d6 8938 0c53 033b 68f5 40b8
000002d0: 2863 7aba 9998 403a f04e aaba e3fb 553a
000002e0: 7f45 3b39 c8c1 2db9 cb3e 613a ec0a dcba
000002f0: 51cc 8dba ded5 ac39 d1f4 10ba 771c dc3a
00000300: fdeb bf3a aabd 47ba 4942 193b a9b8 98bb
00000310: cd11 41bb ff0d 6037 4bd9 19bb 0f10 dbb8
00000320: 3da8 fdba 28eb 9938 1a41 d7b9 698f f43a
00000330: 8d0a 43b9 badb 0a3a de6e 9cba 10b6 41b9
00000340: 25f9 11bb 4ace ff38 1439 1b39 c1c6 a2ba
00000350: dd14 113b a78e 7a3a 8c70 8139 efdb e3b8
00000360: f426 843a ab4d 7eb9 e275 9eb9 0fb0 2a39
00000370: 684b 46b9 6017 163c effc 11bc 3349 183c
00000380: 27f6 50bb d376 923c ddc1 11bc 7567 93bb
00000390: ff42 813b f29d 1fbc 300c 40bb 739e 14bc
000003a0: 0ddd e13a e374 0cbc 469f b7bb 9fde 15bb
000003b0: f091 e23a b363 1b3c 19d7 7dba af53 1bb8
000003c0: 307c 47ba 2d45 3039 87e4 45ba 1d08 ad3a
000003d0: 0fd4 f839 9ea0 953a 6932 38ba 2ea5 19b9
000003e0: 89c3 d13a 0d80 fa37 b30a 2a38 7e50 6538
000003f0: c641 063b b154 2438 d3b3 97ba 8b43 06ba
0.0029132245 -0.0027971873 -0.00032244044 -0.0020810291 0.000478937 -0.001248934 -6.27375e-05 0.001493672
0.0023226275 -0.0014452925 0.0001754423 -0.0019131028 0.00076533126 -0.0008169017 0.00019916074 0.0007362781
0.00075769454 -0.0016591044 0.0017987607 -0.0004347501 0.00020852777 -0.0040651527 0.0010694362 0.0003374858
-0.00014384177 0.001013967 -0.0011668901 0.000114624745 -0.0019649018 9.547895e-05 0.0006890217 0.0003351427
-0.0011131187 -7.366516e-05 0.0028439208 -0.0004097312 0.0019889332 0.00035542846 0.0045547923 -0.0040030987
-0.00040924706 -0.0010292248 0.0005659717 0.0019697393 -0.0013180088 0.0011923873 -0.00049237075 -0.00091863197
-0.0020020164 0.0008574317 0.0015917519 -0.010057655 0.009439096 -0.0011968747 0.004164146 -0.009902408
0.004786714 0.0025169267 -0.0018016691 -0.0019712856 0.0015760808 0.0032912276 -0.0015632545 0.0030231688
3.3545584e-05 0.0002984276 -0.0012583862 -0.004242787 -0.00026405693 0.0015763984 -0.0031425965 -0.00052655867
-0.007879371 0.003058968 0.001963192 -0.0007464061 0.007230082 0.00095688424 0.004678361 -0.00290827
0.0045149266 0.002287161 0.0025657557 -0.0012095871 -0.0034529795 -0.0009797055 2.146648e-05 0.0021042442
0.0022495673 0.0038841725 -0.0013469055 -0.00037242068 0.0007010436 -0.0049446602 -0.0008867734 -0.0010902891
0.0005741169 -0.0012011287 -0.00015951744 -0.0012585749 0.000652338 0.0018437522 0.0023090711 -0.0011052005
0.003256526 -0.00031976265 0.0070656957 -0.0014469139 -0.0008471013 0.0012917783 -0.0035488482 -0.00070242153
-0.00018383506 0.0012884126 -0.00075194426 -0.0031072965 -0.00013958047 0.0011852226 0.003260797 0.0023724537
-0.0027373838 0.00090237585 -0.0007255911 0.004984062 -0.0038225504 -0.0016573083 0.000283233 -0.0012407575
-0.0009263255 -0.003513528 0.001316059 -0.0028012246 -0.0013674264 -0.0026341605 0.00094526156 0.0028031303
-0.002116061 0.0018782578 0.00064948807 0.00067808985 -0.0010802352 0.0014106724 0.00021483403 -0.00056693464
-0.0013733105 0.00058607024 0.00095956813 0.00033405973 0.00081549375 -0.00014757183 0.0006452058 -0.0009375572
-0.0010169797 0.00094242 -0.0015867574 0.0025010346 0.00016548348 0.0040685628 -0.0034820077 -0.0009389337
0.00043423654 -0.0022209138 -0.00069390575 -0.0020695888 9.7312084e-05 -0.00046007687 -0.0013531254 -0.0010562105
0.0008312531 0.002651778 0.0042399736 -0.002325309 0.0010294677 -0.0018631563 0.0030626943 -0.0014485636
-0.0007017376 6.572606e-05 0.0020038513 -4.600492e-05 -0.00095515186 0.00073469576 -0.0012993496 0.0008162839
0.00017859599 -0.00016570755 0.0008592426 -0.0016787923 -0.0010818337 0.0003296574 -0.00055296445 0.0016793151
0.0014642474 -0.00076195097 0.0023385456 -0.004660685 -0.0029460073 1.3354699e-05 -0.0023475464 -0.00010445725
-0.0019352507 7.33941e-05 -0.000410565 0.0018658462 -0.0001860058 0.0005297024 -0.0011934896 -0.00018473738
-0.0022273746 0.00012197772 0.00014803215 -0.0012418852 0.002213768 0.0009558 0.0002468865 -0.00010865169
0.001008241 -0.00024252261 -0.00030223938 0.0001627805 -0.00018910842 0.0091608465 -0.008910402 0.009294796
-0.0031885 0.017878925 -0.008896318 -0.004498417 0.003944754 -0.009742247 -0.002930414 -0.00907098
0.0017232016 -0.00857279 -0.0056037037 -0.0022868288 0.0017285924 0.009484219 -0.0009683236 -3.7032816e-05
-0.0007609753 0.00016810438 -0.0007549007 0.001320127 0.00047460242 0.0011415666 -0.00070265547 -0.00014652751
0.0016003709 2.986195e-05 4.0541123e-05 5.467282e-05 0.0020485981 3.9179522e-05 -0.0011573978 -0.0005121759
