src/models/car_ppo_pgd_ant.model (torch, 296078 bytes, 36 tensors)

affine_layers.0.weight f4 [64, 111]
000000 18 3e 8f 3e 41 7e 82 3e 47 61 93 bd 36 9d 2a 3e
       0.2797706 0.2548695 -0.071962886 0.16661534
000010 1f dd c4 3e 40 98 77 3d 32 fc f0 3c 5c e1 af bd
       0.38449952 0.06044793 0.029417131 -0.08587906
000020 bf 7b 26 3d f1 99 db 3d 09 18 52 3d 85 6a 9d 3d
       0.040645357 0.10722721 0.051292453 0.076863326
000030 1f 45 da 3d 36 cd 95 bc cc 40 86 bd 5d ee 80 bd
       0.10657715 -0.018286329 -0.06555328 -0.06295464
000040 b6 7e 31 bd b5 76 69 bd 64 6d 26 3d 70 6c 10 3e
       -0.04333373 -0.056997973 0.040631667 0.14103866
000050 44 11 37 bd 07 b7 99 bd 09 20 34 3d 2b 46 03 3e
       -0.0446942 -0.07505613 0.043975864 0.12819736
000060 41 57 57 3b 5f 2f 8f 3c 7b 37 ba bd fd d1 b4 3d
       0.0032858404 0.017478643 -0.09092613 0.088291146
000070 ec 0a a7 3e b3 ad f8 3d 68 a3 05 3e 99 4e a5 bd
       0.3262552 0.121425055 0.13050616 -0.08071632
000080 71 27 0c 3e d2 c0 a6 3d 1b e0 f4 bb 5b 75 08 3d
       0.1368692 0.08142246 -0.0074730045 0.033315044
000090 22 af f3 3c be ef 78 be 6f ca 48 be 7e 64 32 be
       0.029746596 -0.24310204 -0.19608472 -0.17421147
0000a0 e8 4a ff 3d f3 67 56 bd ea 23 4a be 50 1a b2 bd
       0.12465459 -0.052345227 -0.19740263 -0.08696425
0000b0 96 cc 1a bc 6c 8f ca bc 40 71 ca 3d 25 fb 88 bd
       -0.009448191 -0.024726592 0.09884882 -0.06688527
0000c0 b9 e9 0a bd 5e ef 88 3d d6 1d 40 be 2b f0 1f 3c
       -0.0339143 0.06686281 -0.18761382 0.00976185
0000d0 88 f4 9a bd 67 e4 dd bd ea a3 88 bd 79 bc 07 3d
       -0.07566172 -0.1083458 -0.06671889 0.033138726
0000e0 03 32 04 3e 89 92 03 be 14 da a4 bd cb 11 9b 3b
       0.12909703 -0.12848867 -0.080494076 0.0047323457
0000f0 df 8a 52 be ff 7e ad be f8 58 aa 3d f4 f9 8e 3d
       -0.20560788 -0.33885953 0.08317751 0.069812685
000100 cc 1a 39 be f8 71 88 be ed 31 9c bc d9 3a c7 bd
       -0.18076628 -0.2664945 -0.019066775 -0.09728021
000110 bb ea af 3d 56 9d d8 3c f0 32 e8 3c 88 40 43 3d
       0.08589693 0.026442211 0.028344601 0.047668964
000120 e4 ab 7c 3d 68 01 6d bd 2e 4a 2b bd 00 0d 0d bd
       0.061687365 -0.05786267 -0.04181879 -0.034436226
000130 7d b8 b4 3d 14 89 10 3e ee f0 60 be 90 85 14 be
       0.08824251 0.14114791 -0.21966907 -0.14504075
000140 15 92 cb bd e9 5c 24 3e bb 88 00 bc 56 4f 8f 3d
       -0.09939972 0.16051067 -0.007845099 0.06997554
000150 50 75 bb 3d 5a dd bd 3d 03 7e 06 be 7f a9 9b 3d
       0.09153235 0.09270735 -0.13134007 0.07600688
000160 ba c2 40 3e ae 58 a8 bd ec f1 c1 3d 47 12 a5 bb
       0.18824282 -0.08220039 0.09469971 -0.005037579
000170 c3 1f 59 3e 0b de 14 3d 27 62 7f bc ad 0c 10 be
       0.21203522 0.03634457 -0.015587366 -0.14067335
000180 71 d4 93 3d 19 83 0e be 1d 6a 1d 3e a8 1b 62 3e
       0.07218254 -0.13917197 0.1537251 0.22080863
000190 70 ce 46 3d b6 12 8f bd 06 38 1a 3d 30 3f 05 3e
       0.048536718 -0.06985991 0.037651084 0.13012385
0001a0 50 6e a8 be 53 4a d8 bd 6c 76 42 bb e5 64 09 3e
       -0.32896662 -0.10561051 -0.0029672636 0.13417394
0001b0 dc 6d cd 3c ad a5 0d 3e e2 84 89 bd 79 5b b9 bd
       0.0250768 0.13832732 -0.067147985 -0.0905065
0001c0 5d ec 76 3e 10 a6 03 3e 97 7d 7c 3e db a3 d3 bd
       0.24113603 0.12856317 0.24657284 -0.10333987
0001d0 a8 da f1 bc d6 14 98 bc 21 6a 12 3d d6 5e be 3d
       -0.029523209 -0.018564623 0.035745744 0.09295432
0001e0 c0 20 25 3c b8 6f f7 3d a1 ca aa bc 14 fa 04 be
       0.010078609 0.120818555 -0.020848574 -0.12986022
0001f0 4e 9b dc bc 67 76 ab bd 1e c5 b6 bd 23 55 51 3d
       -0.026929524 -0.08372193 -0.08924316 0.051106583
000200 02 57 77 3d a9 be 22 be 46 33 b9 bd 8a 4a 20 3e
       0.06038571 -0.15893044 -0.09042983 0.15653434
000210 a0 9c e3 bc f0 ad ec 3c 7c 43 83 bd 76 e1 5f 3d
       -0.027784646 0.028891534 -0.06409356 0.054658376
000220 c9 cd 00 be 2c 4a 1d bd ef e5 6c be 2e 68 3d 3e
       -0.12578501 -0.038400814 -0.23134588 0.18496773
000230 dc e3 1c bd 3f 73 80 bd 6c 6e 51 3e f5 c2 96 3c
       -0.03830324 -0.062719814 0.20452279 0.01840351
000240 10 d1 9a 39 32 40 f4 ba dc d8 78 bd f2 87 1e 3e
       0.00029528933 -0.0018634854 -0.06075369 0.15481547
000250 4c de 49 3e 12 8e 91 be 85 86 ea 3c 32 29 78 3d
       0.19713706 -0.28428704 0.028628597 0.060586162
000260 4a d9 86 bd 97 01 c3 ba df a4 d6 bd 37 b7 79 3d
       -0.06584413 -0.0014877793 -0.104806654 0.060965743
000270 ca 54 0f 3d f0 1d ef 3b 16 3f 13 3e 63 35 a8 be
       0.03499297 0.00729727 0.14379534 -0.3285323
000280 23 df 01 bd 72 63 6e be 0f 8d 1e bd 5a c0 14 3e
       -0.03170694 -0.23280123 -0.038708743 0.14526501
000290 c7 0d 34 3e fc 17 c5 3d 07 26 5f bc a7 a9 3a 3e
       0.1758338 0.09623715 -0.013619906 0.1822878
0002a0 ad 79 0e bd 49 f7 6e 3c 39 06 24 bd 86 eb 83 bd
       -0.034784008 0.014585325 -0.040044997 -0.06441407
0002b0 84 5e 17 bd da 28 26 3d 39 33 cc bd ca 6a 21 3d
       -0.03695537 0.040566303 -0.099707074 0.039408483
0002c0 26 aa 1a bd a0 5d 51 bd d6 69 54 3e 5f 31 36 be
       -0.037759922 -0.05111468 0.20743498 -0.17792271
0002d0 42 55 ae bd b6 f6 5b bd 27 bc bd bd 8e 5c f9 bd
       -0.085123554 -0.05370208 -0.09264403 -0.121758565
0002e0 c2 77 5d 3c ce 88 2c be 9b b9 5d 3e cf b4 24 3e
       0.013517322 -0.16849062 0.21652834 0.16084598
0002f0 29 7b ba bd 6c a6 00 3c c8 56 32 bd 49 cf 03 be
       -0.09105522 0.007852178 -0.043539792 -0.12872042
000300 0a 20 4f 3e 50 0b 50 bc 12 e7 97 3d 57 df 33 3e
       0.20227066 -0.01269801 0.0741712 0.17565666
000310 82 a9 9a be fd 4d 0c be 74 d4 32 be 2b ef 01 3b
       -0.3020745 -0.13701625 -0.17463857 0.0019826393
000320 4b cc 6c 3c e5 3d 45 bd dc 94 7d 3d 43 c1 cc 3c
       0.014453004 -0.04815473 0.06190954 0.024994498
000330 4a f4 33 be 42 ed 35 be c1 57 f3 3d 42 2f 7c 3e
       -0.17573658 -0.17766288 0.11881972 0.24627402
000340 cb a1 ef bd fa 52 c3 3c d7 38 17 3d 20 f4 9d be
       -0.117007814 0.023843277 0.03691944 -0.30850315
000350 1c f3 83 bb 69 98 cc bb f0 18 25 bd a7 e1 ee bd
       -0.0040267836 -0.0062437546 -0.040306985 -0.116641335
000360 50 89 9f bd 01 4e 24 be e8 d6 37 be 0f 87 a6 3e
       -0.07789862 -0.16045381 -0.17953074 0.32524917
000370 f3 0d 2b 3d 8a dd af bd 90 76 0f 3d 91 19 7d be
       0.04176135 -0.08587177 0.03502518 -0.24716784
000380 6e 7b ca 3d 8d 63 40 bd 77 3b be be 02 65 b6 3b
       0.098868236 -0.04696994 -0.37154743 0.0055662403
000390 ed f1 4e bc a8 b3 13 bd 50 86 31 3e c9 f5 d9 bd
       -0.012630922 -0.036060005 0.17336392 -0.10642583
0003a0 7c 9f 79 3c c1 2a 7d bd 0a 2b 03 bc 3e 84 d3 bc
       0.015235778 -0.06180835 -0.008005867 -0.025819894
0003b0 bc 6c 29 be 4f d2 11 3d 19 6f 6b 3d 76 1a 3a bd
       -0.16545385 0.035600957 0.057478998 -0.04543539
0003c0 d1 b1 7e bd e0 9c d0 bd 6d f4 82 bd 26 cc 85 bd
       -0.062181298 -0.101861715 -0.06394277 -0.06533079
0003d0 ce f6 8d 3d 26 fc 02 3e 55 df 57 3d 07 e3 69 bc
       0.0693184 0.127915 0.05270322 -0.014275319
0003e0 9e 6c 35 bd 59 db 52 3d c8 95 cf bd ca 8f 41 3d
       -0.04429304 0.051478717 -0.101359904 0.04725627
0003f0 68 40 41 3d 25 fc e2 bd f1 a1 88 bc d0 de 78 bc
       0.047180563 -0.11083249 -0.016678782 -0.015189841

affine_layers.0.bias f4 [64]
000000 2d a9 9d bc 0e f8 14 bb f8 78 c0 3d 2e 8c fc 3d
       -0.019245708 -0.002273086 0.09398073 0.12331425
000010 6a 90 77 bd ea a7 a0 3e 71 38 c2 be 22 ab d4 bc
       -0.06044046 0.31378108 -0.37933686 -0.025960509
000020 b7 b4 f4 bd 94 76 c1 3e 63 d0 cc be 96 e7 3f be
       -0.11948531 0.3778578 -0.40002736 -0.18740687
000030 d3 cb 3f 3e 1e ef 90 3e b9 2b 1e bd fb 42 6e 3d
       0.18730097 0.28307432 -0.038615916 0.058169346
000040 95 d3 a9 3e 96 1f 84 3e 59 ba a9 3c 79 3d 4c be
       0.33169237 0.25805348 0.02071874 -0.19945325
000050 ed 2e c7 be e4 62 81 be 29 42 a7 be 63 6e 17 3e
       -0.3890299 -0.2527076 -0.32667664 0.14788203
000060 eb da 16 bd f6 55 c9 be 54 ab 4b bd 20 b4 ea 3d
       -0.03682987 -0.39323395 -0.049723938 0.11460137
000070 d4 0e 31 3e 7c 9a 07 be 24 aa 9c 3e 0d 1a 45 bd
       0.17290813 -0.13242525 0.30598557 -0.048120547
000080 64 6d 03 3e aa 72 72 bd e9 58 b4 3e b2 e3 b5 be
       0.12834698 -0.059191383 0.35224083 -0.3552528
000090 72 28 54 be 12 c0 33 be 97 83 db bd 58 1a 1e be
       -0.20718554 -0.17553738 -0.10718458 -0.15439737
0000a0 82 a0 72 3e 6c 0a c3 be a5 67 be bd c3 c9 5e be
       0.23694041 -0.3809389 -0.092971124 -0.21756653
0000b0 48 52 20 be ad 6f b8 bb ed b3 29 be 25 d2 84 3e
       -0.15656388 -0.005628547 -0.16572542 0.25941578
0000c0 9c 8b 21 bd 80 58 4f 3e 31 b5 9e be bd ea 81 3e
       -0.039439783 0.20248604 -0.30997613 0.25374404
0000d0 9d 32 95 3e 45 4c 9f be 0b 17 95 3d d5 d5 83 bd
       0.29140177 -0.31112877 0.07279786 -0.064372696
0000e0 37 49 37 be e9 67 a4 3b 5b 70 03 3e cc 16 ea bd
       -0.17899023 0.00501727 0.12835829 -0.114301294
0000f0 72 d5 20 bc 88 e4 af ba b5 be b6 3e 8e 65 a3 3b
       -0.009816514 -0.0013419548 0.35692373 0.0049864715

affine_layers.1.weight f4 [64, 64]
000000 a5 66 54 ba 77 a7 bb bd c6 5c 5f be 24 29 64 bd
       -0.00081024534 -0.09162801 -0.21812734 -0.055703297
000010 df 0b 48 3e 59 47 9f 3d af 8c d4 be 03 69 50 bd
       0.19535778 0.0777728 -0.41513583 -0.050881397
000020 7c 4b 0b bc 6f 8e 96 bd 99 9c a6 be a4 b8 58 bd
       -0.008501884 -0.07351386 -0.3254135 -0.052910462
000030 01 ed a9 be 85 36 3b 3e 18 5e a4 3e e3 4e 69 be
       -0.33188632 0.18282516 0.32103038 -0.22783999
000040 64 b9 12 be ed 0e 20 3f d8 eb 99 3e 64 b1 20 be
       -0.14328533 0.62522775 0.30062747 -0.15692669
000050 8d 00 04 be 2c 30 ba bd 36 93 cb bd d8 dc 73 3e
       -0.12890835 -0.09091219 -0.09940188 0.23814714
000060 6a 91 54 3d e6 b5 02 bf 80 28 ae 3d 2d 3d 7d 3e
       0.05189649 -0.51058805 0.085038185 0.24730368
000070 48 7f 33 bd b9 09 7f 3e 1c 09 ee 39 69 ba 63 bd
       -0.043822557 0.24906053 0.00045401684 -0.055597696
000080 22 c0 18 3d d0 d4 5a bd 7e e3 1b 3e f8 a6 89 be
       0.037292607 -0.05342561 0.152235 -0.268852
000090 a0 b1 06 bd 8e a5 17 be d6 d2 2b be e5 92 43 be
       -0.03288424 -0.14809248 -0.16779646 -0.19099005
0000a0 da 1f a9 bd da e0 a8 3d 62 8f 08 be 61 09 3b bd
       -0.08258028 0.08246012 -0.13335946 -0.04566324
0000b0 56 e9 da 3d 7b 0e 57 3e c8 59 3c be ac 3c e8 bd
       0.106890365 0.21001618 -0.18393624 -0.11339697
0000c0 84 fa 4f 3e 22 21 b8 bd 09 33 77 be 7a d5 c5 3e
       0.20310408 -0.089906946 -0.24140562 0.38639432
0000d0 f6 e5 4d 3e d8 ba 87 3d ed 22 7a 3e 02 0a 9d bd
       0.20107254 0.066274345 0.24427386 -0.076679245
0000e0 d2 f8 87 3e 93 45 4f be 09 e8 aa 3e 0f 33 03 be
       0.26557022 -0.20241384 0.33380154 -0.12812446
0000f0 b3 51 8e be d9 c6 93 3d 65 68 22 3e 9b 01 f5 bd
       -0.27796707 0.072156616 0.15860136 -0.11963197
000100 43 ab 8f bd fc ec 9d 3d da f5 0e be a2 13 b1 bd
       -0.070150875 0.07711217 -0.13960972 -0.08646323
000110 0e 25 1d be f1 a6 4d be ae a0 84 bc de f4 31 3e
       -0.15346166 -0.20083214 -0.0161899 0.17378566
000120 ac 9a 6c 3e a0 96 4a be c1 12 5c be 37 df f0 bd
       0.23105878 -0.19784021 -0.21491529 -0.11761325
000130 33 9b d3 bc d6 4e ff 3d 67 cb 81 3e c6 82 60 be
       -0.02583084 0.12466209 0.25350496 -0.21924886
000140 00 4d 0a 3e fd d2 d5 3d 84 37 6b be fd 35 94 be
       0.13505936 0.104406334 -0.22970396 -0.2894744
000150 5d 9b ef 3d 89 6d e1 bb 88 a3 fa 3d 43 f9 10 3d
       0.11699555 -0.0068795127 0.12238222 0.035393964
000160 35 9e ec be e9 e7 0a be ab 63 f8 3c bc e5 4f be
       -0.46214452 -0.13565029 0.030320963 -0.2030248
000170 57 e7 4e bd 82 ba 0c be a5 13 f8 3b 4e bf a2 3d
       -0.05051359 -0.13743022 0.007570701 0.07946645
000180 cd 22 73 3d 70 34 c8 3c f0 30 c0 bd 54 f3 10 be
       0.05935936 0.024439067 -0.09384334 -0.14155322
000190 c0 50 cc 3c e6 94 00 3e c9 2a 07 3e 45 0e da 3d
       0.024940848 0.125568 0.13199915 0.10647253
0001a0 ab 36 d5 3d c1 f1 b3 be 35 b5 30 bd a1 f2 61 3e
       0.10410818 -0.3514538 -0.043141562 0.22065212
0001b0 e7 05 cf be 08 c2 4e bd 63 6e 08 bd f3 05 92 bd
       -0.4043419 -0.05047801 -0.033308398 -0.07130041
0001c0 28 8e 85 be 13 3a a2 3d c2 4c f0 bc 88 98 10 3e
       -0.2608502 0.07921233 -0.029333476 0.14120686
0001d0 9e 15 f9 bc 54 a4 1b 3e fb bd 5c 3d bb 26 1a be
       -0.030405816 0.15199405 0.053892117 -0.15053837
0001e0 20 ff 11 3d ea e0 96 3e 34 f2 20 3e 22 54 84 bd
       0.035643697 0.2946847 0.15717393 -0.064613596
0001f0 e0 88 2d bd 86 5f 9e bd 65 e7 00 3e dc 51 92 be
       -0.042366862 -0.077330634 0.1258827 -0.2857808
000200 ee d7 0d 3d ea 9a 87 bd e2 25 40 be bb 26 24 be
       0.034629755 -0.066213444 -0.18764451 -0.160304
000210 10 9d a5 3b 59 a6 56 3e 75 82 1b 3e f5 76 7d be
       0.0050541237 0.20961894 0.15186484 -0.2475241
000220 f7 64 ab bd e5 b3 b2 bd 08 a9 b4 3d 65 49 d2 bd
       -0.08368867 -0.087257184 0.08821303 -0.10267905
000230 27 c4 24 3d 3d 8d 89 be a1 93 04 be 9f 64 10 be
       0.040226128 -0.2686557 -0.12946941 -0.14100884
000240 3a 1b 09 be 17 a9 db bd 5f 5c ea 3d 53 59 8b 3e
       -0.13389292 -0.10725611 0.114434 0.27216586
000250 2d f3 08 3f d2 39 a5 39 2f cd 05 3e 95 18 ad 3d
       0.53496057 0.00031514332 0.13066553 0.08451954
000260 e3 e1 1b 3e d1 c7 62 be 28 03 45 be c7 44 18 be
       0.15222888 -0.22146536 -0.19239485 -0.14869986
000270 8d 12 89 3e 91 04 6d 3d 6f 63 22 be 88 5b 82 3e
       0.26771966 0.057865683 -0.15858243 0.25460458
000280 ff d0 c0 bd 22 ba ac bc c3 73 64 3d e0 47 d5 3d
       -0.09414863 -0.021084849 0.05577446 0.104141
000290 67 97 7b be f1 b7 29 be e3 00 b3 3e 12 4a ff bd
       -0.24569474 -0.16574074 0.34961614 -0.124653
0002a0 0a 1d dd 3d df f2 81 3e af e1 2a 3e 64 23 a7 3e
       0.107965544 0.25380608 0.16687654 0.32644188
0002b0 57 9d 34 be 3f 90 69 3d 9c 01 b8 bd 64 5e ca bd
       -0.17638145 0.05702233 -0.08984682 -0.09881285
0002c0 72 f3 b6 3d 0c a1 80 3e e8 04 9a 3d 49 c7 d2 3d
       0.08933152 0.2512287 0.07520467 0.10291917
0002d0 ec 47 c6 be e2 3f 82 3e e2 8e 83 be cc 26 46 3d
       -0.38726747 0.25439364 -0.25694948 0.048376843
0002e0 b6 08 20 bd e3 c5 35 bd e8 31 8b bd c1 28 be bd
       -0.039070807 -0.044378173 -0.06796628 -0.09285117
0002f0 8b 14 97 be 6f a7 e3 bd 76 f1 35 be 49 9d 0f bd
       -0.2950786 -0.1111592 -0.17767891 -0.03506211
000300 9a a2 68 3e 6f 18 4f be 77 33 05 be 1d b5 aa 3e
       0.22718278 -0.20224164 -0.13007914 0.33341303
000310 b2 05 22 3e 59 54 db 3d 30 57 5e 3e 59 58 10 bc
       0.15822485 0.107094474 0.21712947 -0.008810126
000320 4e 48 8a 3c ed 27 2c 3e 3c 38 cf 3d c1 e6 b6 3d
       0.01688018 0.16812105 0.10118148 0.089307316
000330 7d d5 1b bc eb d7 d5 be b4 57 da bd 9d a7 40 bd
       -0.009511349 -0.41766295 -0.10661259 -0.04703485
000340 ac 24 87 bd 5b c2 4a be 16 df bb bd f5 8a a6 bd
       -0.065987915 -0.19800703 -0.0917341 -0.08131973
000350 cc d7 3b bd a3 1a 7a 3e 0c 5d 42 3e 71 f6 b0 3d
       -0.045860097 0.24424224 0.18980807 0.08640755
000360 42 c2 08 be df d8 ba 3d a9 35 72 3d ea b1 69 3e
       -0.13355353 0.09123396 0.059133206 0.22821775
000370 3b 5f f3 3d 68 3e 20 be 47 e8 a5 3e f4 57 13 3e
       0.11883398 -0.15648806 0.32403776 0.1438902
000380 bd 1c 9f 3e bb 83 be bd e3 24 76 3e 10 fd d5 3d
       0.31076613 -0.09302469 0.24037509 0.104486585
000390 4f e4 ba bd 7f 5c b4 bd b7 97 ce bd 99 07 00 3d
       -0.09125578 -0.08806705 -0.10087531 0.031257246
0003a0 37 73 42 3c 39 16 a2 3e 5b d6 82 3e d0 4b 3b 3e
       0.01186829 0.3165758 0.25554165 0.18290639
0003b0 c4 c4 e8 3d 5e 69 96 3e f2 fb 60 3e c9 c0 59 be
       0.11365655 0.29377264 0.2197111 -0.21264948
0003c0 e4 ca 0e 3e 5e 58 a2 bd d3 c8 d1 3e 00 3e 47 3e
       0.13944584 -0.07927011 0.4097353 0.19457245
0003d0 d2 8b b5 3b cf eb 20 bd c0 d5 48 3e c1 92 6d 3a
       0.0055403495 -0.039287385 0.19612789 0.00090627006
0003e0 0f 0a 36 3e ce 23 9d 3c f6 c2 3c 3e e7 ec e9 3c
       0.17777275 0.019182112 0.18433747 0.028555347
0003f0 d4 16 30 bc 24 75 10 be c9 20 2e 3e d1 6c 1c be
       -0.01074763 -0.14107186 0.17004694 -0.15275885

affine_layers.1.bias f4 [64]
000000 06 a2 67 3e bf dd 32 be b3 77 82 be 9a e2 3c be
       0.22620401 -0.17467402 -0.25481948 -0.18445817
000010 76 63 27 3e 1b 85 6a be a8 49 3d 3e 3d a5 26 3e
       0.16346535 -0.22902338 0.18485129 0.16273971
000020 70 1e 33 be 88 f3 33 3e 1f c9 5a 3e e6 88 fd 3d
       -0.1749208 0.17573369 0.21365784 0.12379627
000030 cb 1b cd be a4 1a 88 3e e0 e4 26 3e 62 41 71 be
       -0.40060267 0.26582825 0.16298246 -0.23560098
000040 a9 2a e1 bd 68 09 34 be a1 e9 08 3e 0e c8 9a be
       -0.10994465 -0.17581713 0.13370372 -0.30230755
000050 f4 2e 8d 3e f0 32 cf bd 4a 5b fc bd 93 a7 55 3e
       0.27574885 -0.101171374 -0.123220995 0.20864706
000060 76 7a 20 3e b9 81 1a be 30 e1 13 3e f7 bf 42 3e
       0.15671715 -0.15088548 0.14441371 0.19018541
000070 62 2e 60 3e 2d ca 35 3e 0f e0 5b 3e 15 9b 42 3e
       0.21892694 0.17752905 0.2147219 0.19004472
000080 19 60 ef 3d cc f3 6d 3e 52 cd 33 be 5a dd 94 be
       0.11688251 0.23237532 -0.17558792 -0.29075128
000090 e6 61 92 be 77 00 2f 3e 0b 40 52 3e 02 41 66 be
       -0.28590316 0.17090021 0.20532243 -0.22485736
0000a0 44 65 52 3e fa 29 3a 3e dc 21 f5 3d 6c 0a 17 be
       0.20546442 0.18180075 0.11969349 -0.1475007
0000b0 db 0a 2e be e3 a6 6b 3e ae 20 56 be c6 3f e9 bd
       -0.16996329 0.23012881 -0.20910904 -0.11389117
0000c0 7a 96 3a be c8 e8 2f be 9e 85 2d be 55 bd 29 be
       -0.18221465 -0.17178643 -0.16945502 -0.1657613
0000d0 d1 92 05 be 22 4f 86 bd 9e 7c 4e 3e 72 04 3a 3e
       -0.13044287 -0.06558062 0.20164725 0.18165758
0000e0 45 93 46 3e 4d 4b 2f be 6e 99 68 be dd b0 05 3e
       0.19392116 -0.17118569 -0.22714779 0.13055749
0000f0 1e 47 63 be 26 dc 5b 3e cb 60 69 3e 9b ec 3a 3e
       -0.22195098 0.21470699 0.2279083 0.1825432

final.weight f4 [1, 64]
000000 fd 82 a7 3e 6c 25 42 be 42 91 3c be 8d 6d 85 bd
       0.32717124 -0.18959588 -0.18414786 -0.06515036
000010 a5 6e 4d 3d 02 9e 9a bd 60 30 60 3e 51 5d 63 3d
       0.050154347 -0.07549669 0.21893454 0.055508915
000020 a6 43 91 bd cf eb a4 3d 14 d7 aa 3d 49 70 8c 3d
       -0.07092981 0.080527894 0.08341804 0.06857354
000030 56 2e 09 be c9 4d ca 3d 5b c0 a6 3d 5e 12 c5 bd
       -0.13396582 0.098781176 0.08142158 -0.09622644
000040 45 2c 60 be 75 4d a0 bd ef 64 07 3c b7 af 61 be
       -0.21891887 -0.07827274 0.008263811 -0.22039686
000050 64 27 09 3e a4 78 ff bd 11 70 52 bc 61 92 6c 3d
       0.13393933 -0.12474182 -0.0128441015 0.057756785
000060 8e da 47 3d 82 12 99 bc 3e f4 7d 3d 5e 65 3c 3d
       0.048792414 -0.018685583 0.062000506 0.04599511
000070 e3 4c 04 3e 1c 28 7f 3d b3 bd 9e 3d bf 4f f1 3d
       0.12919955 0.06229411 0.07751026 0.117827885
000080 f8 f4 a0 3c 36 32 f5 3d 2e 53 8a bd bb e0 5d be
       0.01964806 0.119724676 -0.067541465 -0.21667759
000090 da 3f e6 bd d6 c6 6a 3d ac bd ca 3d 18 01 c9 bd
       -0.112426475 0.05731853 0.09899458 -0.09814662
0000a0 75 54 a6 3d 1f 2f 7f 3d 25 42 19 3e 00 e1 f9 bd
       0.08121578 0.062300798 0.14966638 -0.122011185
0000b0 63 00 83 bd 8c 83 d5 3d b6 69 f7 bc 32 83 e3 bd
       -0.06396558 0.10425481 -0.030201774 -0.11109008
0000c0 22 63 a3 bd 84 57 db bd eb 2b 17 bd 36 a3 13 be
       -0.079778925 -0.10710052 -0.036907118 -0.14417729
0000d0 d5 9b 83 bd 43 03 34 be 3c 9e 9e 3d f5 62 32 3d
       -0.06426207 -0.17579369 0.077450246 0.043551404
0000e0 1a 51 ef 3c 9e 18 8b bd 5c 0a af bd d0 6a ef 3c
       0.029213477 -0.06791805 -0.08546898 0.029225737
0000f0 5e 1e 92 bd b6 02 f7 3d d9 9c a3 3d a5 63 fe 3c
       -0.07134698 0.12061064 0.07988901 0.031053374

log_stdev f4 [8]
000000 bc 21 cc bf 49 2c c5 bf 24 57 aa bf 27 bf ee bf
       -1.5947795 -1.540414 -1.3307843 -1.8652085
000010 ad dc c5 bf 97 0a e3 bf cc 8f a9 bf bd 1b e2 bf
       -1.545797 -1.7737607 -1.3247008 -1.7664715

affine_layers.0.weight f4 [64, 111]
000000 be f4 3f 3e b6 8d bc 3d a1 0c 54 bc 88 9e 4f 3e
       0.18745705 0.09206717 -0.012942464 0.20275319
000010 37 c9 90 bd e0 d5 de 3e c6 e3 2b 3d 22 57 47 3d
       -0.07069629 0.4352255 0.04196527 0.04866708
000020 ca 94 5f bb e7 9c 16 be 86 c0 29 bc b9 50 00 bd
       -0.0034115785 -0.14708291 -0.010360843 -0.031326983
000030 9c 2b b9 3e ca 9e 17 bb e6 98 e6 bd 04 4d b9 3e
       0.36166084 -0.0023135417 -0.11259632 0.3619157
000040 be f2 0b be ff 98 a0 3d 80 d9 23 3e bb 93 9f be
       -0.13666818 0.07841682 0.16000938 -0.31167397
000050 8b 75 3e be cc cf fc 3b b6 e2 9f 39 4a 8d d9 3d
       -0.18599527 0.007715201 0.00030495756 0.10622652
000060 01 76 f5 38 42 5a ba bc 74 fa 52 3d e1 e4 95 32
       0.0001170449 -0.022748116 0.051508382 1.7449965e-08
000070 f9 34 11 b2 02 61 95 b2 5a 5b 9e 32 3f b3 33 32
       -8.452155e-09 -1.7389997e-08 1.8435163e-08 1.0459927e-08
000080 46 fb d6 b1 ca df 71 b4 ce d6 86 b3 61 ad 07 b4
       -6.256786e-09 -2.2526288e-07 -6.278934e-08 -1.263593e-07
000090 ca a3 16 34 9a 73 c8 b3 25 bf ef bc 92 db 40 32
       1.4029425e-07 -9.3342535e-08 -0.02926595 1.1225795e-08
0000a0 27 9d e6 b2 95 c0 9b 31 64 d9 c0 b2 b4 da 72 b2
       -2.6846989e-08 4.5329878e-09 -2.24506e-08 -1.4135981e-08
0000b0 e2 d5 aa 32 84 40 83 37 00 ad 81 b7 0f 73 84 34
       1.9887867e-08 1.564646e-05 -1.5458558e-05 2.4670632e-07
0000c0 11 be ec 36 30 e0 79 b6 f4 6c e9 37 4f ad cc bd
       7.0554747e-06 -3.7234386e-06 2.78265e-05 -0.099939935
0000d0 4f 80 df 3d 5a 1a b6 3d cb 09 cd bc 96 e7 64 bd
       0.10913145 0.08891745 -0.025029084 -0.05588492
0000e0 0c 4e 3e bd a2 79 8b 31 65 04 8b b2 02 7b 88 32
       -0.04646115 4.0592605e-09 -1.6183728e-08 1.5888421e-08
0000f0 95 98 62 32 86 72 2a 32 2d 50 0c 32 f8 89 2c 37
       1.31896245e-08 9.921342e-09 8.167302e-09 1.0284122e-05
000100 c7 50 31 34 fa e9 2b 34 91 9a 28 b7 b1 00 0b b7
       1.6513796e-07 1.6010736e-07 -1.0049568e-05 -8.285207e-06
000110 f6 c6 0f 38 d5 cf b3 3a 64 c7 86 bd cd df 25 bd
       3.4279154e-05 0.0013718555 -0.065809995 -0.040496636
000120 f2 e9 71 bc 61 f8 27 bd 5b df 37 ba 98 36 01 b1
       -0.01476525 -0.041008357 -0.00070141786 -1.8803004e-09
000130 7a 42 d9 af 75 11 be b2 2c 0f fd b2 86 79 52 32
       -3.9519304e-10 -2.212685e-08 -2.9459976e-08 1.225124e-08
000140 f5 e9 25 32 3c 23 f2 35 9e 54 80 b7 18 7d ac 36
       9.65746e-09 1.804066e-06 -1.5298192e-05 5.1405623e-06
000150 de fa 07 37 03 b4 12 b8 71 69 7c 35 de e0 b4 3d
       8.105037e-06 -3.497676e-05 9.4030753e-07 0.088319525
000160 5c 44 c8 3c 83 e9 a3 bd bf 23 22 3d ed 48 f8 3c
       0.024446659 -0.08003523 0.03958487 0.030308211
000170 a8 a9 fa bc c0 09 ce 30 4c 4e c8 b2 bb b4 a0 b2
       -0.030598477 1.4991244e-09 -2.331867e-08 -1.8708638e-08
000180 e3 27 1d 32 29 4f 8f 31 bc a7 b6 b2 bf 86 a1 37
       9.147672e-09 4.1708472e-09 -2.1263865e-08 1.9255442e-05
000190 f4 b8 bc 37 10 63 7f b7 9d ad 01 b8 df 0f 99 38
       2.2497472e-05 -1.5222249e-05 -3.0917687e-05 7.298565e-05
0001a0 e6 13 21 b8 d4 1c 68 3c 7d 26 14 3b 82 d4 d5 3b
       -3.8403923e-05 0.014167029 0.0022605949 0.006525577
0001b0 97 05 1c bd ed 77 03 3d c9 ff 00 bd b2 e3 2d bf
       -0.03809127 0.032096792 -0.031493936 -0.6792556
0001c0 c3 9b 92 3c 4e 62 9a 3a 38 11 12 3d d8 81 61 3e
       0.017896539 0.0011778565 0.035660952 0.22022188
0001d0 97 e1 f3 ba 7b a0 67 3c b7 c8 89 3d 70 2b 63 3d
       -0.001860666 0.014137383 0.067277364 0.055461347
0001e0 67 18 07 3d 4a 81 b4 bc 0f 69 27 3c 26 3d 96 bd
       0.032982256 -0.022034306 0.010217919 -0.07335882
0001f0 1b 6a 05 be 8d 15 e8 bd 7f ab 74 bd 7b 5f d0 3d
       -0.13028757 -0.113322355 -0.059733864 0.101744615
000200 3e bc 23 bd a6 64 5c bc 30 88 81 bd 22 5b 82 be
       -0.039974444 -0.013451731 -0.06324804 -0.25460154
000210 ad 55 8e 3a 45 e7 03 ba 83 d9 52 be 48 d4 f6 b9
       0.0010859274 -0.0005031715 -0.20590787 -0.00047078938
000220 ee dc 15 bb 43 be 22 3c a2 0a ac 32 d6 a7 cd b1
       -0.002286728 0.009933057 2.002827e-08 -5.985366e-09
000230 41 f2 ca b2 2b b7 68 b1 59 ce 8d 31 4e 3e 9b b2
       -2.362606e-08 -3.3864562e-09 4.127099e-09 -1.8072708e-08
000240 bb cd 58 32 1f 18 65 34 02 19 f1 34 e0 e9 f1 b3
       1.26196325e-08 2.1336062e-07 4.4907944e-07 -1.12649786e-07
000250 49 cb 7b 33 72 21 c0 bc e5 33 a9 31 e0 a3 cb 31
       5.862538e-08 -0.023453448 4.924447e-09 5.926708e-09
000260 0c 65 41 2f 1e 21 04 32 70 49 f4 b2 17 7f 58 32
       1.7589147e-10 7.690941e-09 -2.8438734e-08 1.2601752e-08
000270 98 87 8f 37 26 2d aa b7 e5 0a e7 b4 bb 23 32 b7
       1.711007e-05 -2.0286603e-05 -4.303503e-07 -1.0617946e-05
000280 1d 9a ea 36 3b fd fd 36 8a cb 68 3d 9a c4 98 3a
       6.9916846e-06 7.5694675e-06 0.056834735 0.0011655272
000290 73 64 c3 bd 35 f6 90 bc ea ec c2 3c ee 80 1d 3e
       -0.095406435 -0.017695526 0.02379461 0.15381214
0002a0 d4 94 ef 31 e8 27 b9 b2 eb ed bf 32 a5 66 9b 32
       6.9727353e-09 -2.1554982e-08 2.2343519e-08 1.8091052e-08
0002b0 5e 41 a8 b2 aa 44 1b 32 bd fc 6e b6 8a 8a 4d b5
       -1.95875e-08 9.0378e-09 -3.5611877e-06 -7.657005e-07
0002c0 2a 34 22 b5 e3 cd 0a 37 13 d4 87 36 b7 63 91 b7
       -6.042561e-07 8.273378e-06 4.048002e-06 -1.733178e-05
0002d0 5b 38 71 bd 74 e9 21 bd d6 01 6d 3d 2d 45 a6 ba
       -0.058891635 -0.03952928 0.05786308 -0.0012685411
0002e0 34 ee d4 3b f9 72 24 bc 3a ac 40 b2 c2 0f 07 31
       0.0064981226 -0.010037177 -1.1215031e-08 1.9654043e-09
0002f0 50 db 5a b2 34 bd a6 ae d9 37 2e 32 7f 7b 86 32
       -1.2739136e-08 -7.582415e-11 1.0140831e-08 1.5655813e-08
000300 ed 76 2a b7 e0 ba 9e 36 fd 20 c7 36 c4 1e 16 b6
       -1.0160479e-05 4.730522e-06 5.9345025e-06 -2.236965e-06
000310 44 65 44 36 b7 96 84 b6 c1 f0 92 bd 42 1d a5 bc
       2.926522e-06 -3.951452e-06 -0.071748264 -0.020155553
000320 eb ba f1 bc f5 ea ae 3c f6 3f 14 be 98 85 28 bd
       -0.029508075 0.02135227 -0.14477524 -0.04114303
000330 f1 9f 66 b2 30 09 c6 b1 4a 66 bf b2 a6 67 a5 32
       -1.34241285e-08 -5.763603e-09 -2.2281842e-08 1.9255662e-08
000340 9c 62 e8 b2 13 eb 0c 32 21 7f ca b5 76 84 81 35
       -2.7053197e-08 8.202522e-09 -1.5087172e-06 9.6498e-07
000350 8a f1 cf b6 5d ea a3 37 b8 d3 07 36 e7 9b 33 38
       -6.1971996e-06 1.9540248e-05 2.0239804e-06 4.282212e-05
000360 9c d9 57 bc 19 14 8b bc 5c b7 5a 3c 95 17 2d 3d
       -0.013174441 -0.016977357 0.01334938 0.042258818
000370 3a 55 b0 bc 32 4d 48 3d 5e 04 5f bf b4 1d be 3d
       -0.021525014 0.048901744 -0.8711604 0.09283009
000380 1e ac f7 bb ed 59 1e 3d b9 09 54 3b 76 3a ad 3d
       -0.0075583598 0.03865998 0.0032354428 0.08458416
000390 09 b6 25 be 40 f8 f9 3c 0c 4d ac bd e7 8d e7 3d
       -0.16182722 0.030513883 -0.08413133 0.113063626
0003a0 36 21 84 3d dd 14 1c bd 55 a4 d8 bd c2 95 bc 3b
       0.06451647 -0.038105834 -0.10578219 0.005755157
0003b0 2e 14 0a 3c b9 db 86 bd 86 32 89 bd cb dc ba 3d
       0.008427663 -0.065848775 -0.0669909 0.09124144
0003c0 22 78 10 bd 62 1e de 3d 69 7b 87 3b 0b ae 98 ba
       -0.035270818 0.10845639 0.0041345847 -0.0011648549
0003d0 50 fd 13 b9 bb 3c c9 3d 1a 98 5d 39 dd 62 50 3c
       -0.00014113379 0.098260365 0.00021132865 0.012718883
0003e0 32 58 64 bc 6e 16 c3 b1 08 b4 68 31 3e b2 2d 31
       -0.013937043 -5.677797e-09 3.386278e-09 2.5276132e-09
0003f0 45 a1 6c 31 9d a1 24 b2 33 da 47 30 1b 81 ad b4
       3.443419e-09 -9.582803e-09 7.270586e-10 -3.2317698e-07

affine_layers.0.bias f4 [64]
000000 65 32 d2 3e 80 89 b9 be ef 2b e8 be e9 83 36 bf
       0.41054073 -0.36237717 -0.4534602 -0.7129503
000010 2a 82 ba 3f 75 4f a7 3d 35 ec 2a 3e 79 fa 17 bf
       1.4570973 0.08169452 0.16691668 -0.59366566
000020 12 4f af 3e 9b a9 94 3e ce 38 ca bf 52 b1 db bc
       0.34240013 0.2903565 -1.5798585 -0.026817951
000030 a4 68 a4 be c4 69 6c be 8f ed ef 3e 24 77 c6 3e
       -0.32111084 -0.23087221 0.4686093 0.38762772
000040 9f 1e 65 be 80 b8 04 bf 86 ec 53 3e 67 ae 84 3e
       -0.22374962 -0.51844025 0.20695695 0.25914308
000050 37 28 4b 3f 67 e5 f0 3d f5 19 37 3d d2 7d bd 3e
       0.7935824 0.11762505 0.04470249 0.37010056
000060 90 67 18 3d 0a f5 d8 3e 79 2a 85 be a2 ef 7a bd
       0.03720814 0.4237445 -0.26008967 -0.061263688
000070 6e 81 9a be 2a e2 9e 3e 5c 33 96 3e 25 ec 34 be
       -0.30176872 0.31031924 0.2933606 -0.17668207
000080 8e 0c 3f be af d9 31 3e 0e b4 8b be 61 34 61 3d
       -0.18657133 0.17368196 -0.27285808 0.054981593
000090 9a 53 ab 3e a8 1f 0c bf 00 5d d1 3d 40 bc 84 3e
       0.3346222 -0.54735804 0.102228165 0.25924873
0000a0 5a d4 7a be 2c 60 4a be 33 a4 dc 3e 16 70 cb 3e
       -0.24495068 -0.19763249 0.43094024 0.39733952
0000b0 d3 c6 9d 3c a4 58 d5 be b6 7b 53 3d bb f0 ea bd
       0.019259846 -0.4166919 0.05163165 -0.11471697
0000c0 49 ad 9d be 6f 69 e0 be 07 2a 15 3d 9c 37 3b be
       -0.3079627 -0.4383044 0.036417034 -0.18282932
0000d0 75 9f e4 3e 4b ba a9 3d 88 ac 15 be 96 a0 94 3e
       0.44652906 0.08287486 -0.14616597 0.29028767
0000e0 47 8c 51 3c b5 c2 49 be ec 35 18 bf b5 0b 93 3f
       0.012789792 -0.19703181 -0.5945728 1.1487948
0000f0 ae c8 4c be 52 3a c6 3e 9e 13 3e 3e 28 6b ea 3e
       -0.19998428 0.3871637 0.18562171 0.4578488

affine_layers.1.weight f4 [64, 64]
000000 19 b1 59 3e ee 58 0b be 66 f0 65 be 25 d5 d4 bd
       0.21258964 -0.13608143 -0.22454986 -0.103922166
000010 11 65 e9 3e 48 c3 9d bd cd 0c b5 3c df 9c 29 3e
       0.4558492 -0.077032626 0.02210083 0.16563748
000020 2a c1 46 3e 66 70 9f bd 79 0c bd be 10 18 91 3d
       0.19409624 -0.0778511 -0.36923578 0.07084668
000030 f8 74 de 3d 8e 3b 11 be 50 f8 16 be fa 3f 16 3e
       0.10862154 -0.14182875 -0.14743161 0.14672843
000040 44 ae 15 3e e7 b8 2e be 9f db c8 3e 2a 9c b1 bc
       0.14617258 -0.17062722 0.39230058 -0.02168091
000050 23 8e 8a 3d c9 e9 65 bd 76 5a 30 3d db 12 93 3e
       0.06765392 -0.056131158 0.04305502 0.28725323
000060 43 47 6b bd 31 4a d3 3e ba 2b 9a 3d ec 09 a3 be
       -0.057441007 0.4126754 0.075278714 -0.31843507
000070 5a c7 3e bd d9 0e a8 be e0 46 8d 3e dc d4 9e bd
       -0.046576835 -0.32823828 0.27593136 -0.077554435
000080 31 e5 39 3d 6c 68 bb 3d 15 30 b1 bd a5 b4 e4 bd
       0.04538459 0.09150776 -0.08651749 -0.11167268
000090 66 28 fb bd d5 0e 42 bb d2 47 f3 3d 4e ef 34 be
       -0.12263565 -0.0029610891 0.11878933 -0.17669412
0000a0 37 9b b3 3d 54 7a f3 bd 41 72 06 3e a5 7d 69 3e
       0.08769839 -0.118885666 0.13129522 0.22801836
0000b0 46 f1 82 be 46 a5 53 bc ea 8c 7c be 87 17 53 bc
       -0.25574702 -0.012917822 -0.2466313 -0.012884027
0000c0 9a 42 00 be 42 08 ac be 11 9e d3 bd d5 de a4 3d
       -0.12525406 -0.3360005 -0.10332883 0.08050314
0000d0 d8 09 56 3e 3f 7c 11 be 5c e8 d7 be e6 5e 24 3e
       0.20902193 -0.14207552 -0.42169464 0.16051826
0000e0 4e 9f 42 be c7 a4 8f 3d 9c 82 33 3c e9 50 50 3e
       -0.19006082 0.07013851 0.010956433 0.20343365
0000f0 04 4f f2 3d b7 8b 0d 3e 92 75 87 3d 48 7e 89 bd
       0.11831477 0.13822828 0.06614222 -0.06713539
000100 9e 1b 5c bc e8 a5 c1 3d 39 1c 81 3c b4 47 0f 3e
       -0.013434319 0.09455472 0.015760528 0.13992196
000110 83 4b 83 39 37 4f 96 be ec 75 e0 bc 24 9f 6b 3d
       0.00025042528 -0.2935731 -0.02739998 0.057524815
000120 4d b2 05 be 37 84 0b 3d 87 77 93 be 45 39 8b bd
       -0.13056298 0.034061637 -0.2880213 -0.06798033
000130 2a fc ee bd 89 0f ca bd 59 2a e6 3c da cf b9 3e
       -0.1166919 -0.09866244 0.028096365 0.3629139
000140 95 4f c5 3e a4 f5 9f be 4a 10 43 be e0 81 53 3e
       0.3853728 -0.31242096 -0.19049183 0.20655012
000150 56 b3 ed 3d 0e e4 d5 bd 51 44 de 3c 29 60 88 3e
       0.11606471 -0.104438886 0.027132185 0.26635864
000160 1d fe 29 be 46 e8 2e be b9 e6 c5 3d fe b3 ab bc
       -0.16600843 -0.17080793 0.096631475 -0.02095985
000170 76 24 8e 3d 06 b8 65 bd 72 93 bc bd 48 43 80 3c
       0.06940548 -0.0560837 -0.092078105 0.015657082
000180 19 c0 1e 3c 48 06 c0 be 00 39 28 3e af 66 58 be
       0.009689354 -0.37504792 0.16427994 -0.2113292
000190 2b 59 90 be a2 10 ae 3d 9e 09 a8 bd 29 33 b4 bd
       -0.2819303 0.08499266 -0.08204959 -0.087988205
0001a0 7d 85 62 bc e5 c4 24 be df 97 20 3e db ae 9e be
       -0.013825771 -0.16090734 0.15682934 -0.3099278
0001b0 54 e8 35 3e aa 65 f1 bd 9e f5 af 3d c3 54 05 3e
       0.17764407 -0.11786969 0.0859177 0.13020615
0001c0 6b 53 6c bd c8 5b 70 3e 28 90 de bd a4 ef 1c 3e
       -0.05769674 0.23472512 -0.108673394 0.1532579
0001d0 05 f6 ac be 49 ac 5f 3e b1 a7 04 be 62 48 94 3c
       -0.33781448 0.21843065 -0.12954594 0.018100921
0001e0 0c 94 ef bc 13 8b 29 3e 56 ad 7b be 28 5b 24 be
       -0.029245399 0.16556959 -0.24577841 -0.16050398
0001f0 e7 67 61 be d6 d0 37 3c cb 17 b4 bc 70 1d 51 be
       -0.22012292 0.011219224 -0.021984002 -0.20421386
000200 b8 12 8f bd e8 04 90 be 47 de 03 be d2 be 5e 3e
       -0.06985992 -0.28128743 -0.12877761 0.2175248
000210 86 6b cc be a0 6f 12 3d 10 c1 57 3d 9a f7 da 3d
       -0.39925784 0.035750985 0.052674353 0.106917575
000220 d1 86 2c 3d 2a e8 56 be 81 2b b6 3e 2c 3f 81 be
       0.04212076 -0.20987001 0.35580066 -0.2524351
000230 56 95 70 be 11 65 54 3d 19 a2 c4 3d 00 5e 18 3e
       -0.23494467 0.051854197 0.0960123 0.14879608
000240 b0 e0 be bd 25 fa 6c 3e 0b 20 32 bd ff f1 92 bd
       -0.093201995 0.23142298 -0.04348759 -0.07175063
000250 b1 e8 55 be c2 7b 85 be 69 43 9a bd 93 03 61 be
       -0.20889546 -0.26070982 -0.07532389 -0.2197402
000260 1e 1f 92 be b2 ba a2 bd 76 97 c8 3d 41 c4 2d be
       -0.28539366 -0.079457656 0.09794514 -0.16969396
000270 61 6c 2d 3e 13 25 b7 bd e1 ac 84 be 0b 83 87 bd
       0.16935875 -0.08942618 -0.25913146 -0.06616791
000280 a9 e3 99 be be 05 e6 3c b6 b7 3c 3e e9 dc 62 bd
       -0.30056503 0.02807891 0.18429455 -0.055386458
000290 91 f3 99 bc 74 10 0d 3e da c5 1e be 10 01 6f be
       -0.0187929 0.13775808 -0.15505162 -0.23340249
0002a0 9e 86 20 3e bf 01 6b bc d6 dd 83 be 24 5a 83 be
       0.15676352 -0.014343678 -0.25755185 -0.2565471
0002b0 fd 0a d9 3d 6c 84 ff 3d ba f0 e6 3d a9 ca a2 bd
       0.10597799 0.12476429 0.11276384 -0.079488106
0002c0 96 22 64 bd 62 00 0b be 27 17 45 be a7 26 fd bd
       -0.055697046 -0.13574365 -0.19247113 -0.12360888
0002d0 98 e0 cc bc f4 b3 73 be 65 e7 c3 bb 8c 5b 8d be
       -0.025009438 -0.23799115 -0.005978512 -0.27608907
0002e0 30 37 f7 bd 01 ea 0e bd 34 93 d4 3d 7b ba d8 be
       -0.12071073 -0.034891132 0.10379639 -0.42329773
0002f0 d4 43 a0 3c 13 83 09 be c4 c4 44 3d 5c 3d 15 be
       0.019563593 -0.13428907 0.048039213 -0.14574188
000300 28 58 0a 3c 20 1f e9 3d 57 62 17 3c 0f 4a 93 3d
       0.00844387 0.1138289 0.009239755 0.0719186
000310 00 83 c1 bd b4 4b 11 3e 46 fc 44 3e 7c db 26 bd
       -0.094488144 0.14189035 0.1923686 -0.04073666
000320 5e e4 30 bd de 03 4e 3d 1e 5e 70 be f9 40 04 be
       -0.043186538 0.050296657 -0.23473403 -0.1291541
000330 40 36 90 3d 75 21 15 be 14 a4 83 be 70 b1 64 be
       0.07041597 -0.14563544 -0.2571112 -0.22333312
000340 72 4f 1e 3e a8 63 fe 3c a2 59 b3 3d 56 cb 41 be
       0.15459993 0.03105338 0.087573305 -0.18925223
000350 49 57 89 bb a6 c2 8d be 9d 3d 18 be 71 4c 02 bc
       -0.0041913134 -0.27687567 -0.14867254 -0.007952795
000360 67 0a 85 3e 10 7e ed bd 2b 78 c3 be 44 33 a4 3e
       0.259845 -0.1159631 -0.38177618 0.32070363
000370 ba 21 29 3e 38 26 be bd 3f cd ff bd e1 05 ce 3b
       0.16516772 -0.092846334 -0.124903195 0.006287322
000380 f8 db 80 3e c1 95 23 3e d5 f6 87 3b 32 38 0e bd
       0.25167823 0.15975095 0.0041492977 -0.03472156
000390 29 07 92 bd 09 0b 98 bd cc f4 77 bd cd e7 59 be
       -0.07130272 -0.0742398 -0.06053619 -0.21279831
0003a0 87 96 38 3e 03 25 5d 3e 7e fd 88 be 49 16 78 3e
       0.18026172 0.2159615 -0.267559 0.24227251
0003b0 a6 c8 cd 3e ed db 51 be 6e 73 9e 3c 91 49 ec 3c
       0.40192145 -0.20494051 0.01934215 0.028843673
0003c0 cc 30 9f bc ee 5d 56 3e b2 57 83 bb 93 b1 70 bd
       -0.019432448 0.20934269 -0.004008257 -0.058763098
0003d0 5a b1 6d be 49 b1 9d bd 97 5c 53 be bc 1d aa be
       -0.23212186 -0.0769983 -0.20640789 -0.3322581
0003e0 46 68 1e bb 7d 91 80 3d 9b fa 0e 3e 80 b8 51 bc
       -0.0024171039 0.0627775 0.13962786 -0.012800336
0003f0 88 51 16 3e f4 d1 5f 3e 2b 5f 4f bd 26 69 a1 3e
       0.14679539 0.21857435 -0.05062787 0.31525534

affine_layers.1.bias f4 [64]
000000 31 10 7b 3e c4 65 f2 3c f8 76 ee be 28 07 8e bd
       0.24517895 0.029589541 -0.4657514 -0.06934959
000010 4d 7b 60 3e fb 27 8b bd 64 12 32 be 54 c8 fe bd
       0.21922036 -0.06794735 -0.17389828 -0.12440553
000020 9f 17 76 bb 6a fe 81 3e e7 db c6 3e da 46 40 be
       -0.00375507 0.25389415 0.38839647 -0.18777028
000030 9f 53 90 3e 9c 1d a2 bd 4c a3 1b be 40 4f ca 3d
       0.28188798 -0.07915804 -0.15199012 0.09878397
000040 32 09 26 be d4 47 c9 3e 98 49 69 bd 40 98 2c 3e
       -0.16214445 0.39312613 -0.05695495 0.16854954
000050 12 3b 7e be c0 a5 81 3e 7f 3a 66 be c0 4e 83 3e
       -0.24827221 0.2532177 -0.22483252 0.2564602
000060 cb 06 5d 3d 24 75 44 be 58 2a f4 bd 6c a7 22 3e
       0.053961556 -0.1918531 -0.11922139 0.15884179
000070 da 8d c7 bd 0a c0 87 bc 12 dd e1 bd 21 ca 5b 3d
       -0.09743853 -0.016571064 -0.11028494 0.053659562
000080 8d 0b 7a be a0 5d b1 bd b6 ff 2f 3b c7 72 9e bd
       -0.24418469 -0.08660436 0.0026855296 -0.07736736
000090 bd 19 a0 be 80 6c 4d bd 54 8f 26 3c 71 1a 95 3e
       -0.31269637 -0.0501523 0.010166008 0.29121736
0000a0 5d 47 a2 3e b0 09 fb 3d d6 83 49 3d eb af 85 3e
       0.3169507 0.12257707 0.049197994 0.26110777
0000b0 ba 3b 03 be 75 f6 07 3e 16 91 08 3d ee d7 c3 3d
       -0.12815753 0.1327761 0.03334149 0.0956267
0000c0 e1 2e 9e be 6b 48 af be 24 04 c6 3c bd 04 ec 3e
       -0.3089514 -0.34234938 0.024171896 0.46097365
0000d0 d9 ba a2 bc 42 07 a9 3d f6 d9 b6 3e 95 fa 63 bd
       -0.019864487 0.082533374 0.35713166 -0.055658896
0000e0 6b 6b 49 bd 40 b7 f8 bd 59 cd 19 3d 9e bf 88 bc
       -0.049174707 -0.12144327 0.03754935 -0.016692933
0000f0 c0 cb ad 3e 50 c0 17 3e 2e e2 ea 3d 11 6e 88 be
       0.3394451 0.14819455 0.114689216 -0.26646474

final_mean.weight f4 [8, 64]
000000 af 40 5a 3c ff 71 92 ba fd ec 7c bd 4c d5 94 3a
       0.013321086 -0.001117289 -0.061749447 0.0011355071
000010 62 7b 14 3a 45 05 d9 bb fa e6 80 3b 6d 73 03 bb
       0.00056641374 -0.0066229426 0.0039337846 -0.0020057813
000020 1d c9 81 39 6d b0 a0 bb 70 71 61 3c 61 5a 2b 3c
       0.00024754638 -0.004903844 0.013759956 0.01045856
000030 5a c2 dd 3a 58 0a f6 ba 49 d3 df 3b 48 d0 f6 37
       0.0016918883 -0.0018771393 0.006830607 2.9422474e-05
000040 3a 85 13 bc f2 7e 7c bc 31 b8 2f bb 10 ce 2e bb
       -0.009003932 -0.0154111255 -0.0026812667 -0.0026673116
000050 11 30 58 bc 4e 8a 62 ba 9f 8d 92 ba 68 05 9b 3b
       -0.013195054 -0.0008641825 -0.0011181122 0.004730869
000060 5e cf 01 bc 83 80 68 3c aa c7 98 ba f1 de 5f bb
       -0.007922975 0.014190796 -0.0011656184 -0.0034159983
000070 2a 22 fb 3a 39 dc 2a 39 49 81 ed b9 9c bb 1b 3c
       0.0019159962 0.00016294503 -0.00045300488 0.009505179
000080 17 ed 24 bc d7 c7 7d 39 11 02 57 bb 75 e3 65 ba
       -0.010066292 0.00024202406 -0.0032807628 -0.00087695505
000090 f0 ac 94 3b 1b 5d 98 3b 73 5c 39 bb 5b a5 33 3c
       0.0045372173 0.004649771 -0.0028283864 0.010964717
0000a0 df e6 c1 3c 3e 79 6c 3c e2 2b 13 3b 1c 27 e1 3a
       0.023669658 0.014433203 0.0022456576 0.0017177793
0000b0 a8 df dd ba 29 bd e8 ba fb 66 d3 3a 5f 9b ee 3c
       -0.0016927617 -0.001775657 0.0016128713 0.029126821
0000c0 fa 81 fc bb 35 c2 3e 3a 34 ee 37 3b d1 45 ea 3c
       -0.007705924 0.0007276864 0.0028065564 0.028597744
0000d0 ed 86 3b 3b 36 07 a8 ba 66 ab 90 bb 04 54 75 bb
       0.0028614358 -0.0012819532 -0.0044149635 -0.003743411
0000e0 16 b0 54 bc 8a 2e 08 bc cf a0 45 3b 4b b5 66 3b
       -0.012981435 -0.008311877 0.0030155664 0.0035203274
0000f0 53 5e 9b 3b 65 5c db 3b 15 ec f0 3a b4 28 1a 3c
       0.004741469 0.006694364 0.0018380905 0.009409118
000100 24 84 73 bc fb 01 2a bb 95 22 3f 3d 6e c7 90 bb
       -0.014863048 -0.0025941122 0.04666384 -0.004418305
000110 44 f7 36 bb fa fe b8 3b df 62 b1 3b c6 a9 1a ba
       -0.0027918378 0.00564563 0.0054133977 -0.0005899932
000120 5c 01 57 bb c6 a3 59 bc 8f 07 31 3b ff 2b 0f bc
       -0.0032807207 -0.013283676 0.0027012562 -0.008738517
000130 b2 0b d6 3b c0 65 9f bb 46 fe 88 3c bd 2a b9 bb
       0.006532156 -0.0048644245 0.01672281 -0.0056508468
000140 e7 7c 6e 3b 6e cb 9d 38 8f 9d 9b 3c ed 0b 07 3c
       0.0036390366 7.524235e-05 0.018996028 0.008242589
000150 b1 c0 11 3d 30 80 37 bb 90 6f 9d 3b 7d f1 af 3a
       0.035584155 -0.002799999 0.004804559 0.001342341
000160 79 58 16 bc d7 da 7a bc 78 12 8b 3b 32 62 85 bc
       -0.009176367 -0.015310965 0.004244145 -0.016282175
000170 40 7f 2b bc c6 55 55 bb 17 3f 0e 3c 97 70 16 bc
       -0.0104673505 -0.0032552346 0.008682034 -0.009182117
000180 67 45 67 3c cf 68 b0 bb e6 cc 02 bb 86 d2 d1 b9
       0.014115668 -0.005383588 -0.0019958555 -0.0004002044
000190 c0 0a aa bb 62 75 86 bb ea 47 c9 bb 4e 33 6b 3c
       -0.00518927 -0.0041033486 -0.006142606 0.014355494
0001a0 0b 36 9b 3a cb 95 35 bc 6d 91 1a 3b e4 60 ea bc
       0.0011841668 -0.011083077 0.0023585216 -0.028610654
0001b0 fe 9b 9a 3b 9b ee 8f 3c 3a f3 c2 bb e1 06 8f bc
       0.0047183027 0.01756983 -0.005949405 -0.017459335
0001c0 3d 4a 82 3c 2c 65 8f 3c e6 c3 38 3c 5f ae 8e bd
       0.01590454 0.017504297 0.011277175 -0.069668524
0001d0 25 0f bc ba 49 8a aa 3c 39 04 07 bd 9f b6 a1 3c
       -0.0014347775 0.020817893 -0.03296301 0.0197404
0001e0 81 f8 1e 3a 45 62 d7 bb ea c4 1f bb b4 b3 93 3c
       0.00060642516 -0.006572994 -0.0024378845 0.018030025
0001f0 d1 d7 79 bc 28 62 06 3b a3 18 41 3b ba 3c 26 bc
       -0.015249209 0.0020505283 0.0029464148 -0.010146314
000200 ec 2c a7 bc bf 62 fb 3b 43 bf 36 bd 07 d3 79 bc
       -0.020407163 0.0076716836 -0.044615995 -0.015248067
000210 dc ad d7 bb a0 d7 27 bc 60 10 be bb 25 f7 0a 3c
       -0.006582005 -0.01024428 -0.005800292 0.008481775
000220 ab 64 5a bb 85 99 96 3c 4c f1 0d be 06 95 46 bd
       -0.0033324163 0.01838375 -0.13861579 -0.048481964
000230 df 1e 63 bd 03 46 df 3b 84 4c 4d bd 77 ef 09 bb
       -0.055449363 0.006813766 -0.0501218 -0.0021047273
000240 0e 4c 0d 3d 63 83 84 3d 45 12 9b b9 6e 48 33 3c
       0.03449636 0.064703725 -0.00029577516 0.010942562
000250 d0 fd 0e bc 61 ba 41 bb d9 0a e3 3c 16 c2 fd bc
       -0.008727506 -0.0029560553 0.027715134 -0.030976336
000260 02 31 57 3d 21 f4 58 3c dd 0e 15 3c 57 ed 35 3d
       0.052536972 0.013241799 0.009097782 0.044415798
000270 a3 89 a1 3c 46 4f e9 bb 60 e8 df bb 49 9b d0 bc
       0.01971895 -0.007120046 -0.006833121 -0.02546467
000280 87 85 9c 3c 95 18 fe 3b 60 e1 aa 3c 0f 53 d2 3b
       0.01910664 0.0077543953 0.02085942 0.0064185928
000290 f1 7a 6a bd 1a 98 a8 bc a8 58 73 bc ff b7 e5 bd
       -0.057246152 -0.02058034 -0.01485268 -0.11216735
0002a0 a8 c4 5a bd 99 8d 08 be 5d c3 8c 3b 54 7b 82 3c
       -0.053410202 -0.13335265 0.00429575 0.015927948
0002b0 47 bc 02 3d f1 88 0a bd c2 33 91 3b d1 b7 30 be
       0.031917837 -0.033822004 0.004431219 -0.1725762
0002c0 1b a1 c9 3b 64 2a 04 39 1b 7d 18 bd 48 f6 36 3d
       0.0061532385 0.00012604293 -0.037228685 0.044668466
0002d0 a7 91 89 bc 65 a1 b4 bc 90 64 ab 3c ba 47 c6 bb
       -0.016793085 -0.022049615 0.020921975 -0.006051031
0002e0 59 1f 6a 3d bb 4b 17 3d 1c bb fa bb a6 4f 60 bd
       0.0571588 0.036937457 -0.0076516997 -0.05476346
0002f0 bf 32 80 bb b3 15 f2 bc f0 38 05 bd e3 a3 35 bd
       -0.0039122994 -0.029551363 -0.032525003 -0.044345748
000300 40 11 8c 3d 8c 7e eb 3b 56 63 33 3d 74 3a 40 bb
       0.06839228 0.0071867164 0.043795906 -0.0029331716
000310 92 aa 89 3b 7e ce 97 ba 18 c4 ae 39 01 d8 28 3c
       0.004201242 -0.0011581925 0.00033333967 0.010305406
000320 46 a9 82 3b 33 d7 9a bc a5 3c aa bd 0c 01 23 3d
       0.003987464 -0.018901443 -0.08312348 0.03979592
000330 39 06 8d bd 4c 9c 0d 3c 38 c0 67 3c 13 9e 5f b9
       -0.068859525 0.008643221 0.01414495 -0.00021325824
000340 1e b2 58 3c 97 5d eb 3d 96 e3 90 bd e2 f3 6c bc
       0.01322606 0.1149246 -0.070746586 -0.014462443
000350 dd 2d c7 3c b5 a4 47 bb 94 cb 3f 3c 6c 02 86 bc
       0.024313862 -0.0030463163 0.011706252 -0.016358577
000360 19 a6 d0 3c 76 b0 55 3d 5f 21 d7 3b 23 a3 e1 3b
       0.025469827 0.05217024 0.0065652574 0.0068859025
000370 1a 17 76 bc 82 0b a8 3a fc 72 d5 ba 85 a1 0d bc
       -0.015020156 0.0012820812 -0.0016284878 -0.008644466
000380 65 ae 8e 3c 84 7f 76 bb 8f 60 32 3c fc f4 08 3b
       0.017417142 -0.0037612626 0.010887279 0.0020897975
000390 c5 63 3e bd 55 0c 91 3c ec ad 74 bc 50 bf 2b bd
       -0.046481866 0.017706076 -0.014934044 -0.041930497
0003a0 09 94 e6 3c dd 7b a9 bd a4 80 83 3b 58 ad 40 bd
       0.02814676 -0.08275578 0.004013138 -0.047040313
0003b0 66 bd 35 ba dd 8b 67 3d 99 94 87 3c d9 32 db bd
       -0.00069328246 0.05652987 0.01655035 -0.10703058
0003c0 80 0b ca 3b a2 0a 84 3c f7 c8 1d bc 0e 3b 86 3c
       0.0061659217 0.016118351 -0.009630433 0.016385581
0003d0 ec 48 4d 3a fc 74 53 3c fb 6d 3b 3c 6f ff 7e bc
       0.00078309956 0.012906309 0.011439796 -0.01556383
0003e0 45 f8 de 3c d7 48 01 3b 6c 07 d8 bb 8a c7 cb bc
       0.027217994 0.0019727254 -0.0065926816 -0.024875421
0003f0 0e 18 a9 bc 24 12 39 3d 93 5d 1f bc d3 1a a2 bc
       -0.020641353 0.045183316 -0.0097269 -0.019788181

final_mean.bias f4 [8]
000000 0c 4e 44 3d 00 7a 5b bd ed 3e e1 3b 2e fa 75 bd
       0.047925994 -0.053583145 0.0068739564 -0.060053043
000010 70 22 f1 bd e7 03 5d 3e 77 d3 97 3d 36 5b 40 3e
       -0.117741466 0.2158352 0.074133806 0.18784794
