src/models/car_ppo_sgld_ant.model (torch, 296078 bytes, 36 tensors)

affine_layers.0.weight f4 [64, 111]
0	0x3d4edd3b	0.05050395
1	0xbeb8bd02	-0.36081702
2	0x3e93796e	0.2880358
3	0x3ce3d540	0.027811646
4	0x3de0b388	0.10971743
5	0x3cc67ff7	0.02423094
6	0xbd43b6c1	-0.04778171
7	0xbd2ad80f	-0.041709956
8	0x3c8640f9	0.016388403
9	0x3c68136c	0.014164787
10	0xbce0d950	-0.027447373
11	0x3d837896	0.06419484
12	0x3a879e38	0.0010346835
13	0xbe0c0703	-0.1367455
14	0xbd13a724	-0.03604807
15	0x3e55c99c	0.20877689
16	0xbdc40263	-0.09570768
17	0xbe140650	-0.14455533
18	0x3dbb33c9	0.091407366
19	0x3c944891	0.018101009
20	0x3d8a94f4	0.06766692
21	0x3ca0d658	0.019633457
22	0xbcfd9cbf	-0.030958531
23	0x3e2d56cf	0.16927646
24	0xbd3e9452	-0.046528168
25	0x3d229132	0.03968925
26	0xbd94b78d	-0.07261572
27	0xbe95fa7a	-0.2929266
28	0xbd172325	-0.03689875
29	0x3daf8de8	0.08571988
30	0x379ac331	1.8449124e-05
31	0xbcc01406	-0.023447048
32	0xbd4bf688	-0.049795657
33	0x3d006d1b	0.03135405
34	0x3cb03f45	0.021514544
35	0x3cbf0558	0.023317978
36	0x3e83118e	0.2559933
37	0xbdd509dc	-0.10402271
38	0x3d3868dd	0.04502188
39	0xbe44383c	-0.19162077
40	0xbe8f1398	-0.27944636
41	0x3d0a4faf	0.0337674
42	0x3df11686	0.11771874
43	0xbb485f90	-0.0030574538
44	0xbd927341	-0.07150889
45	0x3e9ed69c	0.3102311
46	0x3df1e79f	0.11811756
47	0x3e0366ee	0.12832233
48	0xbe258ba6	-0.16166553
49	0x3e175c94	0.1478141
50	0x3d970158	0.07373303
51	0x3e07132a	0.13190904
52	0x3e4e0a53	0.20121126
53	0xbe749581	-0.23885156
54	0xbda08b76	-0.078391
55	0xbcac20cb	-0.02101173
56	0xbd8d2271	-0.06891335
57	0xbe859de0	-0.26097012
58	0xbdbe4e1f	-0.09292244
59	0x3d82f341	0.06394053
60	0xbd1b4d18	-0.03791532
61	0xbe1d5a04	-0.1536637
62	0x3e038472	0.12843493
63	0x3df34322	0.11878039
64	0xbde2a3e6	-0.110664174
65	0xbe8941ae	-0.26807922
66	0xbe592bfd	-0.21208186
67	0xbc4848e7	-0.0122244125
68	0x3cec126d	0.02881738
69	0x3e3f603d	0.18689056
70	0x3e11dfee	0.14245579
71	0x3e4cc218	0.19995916
72	0xbe04949f	-0.1294732
73	0xbd0f9cf7	-0.035061803
74	0x3d042024	0.032257214
75	0xbbac20df	-0.005252942
76	0xbda7709e	-0.08175777
77	0xbdb705ef	-0.089366786
78	0x3df1d411	0.118080266
79	0xbcc0e2f2	-0.023545716
80	0xbd9c0178	-0.07617468
81	0xbc527ea2	-0.012847574
82	0x3e3d328d	0.18476315
83	0x3e256130	0.16150355
84	0xbde0a3d3	-0.10968747
85	0xbdf5f7c0	-0.12010145
86	0xbe1e801c	-0.15478557
87	0xbe891e94	-0.26781142
88	0xbd4398d2	-0.047753163
89	0xbe4031ec	-0.18769044
90	0x3bb42f5b	0.0054988093
91	0x3daa03de	0.08301519
92	0xbd465a1d	-0.048425782
93	0x3d42dfe4	0.0475768
94	0x3e048627	0.129418
95	0xbc8c0578	-0.017092451
96	0x3dce0d0e	0.10061084
97	0xbe26b9d6	-0.16281828
98	0x3e204d37	0.15654455
99	0xbe0cbdd0	-0.13744283
100	0x3dbf25a3	0.093333505
101	0x3d58c189	0.052918945
102	0x3e00ef70	0.12591338
103	0xbdda7343	-0.10666516
104	0x3ddf7532	0.10911025
105	0x3c08acc1	0.008341969
106	0xbd9747fb	-0.07386776
107	0xbd56e152	-0.052460976
108	0x3d803c15	0.0626146
109	0x3d84e9fe	0.06489943
110	0x3e5fabdc	0.21842903
111	0x3e2f8307	0.17139827
112	0x3e0751d1	0.13214804
113	0x3d83e4da	0.06440134
114	0x3d517e80	0.05114603
115	0xbbe44010	-0.0069656447
116	0x3d5b6109	0.053559337
117	0xbd82c152	-0.06384529
118	0x3dd9a8bf	0.10627889
119	0xbdb2ab86	-0.08724122
120	0xbdc4ad10	-0.096033216
121	0x3e4da1d5	0.20081265
122	0x3d747aa2	0.059687264
123	0x3def7686	0.116925284
124	0x3c203852	0.009779053
125	0xbdae0b90	-0.08498299
126	0x3dc8ae85	0.09798912
127	0x3ddae8f8	0.106889665
128	0xbe021d92	-0.12706593
129	0xbd12ca3d	-0.0358374
130	0xbddf1b15	-0.10893837
131	0xbd185d13	-0.037198137
132	0xbc928cd4	-0.017889418
133	0xbd250eb7	-0.040297236
134	0xbe0d1b4d	-0.13779946
135	0xbde1f829	-0.11033661
136	0x3d0048b4	0.031319335
137	0x3df0d869	0.11760027
138	0x3e040115	0.12891038
139	0xbe5f4338	-0.21802986
140	0x3d9a5ca3	0.075372
141	0xbca7adc8	-0.020468608
142	0x3da0aef3	0.07845869
143	0xbe27889f	-0.1636071
144	0xbd08b588	-0.033376247
145	0xbd4fba36	-0.050714694
146	0x3c501cc6	0.012702173
147	0xbd188e30	-0.037244976
148	0xbd589c6f	-0.05288356
149	0xbdd04e48	-0.10171181
150	0xbc51c265	-0.012802695
151	0x3db69592	0.08915247
152	0x3e0c3caa	0.13695017
153	0x3cf365a0	0.029711545
154	0xbe100da5	-0.14067705
155	0xbe7c8583	-0.24660306
156	0xbd9075e9	-0.070537396
157	0xbd399cc6	-0.045315526
158	0xbe2e57a1	-0.17025615
159	0x3dfbfc62	0.123039976
160	0x3d9192f6	0.07108109
161	0x3d4414d3	0.047871422
162	0xbd82963d	-0.06376312
163	0x3e05eb17	0.13077961
164	0xbdb752cd	-0.0895134
165	0x3e69e5e3	0.22841601
166	0xbe7fdcbe	-0.2498655
167	0xbcc1d54a	-0.023661274
168	0xbbe8ed3b	-0.007108358
169	0xbc6601e3	-0.014038536
170	0xbe38a4c2	-0.180316
171	0x3e8a1437	0.26968548
172	0xbd19064c	-0.03735952
173	0xbc1b01f6	-0.009460917
174	0xbed07cc8	-0.407202
175	0x3db51450	0.08841765
176	0xbdc58fe4	-0.096465856
177	0xbcb05b0a	-0.021527786
178	0xbc8413c9	-0.016122716
179	0x3e3f76d4	0.18697673
180	0x3d75ca6f	0.06000751
181	0x3df96ff7	0.12179559
182	0x3c88562c	0.016642652
183	0xbd047496	-0.032337748
184	0xbccf4c1e	-0.02530485
185	0xbe702ab8	-0.23453796
186	0x3e2f149a	0.17097703
187	0x3d92896e	0.07155119
188	0xbc0059ad	-0.00783388
189	0xbd940872	-0.07228173
190	0xbe6cad9c	-0.23113102
191	0xbe01d153	-0.12677507
192	0xbe4cb77a	-0.19991866
193	0xbe7b3ab6	-0.24534115
194	0x3d471f0d	0.048613597
195	0x3d97e969	0.07417566
196	0x3becb267	0.0072234157
197	0xbd81ec18	-0.063438594
198	0x3d292024	0.041290417
199	0x3ab7c953	0.0014021791
200	0x3dd473d0	0.10373652
201	0xbd003a27	-0.03130546
202	0xbdb8811c	-0.09009001
203	0x3e34f371	0.1767099
204	0xbe37ec13	-0.17961149
205	0xbe7fada0	-0.24968576
206	0xbe631c4d	-0.22178765
207	0x3def684b	0.11689814
208	0xba78a634	-0.00094852154
209	0xbe5301a2	-0.20606092
210	0xbd6cd5df	-0.05782115
211	0xbc01b73b	-0.007917221
212	0x3d29bf3e	0.04144215
213	0x3e0b816b	0.13623588
214	0x3cb07dc5	0.021544347
215	0xbdfcd594	-0.12345424
216	0x3d7a466c	0.061102316
217	0x3d7afcdf	0.061276313
218	0x3e3ea196	0.18616328
219	0x3ca4de18	0.020125434
220	0xbdcbd7ed	-0.09953294
221	0xb9a188f2	-0.00030810345
222	0xbe534158	-0.20630395
223	0x3e42f48a	0.19038597
224	0xbe3f6582	-0.18691066
225	0xbe998774	-0.29986155
226	0xbe1b830f	-0.15186714
227	0xbda861bb	-0.082217656
228	0xbdd15f48	-0.102232516
229	0x3df1019f	0.11767887
230	0xbcb810a0	-0.022468865
231	0xbccea5db	-0.02522557
232	0x3e01b6ae	0.12667343
233	0xbc4332da	-0.011913979
234	0x3da90345	0.08252577
235	0xbc202c75	-0.009776224
236	0xbd831508	-0.06400496
237	0xbdbf0e42	-0.09328891
238	0x384e3ef0	4.9172842e-05
239	0xbd046fc2	-0.032333143
240	0x3ca8071e	0.020511206
241	0xbcc6fbef	-0.024290053
242	0xbd398986	-0.04529717
243	0x3e1466b6	0.14492306
244	0x3cc9e3be	0.024644729
245	0xbd99a4bf	-0.07502126
246	0x3d5f99ce	0.05459004
247	0xbb5c1045	-0.0033579033
248	0xbd6595e2	-0.056051143
249	0xbdaa5c9f	-0.08318447
250	0x3d65efff	0.05613708
251	0xbdf71472	-0.120644465
252	0x3e01cc1a	0.12675515
253	0x3e2427d7	0.16030823
254	0xbc728616	-0.014802476
255	0x3c7de5bf	0.01549667

affine_layers.0.bias f4 [64]
0	0xbcd7bc4e	-0.026334908
1	0xbecc5bf4	-0.39913905
2	0x3e887b3b	0.26656517
3	0xbed043a6	-0.40676612
4	0x3e8dbc97	0.27682945
5	0x3ebab1ab	0.36463675
6	0xbe800703	-0.2500535
7	0xbed5a3be	-0.41726488
8	0x3eded745	0.43523613
9	0xbd5f82f3	-0.054568242
10	0xbea3a81d	-0.31964198
11	0xbeeb4f1f	-0.45958802
12	0x3e875214	0.26429808
13	0x3e497e73	0.19677143
14	0x3de8afdd	0.11361668
15	0x3e7cd24b	0.24689595
16	0x3e11c5c3	0.14235596
17	0xbea144c2	-0.3149777
18	0xbe0072ae	-0.12543747
19	0xbdfa9ab0	-0.122365355
20	0x3e4aed9c	0.19817203
21	0x3e858de4	0.26084816
22	0x3e8246b8	0.2544458
23	0xbe957a8e	-0.29195064
24	0x3e8d97df	0.2765493
25	0xbe817af6	-0.25289124
26	0xbe4f57e1	-0.20248367
27	0xbe61ab7a	-0.2203807
28	0x3e149808	0.1451112
29	0xbee70653	-0.45122012
30	0x3e8ae985	0.27131286
31	0xbe92744f	-0.2860436
32	0xbe8f0c9a	-0.27939302
33	0x3e45b283	0.19306378
34	0xbebc3d45	-0.36765495
35	0xbebe55b9	-0.37174776
36	0xbdfc7e6b	-0.123288
37	0xbec1348b	-0.377354
38	0x3e001f7e	0.12512013
39	0xbd9b1633	-0.075725935
40	0x3eaffabe	0.3437099
41	0xbeaeb3da	-0.3412159
42	0x3eb7f076	0.35925645
43	0xbcb36645	-0.021899352
44	0xbe9dbdd3	-0.30808887
45	0xbe51e704	-0.20498282
46	0xbdfa1dcb	-0.12212714
47	0xbe92dffb	-0.2868651
48	0xbe20bb6c	-0.15696496
49	0x3eda73ce	0.42666477
50	0x3ebaf57a	0.3651541
51	0x3eb4d665	0.3531982
52	0x3eb5ea9a	0.3553055
53	0x3ec0acbe	0.37631792
54	0x3eb098b9	0.34491518
55	0xbee2e143	-0.44312486
56	0xbe1ab86c	-0.15109414
57	0xbb162aa4	-0.00229136
58	0xbd8f10f7	-0.06985658
59	0x3ded44d6	0.11585395
60	0xbea0f485	-0.31436554
61	0x3df6ff3d	0.120604016
62	0x3e604273	0.21900348
63	0x3e4b1686	0.19832811

affine_layers.1.weight f4 [64, 64]
0	0xbdb48492	-0.08814348
1	0x3d58bd67	0.052915003
2	0x3ecc6609	0.39921597
3	0x3d79a509	0.060948405
4	0x3e49d015	0.19708283
5	0x3e2411d1	0.16022421
6	0x3b5aba01	0.0033375027
7	0x3e587689	0.21138968
8	0xbc66fa12	-0.014097707
9	0x3dba4a7e	0.090962395
10	0xbdd4f305	-0.10397915
11	0xbbda1e65	-0.0066564553
12	0x3dec34fa	0.11533542
13	0xbdb22d8c	-0.087000936
14	0xbdcc792d	-0.0998405
15	0x3e457811	0.19284083
16	0xbe6adc5e	-0.22935626
17	0xbe1d1005	-0.15338142
18	0x3d6f39ac	0.05840461
19	0xbd9ae7ca	-0.075637415
20	0xbe39ae09	-0.18132795
21	0x3b301855	0.0026869972
22	0x3e5950af	0.21222185
23	0x3da6ba22	0.08140971
24	0x3daf6e8d	0.08566008
25	0x3e037728	0.12838423
26	0x3e5506f0	0.20803428
27	0x3d8d4d8d	0.06899557
28	0xbe1683f0	-0.14698768
29	0x3e1931e9	0.14960445
30	0xbf0ae526	-0.542559
31	0x3d602569	0.054723177
32	0xbe53ed87	-0.20696078
33	0x3da59f96	0.08087079
34	0x3e16163f	0.14656924
35	0xbdf49f6c	-0.1194447
36	0x3c750452	0.014954643
37	0xbdcb8e8d	-0.09939299
38	0x3e012c39	0.12614526
39	0xbd9ce278	-0.07660383
40	0xbe40e5a6	-0.18837604
41	0xbe0767b8	-0.1322316
42	0x3dcd6fdc	0.10031101
43	0x3eaadc5e	0.33371252
44	0x3b10c163	0.0022087924
45	0x3da5aded	0.08089814
46	0x3db2c3ec	0.087287754
47	0x3da66878	0.081253946
48	0xbdf89fb9	-0.1213984
49	0x3e656c0d	0.224045
50	0x3c1d4c8f	0.0096007725
51	0xbe53ab55	-0.20670827
52	0xbe89c176	-0.2690541
53	0xbe681d7e	-0.226675
54	0xbe8d2fb0	-0.27575445
55	0xbc8d57c8	-0.017253771
56	0x3e1ffe01	0.15624239
57	0x3e3cc3e5	0.18434103
58	0x3e21324e	0.15741846
59	0xbda5507a	-0.0807199
60	0xbe748b71	-0.23881318
61	0xbb85df37	-0.004085447
62	0x3d6b1d0c	0.057400748
63	0xbe6917b6	-0.22762951
64	0x3c9387ca	0.018009085
65	0x3e546894	0.20743018
66	0xbe0c1e82	-0.13683513
67	0xbec00935	-0.37507024
68	0x3d9d5d95	0.07683865
69	0x3e869fc0	0.26293755
70	0xbdcd946c	-0.10038075
71	0x3dc4e37a	0.096137
72	0xbe1a4a51	-0.15067412
73	0x3d8e942f	0.069618575
74	0x3e6f6032	0.2337654
75	0x3ea19363	0.3155776
76	0xbdee0870	-0.11622703
77	0x3e346a8c	0.1761877
78	0x3d906ea0	0.0705235
79	0x3e9d3f1c	0.3071221
80	0x3e5efbf6	0.21775803
81	0xbe1181bd	-0.14209647
82	0x3c8267cc	0.015918635
83	0xbe25046d	-0.1611497
84	0xbcc9465b	-0.02456968
85	0xbc35fd10	-0.011107698
86	0xbddbc8ef	-0.107316844
87	0xbbbdcb9f	-0.005792096
88	0xbebe1734	-0.37127078
89	0x3e0df41b	0.1386265
90	0x3e11d58e	0.14241621
91	0xbde1a3b4	-0.11017552
92	0x3c838225	0.016053269
93	0xbd5fc7e0	-0.054633975
94	0x3db9eb7d	0.09078119
95	0xbd2e5e97	-0.042570677
96	0x3de775b0	0.11301744
97	0x3bf4c00f	0.007469184
98	0xbe212f19	-0.15740623
99	0xbd5c98cd	-0.05385666
100	0x3e95d180	0.29261398
101	0x3e70b649	0.23507036
102	0x3e6905c6	0.22756109
103	0x3e17ce3d	0.14824767
104	0xbe2c3d48	-0.16820252
105	0xbdcfda3c	-0.10149047
106	0xbe5c2cee	-0.21501514
107	0xbbd64769	-0.0065392745
108	0xbdf7df67	-0.121031575
109	0x3e76d420	0.24104357
110	0x3d93bed6	0.072141334
111	0x3e7bd84a	0.24594226
112	0xbc971a34	-0.018445112
113	0x3e013ef5	0.12621672
114	0xbda51ea1	-0.080624826
115	0x3ca38471	0.019960614
116	0xbe02139a	-0.1270279
117	0x3d03c007	0.032165553
118	0x3dc00756	0.09376399
119	0xbe571cbb	-0.21007054
120	0x3e2ac0ac	0.16675061
121	0x3de80a26	0.11330061
122	0x3b068eaf	0.0020531823
123	0xbe165129	-0.14679398
124	0xbe299d44	-0.16563898
125	0x3dc00eff	0.0937786
126	0xbb704267	-0.0036660673
127	0x3d207d9a	0.039182283
128	0x3e0f0e99	0.13970412
129	0x3e2d3662	0.16915277
130	0x3da2d806	0.079513595
131	0xbc7b7e69	-0.015349963
132	0x3e8fbe20	0.2807474
133	0x3de8b489	0.11362559
134	0xbe35dcaf	-0.17759965
135	0x3d7f0fcc	0.062270924
136	0x3ec0821a	0.3759926
137	0xbe049f9f	-0.12951516
138	0xbd6a5de0	-0.057218432
139	0xbe9543d2	-0.29153305
140	0x3d5797d2	0.05263502
141	0xbce10145	-0.027466426
142	0x3d7e2ed8	0.062056392
143	0x3d80cc4e	0.06288968
144	0xbd8e1792	-0.069380894
145	0xbe1923aa	-0.14955011
146	0xbe8c6de7	-0.274276
147	0xba95520c	-0.001139225
148	0xbdae7d0e	-0.08519946
149	0xbdae4478	-0.08509153
150	0x3e2ee217	0.17078434
151	0x3e77b513	0.24190168
152	0xbea1a428	-0.31570554
153	0xbe282671	-0.16420914
154	0xbd91ed10	-0.07125294
155	0xb9f8f4a1	-0.0004748451
156	0xbd1e512f	-0.03865164
157	0xbe94173b	-0.28923973
158	0x3dc6aab6	0.09700529
159	0xbdb35c22	-0.08757807
160	0x3d6cdf82	0.05783034
161	0xbe0aa74f	-0.13540386
162	0xbca366c8	-0.01994647
163	0x3cf2d628	0.029643133
164	0xbd4f9e53	-0.0506881
165	0x3d441fdc	0.047881946
166	0xbd81bf37	-0.063352995
167	0xbec72b79	-0.38900355
168	0x3c2cf018	0.01055529
169	0x3dfb6c09	0.122764654
170	0xbddd5d77	-0.10808843
171	0xbd8c97a3	-0.0686486
172	0x3e6d88a8	0.23196661
173	0x3e322063	0.17395167
174	0x3e74392e	0.23849937
175	0x3e466bba	0.19377032
176	0xbeb0e22a	-0.3454755
177	0xbe677659	-0.2260374
178	0xbd1d6512	-0.038426466
179	0xbe9c964c	-0.30583417
180	0x3dad736c	0.084692806
181	0xbc23bd90	-0.009993926
182	0x3e3392f3	0.17536525
183	0xbd5f48ee	-0.05451291
184	0xbd720d84	-0.05909492
185	0x3d04153e	0.03224682
186	0xbde47a4f	-0.11156141
187	0x3d36e617	0.044653025
188	0x3e013395	0.12617333
189	0xbdb6160f	-0.08890926
190	0x3e674ebf	0.22588633
191	0xbb5958aa	-0.003316442
192	0xbc1354ee	-0.008992417
193	0xbd98bd84	-0.07458022
194	0xbde8123b	-0.11331602
195	0xbe2ddf69	-0.16979755
196	0xbe2678e1	-0.16257049
197	0x3da46923	0.08027866
198	0x3cda84dd	0.026674682
199	0x3e70d4c7	0.23518668
200	0xbe86488c	-0.26227224
201	0x3cc2a4a2	0.023760144
202	0x3d58de1d	0.0529462
203	0x3e679133	0.22613983
204	0x3ea4a390	0.32156038
205	0xbcb82960	-0.022480667
206	0x3e132fcf	0.14373706
207	0xbdd0d1ba	-0.10196252
208	0x3d4ac087	0.049500015
209	0x3e6790fb	0.226139
210	0xbebb94b0	-0.36636877
211	0xbdbfd9ea	-0.09367736
212	0xbe156389	-0.14588751
213	0xbdfc48f3	-0.123186015
214	0x3e5827d4	0.21108943
215	0x3eb18840	0.34674263
216	0x3e8ccbbe	0.27499193
217	0xbe3acf59	-0.1824316
218	0xbe064a5a	-0.131143
219	0x3d54e98d	0.051980544
220	0xbcf37c55	-0.029722372
221	0x3e5779bd	0.21042533
222	0x3ed36e9e	0.41295332
223	0x3e029704	0.1275292
224	0x3d1d2876	0.038368665
225	0x3e47cba4	0.19511276
226	0xbdb8613a	-0.090029195
227	0xbe4c0cad	-0.1992671
228	0xbd7d7c1f	-0.06188595
229	0xbe633d7a	-0.2219142
230	0xbd3414bf	-0.043965098
231	0x3dee77aa	0.11643918
232	0xbe47d879	-0.19516172
233	0xbd8c24c9	-0.06842954
234	0xbe475c7d	-0.19468875
235	0xbcaa8ef6	-0.020820122
236	0x3d24102f	0.040054496
237	0x3dd76ecc	0.1051918
238	0xbe0640b2	-0.13110617
239	0x3e6fc1fb	0.23413841
240	0xbe33ad2a	-0.17546526
241	0x3e02f5fd	0.1278915
242	0x3d464a9f	0.048411008
243	0xbe23b8fd	-0.15988536
244	0xbe68c2a1	-0.22730495
245	0xbc9bfb33	-0.01904068
246	0xbdee0a52	-0.11623062
247	0xbd052a69	-0.03251115
248	0xbcb0385d	-0.021511251
249	0x3d8fa8c8	0.07014614
250	0xbe31c5a1	-0.17360546
251	0x3dd7a0bc	0.105287045
252	0x3ea5a50c	0.32352483
253	0x3e555aa9	0.20835365
254	0xbe8cf224	-0.2752849
255	0xbe2aa72d	-0.16665335

affine_layers.1.bias f4 [64]
0	0x3dc54d4d	0.096338846
1	0xbe1cc803	-0.15310673
2	0xbdc2ed2d	-0.09517894
3	0xbe550f34	-0.20806581
4	0x3e07b847	0.1325389
5	0x3e0be418	0.1366123
6	0x3e657613	0.22408323
7	0x3e33054e	0.17482492
8	0xbda865f3	-0.0822257
9	0x3e45d918	0.19321096
10	0xbe4eadbe	-0.20183465
11	0xbe8adb9b	-0.2712067
12	0xbe4cac90	-0.19987702
13	0x3ccf5bbf	0.025312303
14	0xbde36aea	-0.111043766
15	0x3dea3a3c	0.114368886
16	0x3dcb7fd3	0.0993649
17	0x3e0ed3f8	0.13948047
18	0xbe3cafb9	-0.18426408
19	0x3df55fb2	0.11981143
20	0xbe00a7c4	-0.12563998
21	0xbe2fd48f	-0.17170928
22	0xbe1602b4	-0.14649469
23	0xbeb42400	-0.35183716
24	0x3e3586fb	0.17727272
25	0x3e7d89e8	0.24759638
26	0x3d905102	0.07046701
27	0xbe7cd981	-0.24692346
28	0x3e06f091	0.13177706
29	0x3e78cdc9	0.24297251
30	0xbe485170	-0.19562316
31	0x3e0cec08	0.13761914
32	0x3ddbfd8a	0.10741718
33	0xbe1c3f5d	-0.15258546
34	0xbe146752	-0.14492539
35	0xbe822f36	-0.25426644
36	0xbe971e8c	-0.29515493
37	0x3e13d5f4	0.14437085
38	0xbe434de0	-0.19072676
39	0xbe3d9788	-0.18514836
40	0xbe0d31cf	-0.13788532
41	0x3e274330	0.16334224
42	0xbe309cc8	-0.17247307
43	0x3e081ee5	0.13293035
44	0x3e2bc9db	0.1677622
45	0xbe4ba0b0	-0.19885516
46	0x3d6f9551	0.05849201
47	0x3e126977	0.14298044
48	0xbe42482c	-0.18972844
49	0xbed5e700	-0.41777802
50	0x3e3e2b29	0.18571152
51	0x3e2bcb0f	0.1677668
52	0x3e200109	0.15625395
53	0x3d5f3bc0	0.05450034
54	0xbe3072b6	-0.17231259
55	0x3e1a9f55	0.15099843
56	0x3e917a24	0.28413498
57	0x3e820beb	0.25399718
58	0xbe32f873	-0.17477588
59	0x3dd3aa26	0.103351876
60	0xbe5e9375	-0.21735938
61	0x3dfc2988	0.12312609
62	0x397af5a6	0.00023933369
63	0x3e1cbcfc	0.15306467

final.weight f4 [1, 64]
0	0x3d698b16	0.05701741
1	0xbddecc6d	-0.10878835
2	0xbd9ee0bf	-0.07757711
3	0xbe1e4d71	-0.15459229
4	0x3e5225e4	0.20522267
5	0x3dcfdb81	0.10149289
6	0x3dcdfaeb	0.100576244
7	0x3d9b2617	0.075756244
8	0xbd277711	-0.040885035
9	0x3e25cc77	0.16191278
10	0xbdaca55b	-0.084299766
11	0xbe394a4c	-0.18094748
12	0xbde2fd0b	-0.1108342
13	0x3dd2e0e7	0.10296803
14	0xbd3af191	-0.045640532
15	0x3d6f630e	0.058444075
16	0x3c4d6794	0.012536902
17	0x3ca1ce25	0.019751618
18	0xbd7fc2a9	-0.0624415
19	0x3d2ad71c	0.04170905
20	0xbcbb8495	-0.022890368
21	0xbe1223f8	-0.14271533
22	0xbdeb1451	-0.114784844
23	0xbdb178f2	-0.086656466
24	0x3e237eab	0.15966289
25	0x3e8848f8	0.2661817
26	0x3dcc15ed	0.099651195
27	0xbd6715d8	-0.056417316
28	0x3dbc334d	0.09189472
29	0x3da69df4	0.08135596
30	0xbd83d765	-0.064375676
31	0x3dd86b08	0.105672896
32	0x3d4ffbe6	0.05077734
33	0xbdd6c30e	-0.104864225
34	0xbd8b8e57	-0.068142585
35	0xbe1d2726	-0.15346965
36	0xbdec5acd	-0.115407564
37	0x3d99fea4	0.07519272
38	0xbd818187	-0.063235335
39	0xbdd96fc9	-0.106170245
40	0xbd780096	-0.060547434
41	0x3d1650f3	0.036698293
42	0xbd328c8c	-0.043591067
43	0x3d7d16d7	0.06178936
44	0x3e117dc2	0.14208129
45	0xbe8d5bd9	-0.27609137
46	0x3d207cae	0.039181404
47	0x3db0cd04	0.086328536
48	0xbd010903	-0.031502735
49	0xbe88a362	-0.2668715
50	0x3dee5b29	0.11638481
51	0x3cc8c272	0.024506781
52	0x3d1f5444	0.03889872
53	0x3e8b8da4	0.272565
54	0xbcfa6997	-0.030567927
55	0x3d8b5757	0.06803768
56	0x3e3657fb	0.17807
57	0x3e382151	0.17981459
58	0xbd77f676	-0.060537778
59	0x3d1a0367	0.0376009
60	0xbd935864	-0.071945935
61	0x3cf8ad11	0.030355962
62	0x3d926a35	0.07149164
63	0x3de5755a	0.11204024

log_stdev f4 [8]
0	0xbfbc0d03	-1.4691471
1	0xbfccd686	-1.6002967
2	0xbfabbc97	-1.3416928
3	0xbfedfb59	-1.859233
4	0xbfc3ca96	-1.5296199
5	0xbfecb5fc	-1.8493037
6	0xbfb230ac	-1.3921103
7	0xbfeca964	-1.8489194

affine_layers.0.weight f4 [64, 111]
0	0xbda159e3	-0.07878473
1	0xbdbd4a56	-0.09242694
2	0x3ca459c0	0.020062327
3	0x3db017df	0.08598303
4	0xbc868c76	-0.016424399
5	0xbe082287	-0.13294421
6	0x3d51b798	0.05120048
7	0x3d6d1462	0.057880767
8	0xbd37d952	-0.044884987
9	0x3d5e2ef9	0.054244015
10	0xbc97f4b6	-0.018549304
11	0x3d465851	0.04842407
12	0x3d04dd7f	0.032437798
13	0xbd2efd74	-0.04272218
14	0xbe6e3bbd	-0.23264976
15	0xbd76a6e3	-0.06021775
16	0x3ce98302	0.028504852
17	0x3e5fdcef	0.21861623
18	0x3e4319a7	0.19052754
19	0xbe804567	-0.2505295
20	0x3ea4910e	0.32141918
21	0x3d1c3263	0.03813399
22	0x3b23c33b	0.0024988193
23	0x3d9c678d	0.07636938
24	0xbe371693	-0.17879705
25	0xbc38d2d7	-0.011280737
26	0xbd0e0a72	-0.03467793
27	0x381266b9	3.490478e-05
28	0xb7c8411b	-2.3872175e-05
29	0xb69fc2c3	-4.7612425e-06
30	0x36fddda1	7.5657886e-06
31	0xb6d06a6c	-6.211272e-06
32	0xb5db990c	-1.6361314e-06
33	0xba0fd0d2	-0.0005486134
34	0xb9a0ad62	-0.00030646758
35	0xb9d52473	-0.00040653683
36	0x38b4ab5c	8.614987e-05
37	0xba3f561d	-0.00072989037
38	0x3af68290	0.0018807221
39	0x36b79cf0	5.472095e-06
40	0xb5a17fc8	-1.2032624e-06
41	0x380d7958	3.373003e-05
42	0xb81bf959	-3.7187103e-05
43	0xb7d4de85	-2.5375988e-05
44	0x35b09b26	1.3158176e-06
45	0x36fd983c	7.55771e-06
46	0x39be1409	0.0003625455
47	0xb912f742	-0.00014015756
48	0xb90b2c1a	-0.00013272502
49	0xb98b479c	-0.000265655
50	0x37e4b38f	2.7263332e-05
51	0x3df5989c	0.119919986
52	0x3e3efb11	0.18650462
53	0x3ada3a3d	0.0016649436
54	0xbcb2df71	-0.02183506
55	0x3a4cc500	0.0007811338
56	0xbd514731	-0.051093284
57	0x376030b0	1.3362776e-05
58	0xb7b7a943	-2.1894119e-05
59	0xb6b12d42	-5.2802798e-06
60	0x3707c39e	8.092173e-06
61	0xb78c55c1	-1.6729233e-05
62	0xb7590003	-1.2934211e-05
63	0xb9ddc012	-0.00042295508
64	0xb8b27b97	-8.510722e-05
65	0x365b4bf4	3.2677754e-06
66	0x383924b5	4.4141623e-05
67	0x38308d37	4.2093186e-05
68	0xba7873dd	-0.0009477714
69	0x3a6cb96a	0.00090303144
70	0x3d048d8c	0.032361552
71	0x3bf22a02	0.0073902616
72	0x3d5575a9	0.052114163
73	0x3c253ecc	0.010085773
74	0xbe05cf63	-0.13067393
75	0xb4cf0a98	-3.8564463e-07
76	0x37347385	1.0755733e-05
77	0x36e4ad3a	6.8150957e-06
78	0x35f5fc0a	1.8327275e-06
79	0x37544133	1.2651365e-05
80	0x36e48866	6.8108084e-06
81	0xb6e9490d	-6.9524453e-06
82	0xb87ceb2b	-6.03005e-05
83	0xb997bc5f	-0.00028941312
84	0x3833fa20	4.2909873e-05
85	0x3a459a56	0.00075379515
86	0xb99495cb	-0.00028340364
87	0x3bb46a34	0.0055058245
88	0xba89af6a	-0.0010504548
89	0x3e421239	0.18952264
90	0xbdbeef2c	-0.09322962
91	0xbc213a4c	-0.009840559
92	0xbd95adc2	-0.07308532
93	0x3755afb1	1.2736696e-05
94	0x3707ae7a	8.0872505e-06
95	0x36db3a8d	6.533525e-06
96	0x3753015b	1.2576896e-05
97	0xb788e9c2	-1.6321315e-05
98	0x37441304	1.1686938e-05
99	0x38c675d5	9.463324e-05
100	0x393d9a22	0.00018081864
101	0x38b8b767	8.807965e-05
102	0x398ada45	0.00026484035
103	0x389acbe1	7.381268e-05
104	0xb8806806	-6.1228915e-05
105	0x3ddbb287	0.10727411
106	0xbcfcb6a7	-0.030848814
107	0xbd6499ac	-0.055810615
108	0xbcd0086a	-0.025394637
109	0x3dca10d5	0.09866492
110	0xbbe1ab6b	-0.0068868897
111	0xbc95e8cd	-0.018299485
112	0xbe94becc	-0.29051816
113	0xbc009136	-0.007847121
114	0x3c8f5cb3	0.017500257
115	0xbde3af17	-0.1111738
116	0xbc6d7e13	-0.0144953905
117	0x3d02d403	0.03194047
118	0x3d3f4001	0.0466919
119	0xbe2125dd	-0.157371
120	0x3e1da36e	0.15394375
121	0xbe5cfb4d	-0.21580239
122	0x3d853c66	0.06505661
123	0x3e720c38	0.23637474
124	0xbedceda0	-0.43150043
125	0x3dd1adda	0.10238238
126	0x3d4e8358	0.050418228
127	0xbe189487	-0.14900409
128	0x3e73eeee	0.23821613
129	0x3d1f5db7	0.038907733
130	0xbc9c42b4	-0.019074775
131	0x3ca4ffad	0.020141447
132	0xbce9abe7	-0.028524352
133	0xbc695a9f	-0.014242797
134	0xbdb72f0a	-0.08944519
135	0xbe20a8d2	-0.156894
136	0xbbeb0f24	-0.0071734358
137	0x3d47c3d6	0.048770748
138	0x37d5bc62	2.5479301e-05
139	0x3671edc2	3.6050192e-06
140	0xb6eca2b1	-7.052288e-06
141	0xb7d71f82	-2.564467e-05
142	0xb7d93b97	-2.5896165e-05
143	0xb81f9d78	-3.805521e-05
144	0xb9717fd0	-0.00023031165
145	0xb9a5983a	-0.0003158467
146	0xb9dcc30b	-0.00042106988
147	0x39c1772f	0.00036900627
148	0xb9443813	-0.00018712906
149	0x3d14a61a	0.03629122
150	0x37ed64bb	2.8299508e-05
151	0x3798a5e9	1.819707e-05
152	0xb6ba82fc	-5.5584806e-06
153	0x36974cdb	4.509098e-06
154	0x36d838e2	6.4439237e-06
155	0x379fa976	1.9033188e-05
156	0xb9c0f579	-0.00036803985
157	0x399a709f	0.00029457078
158	0x38ca3537	9.6420226e-05
159	0x39c6147c	0.00037780765
160	0xb9bff22a	-0.00036610785
161	0x3a39a622	0.00070819457
162	0xbb365afa	-0.0027825222
163	0x3d4c4fd6	0.049880825
164	0xbccf03e3	-0.025270408
165	0xbd9c0f1f	-0.076200716
166	0xbd332929	-0.043740425
167	0x3d9b0721	0.07569719
168	0xb6e93213	-6.9497705e-06
169	0xb6f78075	-7.376128e-06
170	0xb7a518dc	-1.9681109e-05
171	0x372bdeec	1.0244297e-05
172	0x36ced26c	6.1637747e-06
173	0xb769148a	-1.3892664e-05
174	0xb847d671	-4.764501e-05
175	0x39c36634	0.00037269446
176	0xb8e31acb	-0.00010829194
177	0x3a319aaf	0.0006775064
178	0xba0c1267	-0.00053433183
179	0x38c69f0a	9.470999e-05
180	0x3cc860e5	0.024460265
181	0xbda1e6e7	-0.07905369
182	0x3da2db08	0.07951933
183	0x3ca038b9	0.019558297
184	0xbd1e9e68	-0.038725287
185	0xbcc5191c	-0.024059825
186	0xb797b81f	-1.808634e-05
187	0xb83713d3	-4.3649063e-05
188	0xb7dc490a	-2.6260055e-05
189	0x374fea94	1.2392778e-05
190	0x371f9dfa	9.51392e-06
191	0x353bccf3	6.996117e-07
192	0x3884dfc8	6.335933e-05
193	0xb7ffb53a	-3.0482759e-05
194	0xb9efc791	-0.0004573432
195	0x3925b0d1	0.00015801495
196	0x3a1dc428	0.0006018304
197	0x399ac03b	0.00029516392
198	0xbd0df971	-0.034661714
199	0x3dff1d9d	0.1245682
200	0xbe0f15b9	-0.1397313
201	0xbcc67bb2	-0.024228904
202	0x3d542258	0.051790565
203	0x3b14b05f	0.0022688133
204	0xb6960bf1	-4.4717385e-06
205	0x36bf08de	5.693276e-06
206	0x378cfe5f	1.6807751e-05
207	0xb78b2c64	-1.6590762e-05
208	0x375ac92c	1.30406515e-05
209	0xb5d760aa	-1.6046881e-06
210	0xb8ac909f	-8.228537e-05
211	0x38bca0ec	8.9945126e-05
212	0x387fae24	6.095892e-05
213	0xb8b80c4d	-8.776095e-05
214	0xb890711e	-6.887525e-05
215	0x3a3c2172	0.00071766146
216	0xbd5f4037	-0.0545046
217	0x3d8fe321	0.07025743
218	0x3c9ba2e7	0.018998576
219	0x3bd12212	0.0063822353
220	0x3d940266	0.0722702
221	0x3c26602d	0.010154766
222	0x3dcc4683	0.099743865
223	0xbd22aa86	-0.039713405
224	0x3cba1e43	0.022719508
225	0xbc582f3f	-0.013194858
226	0xbdf371f2	-0.11886968
227	0x3d8c142d	0.06839786
228	0xbd286991	-0.0411163
229	0xbd19c084	-0.037537113
230	0x3d973ae1	0.07384277
231	0x3dd37739	0.10325474
232	0x3d22f25d	0.039781917
233	0x3d8e8687	0.06959253
234	0xbd9d8f94	-0.07693401
235	0x3d46c9e0	0.048532367
236	0xbd2f1579	-0.042745087
237	0x3dc6de84	0.0971041
238	0x3cabbb46	0.020963322
239	0xbcc86b64	-0.02446527
240	0xbd8cdc22	-0.068779245
241	0x3de0a930	0.1096977
242	0x3eae4507	0.3403704
243	0x3cf5714d	0.029961253
244	0x3a698a23	0.00089088286
245	0xbdf1f98e	-0.11815177
246	0xbe1de188	-0.15418065
247	0xbdfc95b6	-0.123332426
248	0xbd6cf2ad	-0.05784862
249	0x372f8167	1.0460942e-05
250	0x3801b17d	3.0921296e-05
251	0xb712b72a	-8.744924e-06
252	0xb7702a60	-1.4314981e-05
253	0xb736fdb5	-1.0907116e-05
254	0x37d099ad	2.4867093e-05
255	0xb98f4827	-0.00027328843

affine_layers.0.bias f4 [64]
0	0x3dd79065	0.10525588
1	0xbf173f1d	-0.5908068
2	0xbc833bb6	-0.016019683
3	0x3ee487b5	0.44634786
4	0xbd461b6b	-0.04836599
5	0xbe88e0dd	-0.26734057
6	0x3b6d4fd5	0.0036210914
7	0xbea3bd38	-0.319803
8	0xbe0286a5	-0.12746675
9	0xbe8791c8	-0.2647841
10	0xbd79e5b1	-0.061010066
11	0x3e946c0e	0.2898869
12	0x3bbf05a5	0.0058295303
13	0x3dbacdf2	0.09121312
14	0x3f061516	0.52375925
15	0x3f36927d	0.71317273
16	0xbb9b94f8	-0.004747983
17	0x3eae83a1	0.340848
18	0x3ed5bf3a	0.41747457
19	0x3d104b53	0.035228085
20	0xbe99a326	-0.30007285
21	0x3ea6608a	0.32495528
22	0x3ea2a097	0.31763145
23	0x3e1b430e	0.15162298
24	0xbdfc1403	-0.123085044
25	0xbee69091	-0.4503217
26	0x3d13dab7	0.036097255
27	0xbde8416b	-0.113406025
28	0x3db6e660	0.08930659
29	0xbe9aea44	-0.30256855
30	0x3e977ab0	0.2958579
31	0xbdd4f6dc	-0.10398647
32	0x3ef4fca9	0.47849014
33	0x3f047d5f	0.517538
34	0x3eed4de3	0.46348485
35	0x3e26ed18	0.16301382
36	0x3f1c0bde	0.6095561
37	0x3e404ba3	0.18778853
38	0xbdd60c3b	-0.104515515
39	0xbec1ad2c	-0.37827432
40	0xbdc08a1e	-0.09401344
41	0xbf031eba	-0.5121876
42	0x3df49640	0.119427204
43	0x3d846db4	0.06466237
44	0x3e3cc367	0.18433915
45	0x3dc7b19e	0.09750675
46	0x3eb7541b	0.35806355
47	0x3e673c04	0.22581488
48	0xbd3501fd	-0.04419135
49	0x3e90553d	0.28190032
50	0xbe5e7db8	-0.21727645
51	0x3eeb36b2	0.45940167
52	0x3c847018	0.016166732
53	0x3d9b4e26	0.07583265
54	0x3e19b21f	0.15009354
55	0x3cfd7b22	0.030942503
56	0xbde7f90b	-0.11326798
57	0x3e56b7e5	0.20968588
58	0xbe3d6003	-0.18493657
59	0xbeee6660	-0.4656248
60	0x3ef4fdbb	0.4784983
61	0xbf23def7	-0.6401209
62	0x3e541697	0.20711742
63	0xbebef547	-0.37296507

affine_layers.1.weight f4 [64, 64]
0	0x3d579872	0.052635618
1	0xbee59fff	-0.4484863
2	0xbe081798	-0.1329025
3	0x3df97834	0.1218113
4	0x3e04a0dc	0.12951988
5	0xbe745a8c	-0.23862666
6	0xbdea5e27	-0.114437394
7	0xbd38e8e1	-0.045143966
8	0x3e474467	0.19459687
9	0xbd49161f	-0.049093362
10	0x3ea48db1	0.32139352
11	0x3e06fedf	0.13183163
12	0xbe53240d	-0.20619221
13	0x3df5c2b2	0.12000026
14	0xbdbb13b4	-0.091346174
15	0x3e885655	0.26628366
16	0xbebbe658	-0.36699176
17	0x3cbccb21	0.023046078
18	0x3e212a1c	0.1573872
19	0x3e0336a4	0.12813812
20	0xbe0feb19	-0.14054526
21	0x3dfc97af	0.12333619
22	0x3dd04648	0.10169655
23	0x3eb4c1c8	0.35304093
24	0x3e79a6c5	0.24380024
25	0xbddaa2f4	-0.10675612
26	0x3e8253e0	0.25454617
27	0xbbf78be4	-0.007554518
28	0x3d567130	0.052354038
29	0xbe085674	-0.13314229
30	0x3cca4cd5	0.02469484
31	0x3d7fa0c8	0.062409192
32	0xbe5e321c	-0.21698803
33	0x3e9c2290	0.3049512
34	0xbe02d9e7	-0.12778436
35	0x3d915f1f	0.07098221
36	0xbe944c49	-0.2896445
37	0xbdfe545e	-0.124184355
38	0x3c991d3c	0.018690698
39	0xbe62740f	-0.22114585
40	0x3deee177	0.11664098
41	0xbe66f7c1	-0.22555448
42	0x3b151145	0.002274589
43	0xbe268f7f	-0.16265677
44	0xbe08a25c	-0.13343185
45	0xbda8daf5	-0.08244888
46	0xbd80d9c3	-0.06291535
47	0x3e12e3b2	0.14344671
48	0xbdaaa717	-0.08332651
49	0xbe6e637d	-0.2328014
50	0x3da3584b	0.07975825
51	0x3e9911f9	0.29896525
52	0xbca8e07d	-0.020614857
53	0x3e7b5c3e	0.24546906
54	0xbccc0611	-0.024905236
55	0x3cc902cc	0.024537466
56	0xbd177e87	-0.0369859
57	0xbe2fd57b	-0.1717128
58	0xbe8db219	-0.2767494
59	0xbe2a32e4	-0.16620976
60	0x3e1017eb	0.14071624
61	0xbe4538ac	-0.192599
62	0x3d7c8969	0.061654482
63	0xbe1126bb	-0.14174931
64	0x3b1842f3	0.0023233264
65	0xbc51bd7f	-0.012801527
66	0xbe1cd4d8	-0.15315568
67	0xbcd018b4	-0.025402404
68	0x3dda374c	0.10655078
69	0xbe3d1f5a	-0.18468991
70	0x3da3b07a	0.079926446
71	0xbcb9368e	-0.022609022
72	0x3e2d9f7a	0.16955367
73	0xbdafddb6	-0.0858721
74	0xbdeabbb1	-0.114615805
75	0xbe2e993f	-0.17050646
76	0xbe24b1dd	-0.16083474
77	0x3ce0e2f7	0.027451975
78	0xbe3ce331	-0.18446042
79	0x3d5e6ac0	0.054301023
80	0x3cea9d69	0.028639512
81	0x3cd70512	0.026247535
82	0xbdce49e3	-0.100726865
83	0xbdd0a3fb	-0.10187527
84	0x3d835ad6	0.0641381
85	0xbd3ac2c1	-0.045595888
86	0x3e119596	0.14217219
87	0xbdf73852	-0.12071289
88	0xbe86f827	-0.263612
89	0xbe27da75	-0.16391928
90	0x3db3ed80	0.08785534
91	0xbd6cc924	-0.05780901
92	0xbd80d538	-0.06290668
93	0x3da642be	0.08118199
94	0xbeb9d50e	-0.3629536
95	0x3eac35de	0.33634847
96	0x3e5ce019	0.21569861
97	0x3e9d908f	0.30774352
98	0x3c32c083	0.010910156
99	0xbca371f7	-0.019951804
100	0xbef78b11	-0.48348287
101	0xbe3030d2	-0.17206123
102	0xbd4d28c6	-0.050087713
103	0x3ea4483c	0.3208636
104	0xbc829216	-0.0159388
105	0x3e8782ae	0.26466888
106	0x3cfaca93	0.030614173
107	0x3c980798	0.018558308
108	0xbd9c2b4f	-0.07625448
109	0x3aa6a1bd	0.0012712997
110	0x3e9453e2	0.28970248
111	0xbeb03140	-0.34412575
112	0x3dc10342	0.094244495
113	0xbe10ccc8	-0.14140618
114	0x3d4523e3	0.048129927
115	0xbd2d42d3	-0.042300057
116	0xbe42d9cf	-0.190284
117	0xbe695fd6	-0.22790465
118	0xbd60cc25	-0.054882187
119	0x3e276c7c	0.16349977
120	0xbe442eda	-0.19158497
121	0x3e45d814	0.19320709
122	0x3e1614d2	0.1465638
123	0x3ee420a6	0.4455616
124	0x3dc62461	0.096749075
125	0xbc0b93ca	-0.008519122
126	0xbd0ce9cb	-0.03440265
127	0x3e7cc5e4	0.24684864
128	0x3da168d3	0.07881322
129	0x3d9a2275	0.075261034
130	0xbe747d02	-0.23875812
131	0xbc53a335	-0.01291733
132	0x3e140dec	0.14458436
133	0xbb6559be	-0.0034996117
134	0xbe396fc0	-0.18109035
135	0x3d0b85a7	0.034063008
136	0xbd83eb2a	-0.06441338
137	0x3dc5c6ea	0.096570805
138	0x3e14a3af	0.14515565
139	0xbdd73f6c	-0.10510144
140	0x3def1a18	0.11674899
141	0x3de39571	0.11112488
142	0x3e1c16ac	0.15243024
143	0xbd004c42	-0.031322725
144	0x3e8153c5	0.25259224
145	0x3e4ae690	0.19814515
146	0xbd9e6fbd	-0.07736156
147	0xbcc9254b	-0.024553915
148	0xbd916419	-0.0709917
149	0xbc198ac7	-0.009371466
150	0x3eb01db1	0.34397653
151	0x3cbf05cd	0.023318196
152	0x3e2fdd34	0.17174226
153	0x3be9dfee	0.00713729
154	0xbe8dfb6b	-0.2773088
155	0x3ea25d7c	0.31711948
156	0x3cc7ec0f	0.024404554
157	0xbc9a07cf	-0.018802552
158	0xbdd11aa8	-0.102101624
159	0xbe0112cd	-0.12604828
160	0xbd8c79a2	-0.06859137
161	0xbe1540f4	-0.14575559
162	0xbe41ec2d	-0.1893775
163	0xbd8d105f	-0.06887888
164	0xbda392c6	-0.07986979
165	0x3df0b4e7	0.117532544
166	0x3cf3d77b	0.029765835
167	0xbd83f123	-0.064424776
168	0xbe048f66	-0.12945327
169	0x3dd62fa4	0.104583055
170	0x3d033108	0.03202918
171	0x3c5b626e	0.013390167
172	0x3d313b56	0.043269478
173	0xbde5a5d9	-0.112132736
174	0x3ebb1777	0.3654134
175	0xbba28852	-0.0049600983
176	0x3e7323c4	0.23744112
177	0xbeda557f	-0.42643353
178	0x3d1e6dfc	0.038679108
179	0xbccd13f4	-0.025033928
180	0xbe2cc61f	-0.16872452
181	0xbeae8024	-0.3408214
182	0xbe16b275	-0.14716513
183	0xbf03f432	-0.5154449
184	0x3e86c6d3	0.26323566
185	0xbdb7be96	-0.08971898
186	0xbda1d62a	-0.07902177
187	0xbc932bb6	-0.017965179
188	0x3c14b858	0.009077154
189	0xbebc10fd	-0.3673171
190	0x3e3e7f3d	0.18603225
191	0xbdcb6bfe	-0.09932707
192	0x3e0b4786	0.13601503
193	0xbda9d2a4	-0.0829213
194	0x3da13c53	0.07872834
195	0x3d8c3cbe	0.06847523
196	0x3e0457fc	0.12924188
197	0xbe85d8d3	-0.26141986
198	0xbee87625	-0.45402637
199	0xbdd6c810	-0.10487378
200	0xbd929f6a	-0.07159312
201	0x3dfbb57b	0.12290474
202	0xbe14c9d7	-0.14530121
203	0x3d26c84c	0.04071836
204	0x3e0f512e	0.13995811
205	0xbe63a34e	-0.22230265
206	0xbe90bf68	-0.2827103
207	0xbd864b52	-0.06557335
208	0x3d857af4	0.06517592
209	0x3d10cbe6	0.035350703
210	0xbe68126a	-0.22663274
211	0x3dbaa544	0.09113553
212	0xbddbd63d	-0.10734222
213	0x3ebc4873	0.36774024
214	0xb9f350af	-0.00046408686
215	0xbe34c42f	-0.17652963
216	0x3d4324b0	0.04764241
217	0x3e29a6aa	0.16567484
218	0xbe9c1bbf	-0.3048992
219	0x3d5514ee	0.052021913
220	0xbe0f3c9a	-0.13987961
221	0xbd211e25	-0.03933539
222	0xbdd35bad	-0.1032022
223	0x3e214609	0.15749373
224	0xbe72d999	-0.2371582
225	0xbeaae25b	-0.3337582
226	0x3e17bc6c	0.14817971
227	0xbed69cf1	-0.41916612
228	0xbe3486a8	-0.17629492
229	0x3bf73479	0.007544097
230	0xbe699b05	-0.22813042
231	0x3c4217ec	0.011846524
232	0xbe4c4b22	-0.19950536
233	0xbe03839f	-0.12843178
234	0x3e16ebf1	0.14738442
235	0xbd255e77	-0.04037329
236	0x3cf0c194	0.02938918
237	0x3db7d6c3	0.089765094
238	0xbdb76b13	-0.0895597
239	0x3e538714	0.20656997
240	0x3e936db9	0.2879465
241	0x3e14c8b3	0.14529686
242	0x3e13dbfe	0.14439389
243	0xbc840c9b	-0.016119292
244	0x3b24ba02	0.0025135283
245	0x3e7c4682	0.24636272
246	0xbe57ebd6	-0.21086058
247	0x3dfa5ade	0.12224363
248	0xbd46f91d	-0.048577417
249	0x3e9c67c7	0.30547926
250	0xbe12c5d0	-0.14333272
251	0x3e081a0f	0.1329119
252	0x3e662806	0.22476205
253	0x3cc500fe	0.024048325
254	0xbe0a7e99	-0.13524856
255	0x3de07177	0.10959142

affine_layers.1.bias f4 [64]
0	0x3d9f408c	0.07775983
1	0x3db1e9e4	0.08687189
2	0x3e0b9a1f	0.13633011
3	0xbd867b22	-0.065664545
4	0x3dfffaff	0.124990456
5	0x3e8815b2	0.26579052
6	0xbde60eae	-0.11233269
7	0x3dd3e998	0.10347289
8	0xbd05e166	-0.03268566
9	0xbe048ff6	-0.12945542
10	0xbe728a5e	-0.23685595
11	0x3e88ceee	0.26720375
12	0xbd81a78b	-0.063307844
13	0xbe78e591	-0.24306323
14	0x3c5e14a7	0.013554729
15	0x3e8e18a7	0.27753183
16	0xbea5926b	-0.3233827
17	0xbe9317bf	-0.28729054
18	0xbda674f7	-0.08127778
19	0xbe01a7e8	-0.12661707
20	0xbd968bb5	-0.07350866
21	0x3d61ea3b	0.05515502
22	0x3e3ef144	0.18646723
23	0xbe7638f0	-0.24045157
24	0x3d4b34a4	0.04961075
25	0xbde24f6c	-0.11050305
26	0xbd9ed40b	-0.07755288
27	0x3d692653	0.056921314
28	0xbcdabef8	-0.02670239
29	0x3e97f67a	0.29680234
30	0xbebd05e7	-0.36918566
31	0x3ea4996f	0.3214831
32	0xbe42fb9c	-0.19041294
33	0x3d36e871	0.044655267
34	0x3daa5b24	0.08318165
35	0x3d9eec96	0.07759969
36	0x3cab5d39	0.020918475
37	0xbdb7616f	-0.08954131
38	0x3e98ca5e	0.29841894
39	0xbd9eef57	-0.07760494
40	0xbe979ccd	-0.29611817
41	0x3e5979b7	0.21237837
42	0xbd939223	-0.07205608
43	0xbe246093	-0.16052465
44	0xbe2b4b95	-0.16728051
45	0x3d0fc245	0.03509738
46	0x3e80f629	0.25187805
47	0x3e82751b	0.2547997
48	0x3e5263e1	0.20545913
49	0x3e36c63d	0.1784906
50	0xbe361692	-0.17782047
51	0x3e5301c7	0.20606147
52	0x3cf4ec4b	0.02989783
53	0x3d8f86e6	0.07008152
54	0xbd808b3f	-0.06276559
55	0x3e147ee0	0.14501524
56	0xbc0f0b33	-0.008730697
57	0xbd5ebdda	-0.054380275
58	0x3e55bd8e	0.2087309
59	0x3d05a7db	0.032630783
60	0x3e520900	0.20511246
61	0xbd7fcedb	-0.062453132
62	0x3df37d58	0.11889142
63	0x3e9a887a	0.30182248

final_mean.weight f4 [8, 64]
0	0xba17a378	-0.00057845516
1	0xb9b0c8c1	-0.0003371891
2	0xba8343f6	-0.0010014761
3	0xba549ed9	-0.00081108283
4	0xb9a0b9cf	-0.00030656016
5	0x3a86618a	0.0010252458
6	0x3d1a490d	0.037667323
7	0x3c22b345	0.0099304365
8	0xbbffc8f7	-0.0078059393
9	0xba423036	-0.00074076967
10	0xbccbc0ba	-0.024872173
11	0x3d4152b6	0.04719802
12	0x3b6187f3	0.0034413307
13	0x3c00d6a0	0.007863671
14	0xbc83b601	-0.016077997
15	0xbadb9f6a	-0.0016755883
16	0x3c00e4a1	0.007867009
17	0xbb2083f6	-0.0024492717
18	0xbbfc53c6	-0.0077004163
19	0xbaefad79	-0.0018285952
20	0x3c396b5e	0.011317102
21	0xbbf5b0be	-0.007497876
22	0xbcc51766	-0.024059009
23	0xbc2b370e	-0.010450138
24	0xbabbdc81	-0.0014332683
25	0x3cb82c49	0.022482054
26	0xbba6e048	-0.0050926544
27	0xbc1c3a18	-0.009535335
28	0xbb1801be	-0.0023194398
29	0xbbd4dbf0	-0.006495945
30	0xbbef4fb1	-0.007303201
31	0x3cbbb11f	0.022911606
32	0xbb92b392	-0.004476973
33	0x3c903146	0.01760162
34	0x3b1b7eaf	0.0023726632
35	0xba74cf6e	-0.0009338771
36	0x3c39945d	0.0113268765
37	0x3c7016aa	0.014653841
38	0xbc10db4d	-0.008841348
39	0xbbd050f7	-0.006357308
40	0xbc2c1325	-0.010502611
41	0x3c04f774	0.008115638
42	0xbbe000e2	-0.0068360427
43	0x3bafbf3e	0.005363374
44	0x39beca18	0.00036390196
45	0x3c6f555b	0.014607753
46	0x3dc1e761	0.0946796
47	0x3ce26d3d	0.02763998
48	0xbc16d29e	-0.0092054885
49	0x3b98ddcc	0.004665112
50	0x3c913660	0.017726123
51	0xbd55b323	-0.05217279
52	0x3c6fed47	0.014643974
53	0x3c19d509	0.00938917
54	0xbc323f25	-0.010879313
55	0x3b92dc15	0.004481802
56	0xbc5abe18	-0.013350986
57	0x3b747369	0.0037300235
58	0xb9b2c9db	-0.000341012
59	0xbd0d29e1	-0.034463767
60	0xbba8994d	-0.005145228
61	0x3ca41f75	0.020034531
62	0xbb77a0ff	-0.003778517
63	0xbbdf5ebd	-0.0068167136
64	0x3be2ca90	0.00692112
65	0x3bc11228	0.005892057
66	0xbbe046bb	-0.006844369
67	0xba5133db	-0.00079804444
68	0x3bbbb24c	0.0057280418
69	0xbb8dfd77	-0.004333194
70	0x3c322a84	0.010874394
71	0x3c5709bb	0.0131248785
72	0x3c10777e	0.008817552
73	0xbc03e945	-0.008051221
74	0xbcea3c50	-0.028593212
75	0x3c8b4723	0.017001694
76	0xba1019bd	-0.00054969994
77	0xbb549b95	-0.0032441367
78	0x3ba60e36	0.005067612
79	0xbd34d68b	-0.044149917
80	0x3c63ce06	0.0139041
81	0xbc9d3781	-0.019191505
82	0xba945849	-0.0011317815
83	0x3c3e6872	0.011621581
84	0xbb0dbfd2	-0.0021629226
85	0x3a99e41e	0.0011740958
86	0x3c023970	0.0079482645
87	0x3c4f0ae8	0.012636878
88	0xbbde46a6	-0.0067833243
89	0x3bb1a982	0.0054218182
90	0x3bf532ea	0.007482876
91	0xbc579482	-0.013157966
92	0x3c110afc	0.008852717
93	0xbc3d6f38	-0.011562161
94	0x3cd7f713	0.026362931
95	0xbcca79fc	-0.02471637
96	0x3c468fa6	0.012119209
97	0xbbb908a3	-0.0056467815
98	0x3c0010b5	0.007816483
99	0x3af0cc97	0.0018371519
100	0x3b5713c1	0.003281817
101	0x3c62eb8d	0.013850105
102	0xbd3de2f1	-0.046359006
103	0xbc43df2a	-0.011955062
104	0x38924b96	6.9759015e-05
105	0x39fba520	0.00047997478
106	0xbb2a13b3	-0.0025951683
107	0x3c40f882	0.011777999
108	0x3c24839a	0.010041142
109	0x3c619011	0.013767258
110	0xbcf8eeec	-0.030387364
111	0xbce5273d	-0.027972812
112	0x3c9f8a9d	0.019475276
113	0xbc134a08	-0.008989818
114	0x3d7d766f	0.061880525
115	0x3c7326d1	0.0148407975
116	0x3c5e1bb5	0.013556411
117	0xbc3a4e3c	-0.011371192
118	0x3b693a2e	0.0035587656
119	0xbc881d7a	-0.016615618
120	0x3a8da947	0.0010807895
121	0xbbf65678	-0.007517632
122	0xbbbc7481	-0.005751193
123	0xbbeef9b4	-0.0072929505
124	0x3a64e2a3	0.0008731281
125	0xbc0bc141	-0.008529962
126	0xbbd51c64	-0.0065036286
127	0xbcbb672f	-0.02287635
128	0x3ce78b92	0.028264794
129	0xbcc067fc	-0.023487084
130	0x3b88a683	0.0041702404
131	0xba8f26b7	-0.0010921572
132	0xbc0f9793	-0.008764165
133	0x3ab404dd	0.001373436
134	0xbd114f04	-0.035475746
135	0xbd850c78	-0.06496519
136	0x3cb34bcd	0.02188673
137	0xba95f5b9	-0.0011441029
138	0x3dda066c	0.10645756
139	0xbd61ccd8	-0.055126995
140	0x3c58a678	0.013223283
141	0x3bc1a5f1	0.0059096743
142	0x3c217a85	0.009855871
143	0xbd73cbbf	-0.05952048
144	0xbc7b49b8	-0.0153374
145	0x3e13519a	0.14386597
146	0x3c680aef	0.014162763
147	0xbcfe2737	-0.031024558
148	0xbc1bcdc3	-0.009509507
149	0xbc38e204	-0.011284355
150	0x3cf93cc7	0.030424489
151	0x3d87f264	0.06638029
152	0x3a976cb6	0.0011552784
153	0xbbe23b37	-0.0069040316
154	0x3dcf4e36	0.101223394
155	0x3d244151	0.040101353
156	0xbba0cf0b	-0.004907494
157	0xbd06f82e	-0.032951526
158	0xbbde6938	-0.0067874454
159	0xbd585a03	-0.052820217
160	0x3d039d9e	0.032132737
161	0xbba6d780	-0.0050916076
162	0xbd215279	-0.039385293
163	0x3bee03d2	0.007263639
164	0xbb374a40	-0.002796784
165	0xbd681ddc	-0.0566691
166	0x3de70302	0.112798706
167	0x3c98db4e	0.01865926
168	0x3d89e268	0.06732637
169	0xbc1cc3c8	-0.009568162
170	0x3d03bb7a	0.032161213
171	0xbbb685bf	-0.005570143
172	0xbcce381c	-0.02517324
173	0xbd1a8d0d	-0.037732173
174	0x3c41c09f	0.01182571
175	0xbd9fdfb5	-0.078063406
176	0xbdb10853	-0.08644166
177	0x3d23f749	0.04003075
178	0xbc75bbe6	-0.014998412
179	0x3dd87740	0.1056962
180	0xbd865181	-0.065585144
181	0x3d0d60ba	0.034516074
182	0xba13c999	-0.00056376454
183	0x3d02f679	0.031973336
184	0x3c42db64	0.011893127
185	0x3cdbf153	0.02684847
186	0x3ab34cec	0.0013679541
187	0x3d092dd2	0.033490963
188	0xbc79f37c	-0.015255805
189	0xbb3a1ce5	-0.002839857
190	0xba494edb	-0.0007679292
191	0x3d8baa3d	0.0681958
192	0x3cfbec38	0.030752286
193	0xbc1bd6d9	-0.009511673
194	0xbbb26c97	-0.005445074
195	0xbafd4508	-0.0019322941
196	0xbbb289f7	-0.0054485756
197	0xbb8c4d84	-0.0042817015
198	0xbcb7ec78	-0.022451624
199	0xbcdc1e5c	-0.026869945
200	0x3c9e73ca	0.019342322
201	0x3acd4ce7	0.0015663177
202	0xbc61167e	-0.013738273
203	0x3ddfb7e3	0.109237455
204	0x3aff0bf6	0.0019458521
205	0x39e0cd06	0.00042877364
206	0x3c17e940	0.00927192
207	0x3deb0d50	0.114771485
208	0x3d89bd01	0.06725503
209	0x3d9dab86	0.07698731
210	0x3baacb73	0.0052122413
211	0x3ac5fbfa	0.0015105002
212	0x3ba2f8e5	0.004973518
213	0x3b0d1b28	0.002153108
214	0xbbded0de	-0.0067998013
215	0x3d164bdb	0.036693435
216	0x3c4a9926	0.012365615
217	0xbbca36ae	-0.006171069
218	0x3d49d474	0.049274877
219	0x3c22f443	0.009945932
220	0x3b3969c5	0.0028291803
221	0xbe00ba17	-0.12570988
222	0x3b06cdc2	0.0020569419
223	0x3cf3f045	0.029777655
224	0x3c8ba9cb	0.017048737
225	0xbb4622d9	-0.0030233173
226	0xbc415699	-0.011800432
227	0x3c4b7ca1	0.012419851
228	0xbc2e5957	-0.0106414175
229	0xbc2e1cb9	-0.010626965
230	0x3d9ab6b3	0.07554378
231	0x3ceceb3b	0.02892076
232	0xbc3cbbe4	-0.011519406
233	0xbc7b51ad	-0.015339297
234	0x3bca663b	0.0061767376
235	0xbbb8df04	-0.00564182
236	0xbc1d9607	-0.009618289
237	0xbbfc546d	-0.007700494
238	0xbc1649ba	-0.009172851
239	0xbd435290	-0.04768616
240	0xbd40bc59	-0.047054622
241	0x3cfa10f6	0.030525666
242	0xbcb78be4	-0.022405572
243	0x3d04720c	0.032335326
244	0xba3361f1	-0.00068429025
245	0x3be6706a	0.007032444
246	0xbc830168	-0.015991881
247	0xbd07473f	-0.03302693
248	0x3c68003a	0.01416021
249	0x3c41761f	0.011807947
250	0xbba8bb07	-0.0051492485
251	0x3b40be14	0.002941017
252	0x3b68c511	0.0035517851
253	0x3bc5a1de	0.006031259
254	0xba0ab3ff	-0.0005291104
255	0xbcd3849c	-0.025820069

final_mean.bias f4 [8]
0	0x3aae3295	0.0013290221
1	0xbdc3a0d4	-0.0955216
2	0xbc3fe94e	-0.011713339
3	0xbdc9bf83	-0.09850981
4	0xbdd5ed28	-0.104456246
5	0x3e559cea	0.20860639
6	0x3ca71fa4	0.02040083
7	0x3dfb51be	0.122714505

exp_avg f4 [64, 111]
0	0x39164f77	0.00014334718
1	0xb97bfb02	-0.00024030733
2	0x38e9c605	0.0001114719
3	0x382bd629	4.096903e-05
4	0x3a54b03b	0.00081134186
5	0xb9357b4b	-0.00017307435
6	0x38dfc821	0.000106707455
7	0x39adfcde	0.00033185532
8	0x38cd9a7f	9.803939e-05
9	0x3987e3b5	0.00025918862
10	0x3867356f	5.5124456e-05
11	0x39d0b82b	0.00039810067
12	0xb8b8b1e7	-8.8069406e-05
13	0xb9ebcab8	-0.0004497373
14	0x3a9c963c	0.0011946629
15	0xb90adc7e	-0.00013242845
16	0xb9081b00	-0.00012980029
17	0x399002d5	0.0002746793
18	0xb961b224	-0.00021524035
19	0x37d3a7a9	2.5231233e-05
20	0x39254ffa	0.0001576542
21	0x387a3a01	5.9658665e-05
22	0xb7d73d36	-2.56585e-05
23	0x382a6f40	4.0634768e-05
24	0xb89bb308	-7.424323e-05
25	0x39e83b32	0.00044294592
26	0x38d24f6b	0.00010028373
27	0x00000000	0.0
28	0x00000000	0.0
29	0x00000000	0.0
30	0x00000000	0.0
31	0x00000000	0.0
32	0x00000000	0.0
33	0xb51cb2bb	-5.8374616e-07
34	0xb605811c	-1.9893696e-06
35	0xb5088326	-5.0854794e-07
36	0xb5dfc825	-1.6673044e-06
37	0x35253059	6.1537645e-07
38	0xb861bd7f	-5.3820662e-05
39	0x00000000	0.0
40	0x00000000	0.0
41	0x00000000	0.0
42	0x00000000	0.0
43	0x00000000	0.0
44	0x00000000	0.0
45	0xb543da3e	-7.2960745e-07
46	0x34a54387	3.0782778e-07
47	0xb4d127ab	-3.8958146e-07
48	0x336f22bd	5.5678118e-08
49	0x344dbf70	1.9161757e-07
50	0xb727cb54	-1.0001317e-05
51	0xb8a795bb	-7.99107e-05
52	0xb930831c	-0.0001683351
53	0xb9127cb8	-0.00013970106
54	0x393a2a8c	0.00017754192
55	0x393bff3b	0.0001792879
56	0xb8a64b8e	-7.92957e-05
57	0x00000000	0.0
58	0x00000000	0.0
59	0x00000000	0.0
60	0x00000000	0.0
61	0x00000000	0.0
62	0x00000000	0.0
63	0xb41e54ea	-1.4745788e-07
64	0x35f4c575	1.8236884e-06
65	0xb5ef97c9	-1.7851063e-06
66	0x357b5af2	9.363713e-07
67	0xb4aafad3	-3.1847466e-07
68	0xb78ab041	-1.6532957e-05
69	0xba6f87ee	-0.00091373816
70	0xba047277	-0.0005052457
71	0x39c6bd0f	0.00037906363
72	0x3a086703	0.0005203338
73	0xba3a7c32	-0.00071138435
74	0xba0552a4	-0.0005085862
75	0x00000000	0.0
76	0x00000000	0.0
77	0x00000000	0.0
78	0x00000000	0.0
79	0x00000000	0.0
80	0x00000000	0.0
81	0x35c8d586	1.4963305e-06
82	0x32c6659f	2.3096446e-08
83	0x357abef5	9.3410137e-07
84	0x3207cfb3	7.90526e-09
85	0xb4dab2af	-4.0735674e-07
86	0xb74c4e2d	-1.2177549e-05
87	0xb91e57bb	-0.00015100736
88	0xba027b55	-0.00049774844
89	0xb7be45bb	-2.2682236e-05
90	0x38802ded	6.11207e-05
91	0x38c0ab6c	9.187203e-05
92	0x391ab46d	0.00014753798
93	0x00000000	0.0
94	0x00000000	0.0
95	0x00000000	0.0
96	0x00000000	0.0
97	0x00000000	0.0
98	0x00000000	0.0
99	0xb3544a80	-4.9427854e-08
100	0xb53c9efb	-7.0266805e-07
101	0x34721965	2.2547245e-07
102	0xb4bfbd77	-3.5714376e-07
103	0x32c6a05e	2.312316e-08
104	0xb713ccea	-8.809593e-06
105	0xb7120470	-8.703311e-06
106	0x3884a94a	6.325783e-05
107	0xb7880620	-1.6215316e-05
108	0x382eeef3	4.170737e-05
109	0xb7257862	-9.862795e-06
110	0xb897d6fb	-7.240284e-05
111	0xb7a02310	-1.9089814e-05
112	0xb9898547	-0.00026229976
113	0x39308acb	0.00016836372
114	0x397a12f6	0.00023848921
115	0x3a9635ab	0.0011460086
116	0x3aa2118e	0.0012364851
117	0x3a4009be	0.00073256704
118	0x3985eb4c	0.00025543047
119	0x3926c756	0.00015905252
120	0xba89fc4c	-0.0010527461
121	0x387c577d	6.016296e-05
122	0xb9888278	-0.00026037148
123	0xb80ef62e	-3.408471e-05
124	0x3983ce87	0.00025140142
125	0x3ad5ec72	0.0016321077
126	0x3ac665db	0.0015136556
127	0xb9be3a44	-0.00036283035
128	0x39ec5629	0.00045077622
129	0xb964be65	-0.00021814702
130	0x3993922c	0.0002814693
131	0x37bfcfa7	2.286567e-05
132	0xb8d97020	-0.00010368251
133	0x3770bfc4	1.4349764e-05
134	0xb642fa85	-2.9054074e-06
135	0x38145558	3.5365432e-05
136	0x3a0a496f	0.00052752247
137	0x38d6beed	0.00010239878
138	0x00000000	0.0
139	0x00000000	0.0
140	0x00000000	0.0
141	0x00000000	0.0
142	0x00000000	0.0
143	0x00000000	0.0
144	0xb54d0b62	-7.6385015e-07
145	0xb62eb1e1	-2.603156e-06
146	0xb532a173	-6.6545107e-07
147	0xb61269b4	-2.1817223e-06
148	0x355827ad	8.0524006e-07
149	0xb893b19e	-7.04259e-05
150	0x00000000	0.0
151	0x00000000	0.0
152	0x00000000	0.0
153	0x00000000	0.0
154	0x00000000	0.0
155	0x00000000	0.0
156	0xb58023c1	-9.547149e-07
157	0x34d840c0	4.0280247e-07
158	0xb508d7c9	-5.0977957e-07
159	0x339c7556	7.2856594e-08
160	0x34869d23	2.5073777e-07
161	0xb75b906b	-1.3087042e-05
162	0xb8bdf4ca	-9.057818e-05
163	0x3941765c	0.00018450007
164	0x39930e2b	0.0002804858
165	0xb9984bee	-0.0002904827
166	0x3a2bfb38	0.0006560567
167	0xb8d3140b	-0.00010064997
168	0x00000000	0.0
169	0x00000000	0.0
170	0x00000000	0.0
171	0x00000000	0.0
172	0x00000000	0.0
173	0x00000000	0.0
174	0xb44f2e9f	-1.9295338e-07
175	0x36202540	2.386354e-06
176	0xb61cc1e9	-2.3358682e-06
177	0x35a4740d	1.2252727e-06
178	0xb4dfbb84	-4.1673422e-07
179	0xb7b57a6d	-2.163389e-05
180	0xbacbfb7f	-0.0015562623
181	0xbaa6aec2	-0.0012716877
182	0x39b314a5	0.00034156922
183	0x3a9f31cb	0.0012145577
184	0xb9e0fb3d	-0.00042911796
185	0xbaa5d583	-0.0012652132
186	0x00000000	0.0
187	0x00000000	0.0
188	0x00000000	0.0
189	0x00000000	0.0
190	0x00000000	0.0
191	0x00000000	0.0
192	0x3603661c	1.9579957e-06
193	0x3301cdeb	3.0222434e-08
194	0x35a40dfa	1.222302e-06
195	0x3231b698	1.0344273e-08
196	0xb50f162f	-5.330393e-07
197	0xb785ab89	-1.5934713e-05
198	0xba5a1557	-0.000831922
199	0xb9cdbf11	-0.00039243003
200	0x3a068b85	0.00051324844
201	0x3a12ae84	0.0005595463
202	0xb82f5b73	-4.180842e-05
203	0x3a56fd7a	0.0008201223
204	0x00000000	0.0
205	0x00000000	0.0
206	0x00000000	0.0
207	0x00000000	0.0
208	0x00000000	0.0
209	0x00000000	0.0
210	0xb38ae518	-6.467798e-08
211	0xb576d106	-9.194631e-07
212	0x349e65b6	2.9503798e-07
213	0xb4fae5e7	-4.6733405e-07
214	0x3301f45c	3.0257397e-08
215	0xb74166c7	-1.1527626e-05
216	0x38513b78	4.9884868e-05
217	0xb80b06af	-3.3146407e-05
218	0x39605e5b	0.00021397455
219	0xb72bf1bf	-1.024868e-05
220	0x38ed1d2c	0.00011306474
221	0x37a65af3	1.9831094e-05
222	0x3a55005c	0.0008125359
223	0x3a1dfdad	0.00060268753
224	0xb9e5db92	-0.00043841876
225	0xb9cadf39	-0.00038694756
226	0xbb098be6	-0.0020987927
227	0xba949fd2	-0.0011339134
228	0xb9f3f145	-0.00046528332
229	0xbaa9e843	-0.0012962896
230	0xba23ae67	-0.00062439445
231	0x3a2403dd	0.0006256679
232	0xb949e80d	-0.000192553
233	0xba3549fc	-0.00069156266
234	0x394d4f83	0.00019579944
235	0x3a26568c	0.0006345294
236	0xbb1cbbbe	-0.0023915614
237	0xbab534f2	-0.0013824983
238	0xba2ff56a	-0.000671229
239	0xba9234ae	-0.0011154616
240	0x398c2b68	0.0002673522
241	0xba5f4974	-0.000851772
242	0xba0defc3	-0.00054144504
243	0xb92d19c6	-0.00016508167
244	0xb85a8d64	-5.210693e-05
245	0x3a304f1d	0.0006725656
246	0x38362721	4.3428623e-05
247	0x39b1b847	0.00033897368
248	0xb9deab46	-0.00042470748
249	0x00000000	0.0
250	0x00000000	0.0
251	0x00000000	0.0
252	0x00000000	0.0
253	0x00000000	0.0
254	0x00000000	0.0
255	0x359a1361	1.1479534e-06
