src/models/car_ppo_pgd_walker.model (torch, 147684 bytes, 36 tensors)

affine_layers.0.weight f4 [64, 17]
0	0xbf6402b1	-0.89066607
1	0xbd28aa80	-0.041178226
2	0xbe34c6e6	-0.17653999
3	0xbd0d9958	-0.034570068
4	0x3d14d273	0.036333513
5	0xbbcb172c	-0.0061978307
6	0x3e07bca6	0.13255557
7	0xbdc5d548	-0.09659821
8	0x3e821bcb	0.2541183
9	0xbe1ac9aa	-0.15115991
10	0x3e84c11f	0.2592859
11	0xbe5119e9	-0.2042004
12	0xbe5275df	-0.20552777
13	0x3dc60d4a	0.096705034
14	0xbd507e50	-0.05090171
15	0xbe3ff736	-0.18746647
16	0xbd13a621	-0.036047105
17	0xbe6f3685	-0.23360641
18	0x3e8a322f	0.26991412
19	0x3eb8c48e	0.3608746
20	0x3e0c6a29	0.13712372
21	0x3c40ce50	0.011767939
22	0xbd072edc	-0.033003673
23	0xbe61b5fe	-0.22042081
24	0xbe25492c	-0.16141194
25	0xbe2e5678	-0.17025173
26	0xbedfd40b	-0.43716463
27	0x3e525051	0.20538451
28	0x3d4dcd81	0.050244812
29	0x3c54b402	0.01298237
30	0x3c5e4f36	0.01356869
31	0xbd7c5354	-0.061602905
32	0xbe14834e	-0.14503214
33	0xbd86f671	-0.06589974
34	0x3e98398c	0.29731405
35	0x3ee9f424	0.45694077
36	0x3ec25d9c	0.37962043
37	0x3d678a85	0.056528587
38	0x3ccf383a	0.025295366
39	0x3d2f6b49	0.042826924
40	0x3d89b6d4	0.06724325
41	0xbca3ac7c	-0.019979708
42	0xbea7ea8d	-0.32796136
43	0x3e3db414	0.18525726
44	0x3ec20c19	0.37899855
45	0x3ce270a7	0.027641607
46	0xbde26851	-0.11055053
47	0x3c4589bb	0.012056763
48	0xbce7a6c3	-0.02827776
49	0x3df2f3a6	0.118628785
50	0x3d35051c	0.044194326
51	0xbdbf5cc2	-0.09343864
52	0x3f10e4d8	0.5659919
53	0xbeb46bea	-0.35238582
54	0xbd5d56b3	-0.05403776
55	0xbd763797	-0.06011161
56	0x3c2d74f8	0.01058697
57	0xbd352664	-0.044226065
58	0xbe4dc3e4	-0.20094258
59	0x3dd61965	0.10454062
60	0x3cb55488	0.022135034
61	0xbdcc8780	-0.09986782
62	0x3e7f5bb4	0.24937326
63	0x3e3a74b5	0.18208583
64	0x3d11ded7	0.035612907
65	0xbda97a52	-0.08275284
66	0xbe7396f0	-0.23788047
67	0xbd3b21f2	-0.04568667
68	0xbefa4151	-0.48877957
69	0x3eb825f1	0.35966447
70	0x3d31142d	0.04323213
71	0xbdc61f71	-0.09673966
72	0x3d95a1d6	0.073062584
73	0xbd3e8f38	-0.046523303
74	0xbf0909a5	-0.5353034
75	0x3ed2eb24	0.41195023
76	0x3ebd6693	0.3699232
77	0x3bf56158	0.007488411
78	0x3e087af9	0.1332816
79	0xbd4dbe4a	-0.050230302
80	0xbc97f494	-0.018549241
81	0x3cf49a74	0.029858805
82	0xbb112b38	-0.0022151005
83	0xbdc5e135	-0.096620955
84	0x3ca00969	0.019535737
85	0x3d24bbfc	0.04021834
86	0xbf077b8e	-0.52922904
87	0x3e9ece39	0.3101671
88	0x3d8ecca8	0.06972629
89	0xbe4ec9a8	-0.20194113
90	0x3cc9d8ca	0.024639506
91	0x3e575ce9	0.21031536
92	0x3dee478b	0.116347395
93	0x3daa5c7d	0.08318422
94	0xbe38ffd9	-0.18066348
95	0xbe3c4e2c	-0.18389195
96	0x3e063d53	0.13109331
97	0x3dabdb14	0.08391395
98	0xbd4762a7	-0.048678067
99	0x3c0ae7a4	0.008478079
100	0x3d18205b	0.03714023
101	0xbce4bed8	-0.027923033
102	0x3e32ded7	0.17467819
103	0x3e06340c	0.13105792
104	0xbe8ce6e1	-0.27519897
105	0xbd07d9e6	-0.03316679
106	0xbda6551c	-0.08121702
107	0xbc74509d	-0.014911798
108	0x3e069e28	0.1314627
109	0xbe48d7b2	-0.19613531
110	0x3e92a881	0.28644183
111	0x3d7af711	0.061270777
112	0xbede8c28	-0.43466306
113	0x3e19c074	0.15014821
114	0x3bbbf2c0	0.005735725
115	0xbbe62a6a	-0.007024099
116	0x3e1d447c	0.15358156
117	0x3e5dd165	0.21661909
118	0xbc8a2def	-0.016867606
119	0x3f16dc2f	0.58929724
120	0x3e349d33	0.17638092
121	0xbe13fe0a	-0.14452377
122	0x3dcfd465	0.10147933
123	0xbdd3ca63	-0.103413366
124	0x3d889f51	0.06671012
125	0x3e6be605	0.23036964
126	0x3eedfcc3	0.46481904
127	0x3ee660d9	0.44995764
128	0x3e91716a	0.2840684
129	0xbe5fb67f	-0.2184696
130	0x3e045553	0.12923174
131	0x3c7d0f5d	0.015445557
132	0x3d869f2e	0.0657333
133	0x3e28935c	0.16462463
134	0x3d2e3746	0.04253318
135	0x3d702169	0.058625612
136	0x3eaa9571	0.3331714
137	0x3f16d725	0.58922035
138	0xbee339f8	-0.44380164
139	0xbcbf927d	-0.02338528
140	0x3e1b03ac	0.1513812
141	0xbde393e3	-0.111121915
142	0x3e6cfb4c	0.23142737
143	0xbea1eb76	-0.31624955
144	0xbddb9c71	-0.10723198
145	0xbea6464c	-0.32475507
146	0xbe29d0f5	-0.16583617
147	0x3dcfda38	0.10149044
148	0xbc853677	-0.016261322
149	0x3dc8c52a	0.09803231
150	0x3968fb76	0.0002221892
151	0xbe2af82d	-0.16696234
152	0x3b8d720f	0.0043165754
153	0xbdbc64a2	-0.09198882
154	0x3f36c10b	0.7138831
155	0xbf1a0163	-0.60158366
156	0xbd0ad6c1	-0.03389621
157	0xbd94c8c5	-0.07264856
158	0xbd535d89	-0.051602874
159	0xbe764db4	-0.24053079
160	0x3c4fd538	0.012685113
161	0xbe3d59e7	-0.18491326
162	0x3dbec787	0.093154006
163	0x3e8ffda5	0.28123203
164	0x3d4881cb	0.048951905
165	0x3d900d7a	0.070338205
166	0xbc9f456d	-0.019442284
167	0xbe2265c2	-0.1585913
168	0xbde2089d	-0.11036799
169	0xbc40dfa0	-0.011772066
170	0xbebf55db	-0.3737019
171	0xbd8d1972	-0.06889619
172	0x3e74e38d	0.23914929
173	0x3e0d0719	0.13772239
174	0x3eafa11e	0.3430261
175	0xbdf48be5	-0.11940745
176	0xbdf90f9b	-0.1216118
177	0xbdff29e0	-0.12459159
178	0xbdb747f9	-0.089492746
179	0xbc82be51	-0.01595989
180	0xbeb7da1c	-0.35908592
181	0x3ec909b4	0.39265215
182	0x3d91493a	0.07094045
183	0xbd069657	-0.03285822
184	0x3d96b9af	0.07359635
185	0xbd804077	-0.06262296
186	0x3d3dcf09	0.046340022
187	0x3d59d045	0.053177137
188	0x3ddced79	0.10787482
189	0xbe0a76d7	-0.13521896
190	0xbdcff28e	-0.101536855
191	0xbf4903e4	-0.7852156
192	0xbc254094	-0.010086197
193	0x3cae87e2	0.021305028
194	0xbdaad2e2	-0.08341004
195	0xbe0c3fae	-0.13696167
196	0xbde244d3	-0.110482834
197	0xbd159934	-0.03652306
198	0x3e00129d	0.125071
199	0x3c3116f5	0.010808696
200	0xbeaf1a56	-0.3419978
201	0xbd7f00d8	-0.062256664
202	0x3bc31dd4	0.0059544835
203	0xbc2a06cd	-0.010377598
204	0xbef73a52	-0.48286682
205	0xbf0f0f83	-0.55883044
206	0x3ddac50f	0.10682117
207	0x3e85a193	0.26099834
208	0xbdade6f6	-0.08491318
209	0x3d8f2a2d	0.06990466
210	0x3e10ec56	0.14152655
211	0xbd1fe2e4	-0.03903474
212	0x3e3d03d9	0.18458499
213	0x3ea24bf3	0.3169857
214	0xbd26ff6e	-0.04077094
215	0x3dc71695	0.09721104
216	0x3e0391a1	0.12848522
217	0x3d639efd	0.055571545
218	0xbd664926	-0.056222104
219	0x3d3e9e57	0.046537723
220	0x3d0a1d95	0.033719618
221	0x3d93038b	0.0717841
222	0x3ece7e27	0.40330622
223	0xbf3b0415	-0.73053104
224	0xbda490ac	-0.080354065
225	0xbe975bb0	-0.2956214
226	0x3d252fa4	0.040328637
227	0xbeb94bb0	-0.36190557
228	0x3c67d6a5	0.014150296
229	0x3dbbcf38	0.09170383
230	0x3f1faf35	0.6237672
231	0x3ecdfe6b	0.40233168
232	0xbd3874ed	-0.045033384
233	0x3cd15dc6	0.02555741
234	0x3d5b9b0c	0.05361466
235	0xbe67b9c9	-0.22629465
236	0xbdfddb1a	-0.12395306
237	0x3d18fb22	0.037348874
238	0x3d8f7fed	0.07006822
239	0x3f01e80b	0.50744694
240	0xbebff0c8	-0.3748839
241	0xbe006857	-0.12539802
242	0x3c81bfc5	0.015838513
243	0xbe0f9f67	-0.14025651
244	0xbdcda058	-0.10040349
245	0xbd52135c	-0.051287994
246	0xbc310207	-0.010803706
247	0xbde381ae	-0.11108719
248	0xbd4af542	-0.049550302
249	0xbb4e091b	-0.0031438533
250	0xbdc95774	-0.098311335
251	0x3d05f1a2	0.032701142
252	0xbda0ed64	-0.07857779
253	0x3d3d8f9d	0.04627954
254	0x3c9c9fbb	0.019119134
255	0x3d89b34f	0.067236535

affine_layers.0.bias f4 [64]
0	0x3e94391e	0.28949827
1	0xbed00bd4	-0.40634024
2	0xbdc0a8fd	-0.09407232
3	0xbedec779	-0.4351156
4	0x3e6db1d4	0.23212367
5	0x3e68c25c	0.22730392
6	0x3ea3bb0b	0.3197864
7	0x3e9e8f91	0.30968907
8	0xbeba8420	-0.36428928
9	0xbe6c7cd2	-0.2309449
10	0xbe79fb18	-0.24412191
11	0xbf80ace1	-1.0052758
12	0x3e8630c0	0.26209068
13	0x3ef4fb91	0.4784818
14	0xbebdd1e3	-0.37074193
15	0xbf0a99e1	-0.5414105
16	0x3d17c82e	0.03705614
17	0x3e33eb75	0.17570288
18	0x3deabb13	0.11461463
19	0xbe5a3dbb	-0.21312611
20	0xbe49f0e5	-0.197208
21	0x3d04a587	0.03238442
22	0xbf11605f	-0.56787676
23	0xbef8f866	-0.48627013
24	0xbed3bda2	-0.41355616
25	0x3f0cc6eb	0.54991025
26	0x3f0613c4	0.5237391
27	0x3e852767	0.26006624
28	0x3efc4ba5	0.49276462
29	0xbcfde02d	-0.030990684
30	0xbedef0e5	-0.43543163
31	0xbf3c953b	-0.7366521
32	0x3a0daa04	0.00054040574
33	0xbebbf53a	-0.3671053
34	0x3f1bc28d	0.60843736
35	0x3d44836d	0.0479769
36	0x3e8b651b	0.27225575
37	0xbed4aa88	-0.41536355
38	0x3e658b8f	0.22416519
39	0x3f1e36a2	0.61802113
40	0x3f268abf	0.6505546
41	0xbee70332	-0.45119625
42	0xbe1c2e23	-0.15251975
43	0x3dad8a50	0.08473647
44	0xbe532d1e	-0.2062268
45	0xbf124c5b	-0.5714776
46	0x3f5e0501	0.86726385
47	0xbf1ddf3f	-0.6166877
48	0x3e7ab83f	0.24484347
49	0x3eb628eb	0.35578093
50	0x3f06aef0	0.52610683
51	0xbda6d3e7	-0.08145886
52	0x3eec9602	0.46208197
53	0x3e627645	0.22115429
54	0xbf07b975	-0.5301736
55	0x3ed9ac79	0.425144
56	0x3e39d3be	0.1814718
57	0xbe3d11e4	-0.18463856
58	0x3f0b160d	0.5433052
59	0xbe84c084	-0.25928128
60	0xbf5ae356	-0.8550314
61	0xbf214464	-0.6299498
62	0xbed16da7	-0.4090397
63	0x3dc06341	0.09393931

affine_layers.1.weight f4 [64, 64]
0	0xbe80cda5	-0.25156894
1	0xbe99e4d6	-0.300574
2	0xbc4e5618	-0.012593769
3	0x3e880fd2	0.2657457
4	0x3e321163	0.17389445
5	0xbf15d0d3	-0.58521765
6	0x3e658c76	0.22416863
7	0x3e78e18c	0.2430479
8	0x3e128c4d	0.14311333
9	0x3e9587cf	0.29205176
10	0xbceccc78	-0.028906092
11	0x3e37aab9	0.1793622
12	0x3d1ae5aa	0.03781668
13	0x3cfd95c4	0.030955203
14	0xbbc0ce7a	-0.005883989
15	0x3de13454	0.10996309
16	0x3e515acb	0.20444791
17	0x3e7816c2	0.24227431
18	0xbd0a21da	-0.03372369
19	0xbd73ef78	-0.059554547
20	0xbe426e9e	-0.1898751
21	0xbe684ada	-0.22684804
22	0x3e97db8b	0.29659685
23	0xbd4ed7d4	-0.0504988
24	0xbe5378c3	-0.20651536
25	0xbe83624f	-0.2566094
26	0xbec98345	-0.39357963
27	0xbd15ec3f	-0.036602255
28	0xbc1aff90	-0.009460345
29	0xbe2c7b65	-0.16843946
30	0xbdf22e78	-0.118252695
31	0xbd55384a	-0.052055635
32	0x3d896ed9	0.06710596
33	0xbe1f53bc	-0.15559286
34	0xbe82571b	-0.2545708
35	0xbe0c3ccd	-0.13695069
36	0xbeb5dc5c	-0.35519683
37	0xbd2c9786	-0.04213669
38	0xbe67737a	-0.22602645
39	0xbe64c5a9	-0.22341026
40	0x3d39e87a	0.045387723
41	0x3d5f2238	0.054475993
42	0x3f1a0557	0.601644
43	0xbd615f98	-0.055022806
44	0x3ea143c3	0.3149701
45	0x3a0decee	0.00054140284
46	0xbe602d2a	-0.21892229
47	0x3d05f35e	0.032702796
48	0x3c221f0e	0.009895099
49	0x3e297b52	0.16550949
50	0x3e4f069a	0.20217362
51	0x3c4c007b	0.012451286
52	0x3c0485fc	0.008088585
53	0xbdaa2ddc	-0.08309528
54	0x3da7ed35	0.081995405
55	0x3d245f4d	0.04012995
56	0xbea55e40	-0.3229847
57	0xbed4570c	-0.41472661
58	0xbc3f60fa	-0.011680836
59	0x3e74a759	0.23891963
60	0x3e693958	0.22775781
61	0x3f0e6bfc	0.5563352
62	0xbe5cb892	-0.21554783
63	0xbdef05ad	-0.116710044
64	0x3d8f67a7	0.07002192
65	0xbd852a41	-0.065022
66	0x3db91627	0.09037428
67	0x3e3d4221	0.18482257
68	0xbdb086cc	-0.086194605
69	0x3e4e58c1	0.20151044
70	0x3b4882fa	0.0030595646
71	0xbd8ad6bd	-0.06779239
72	0xbe88210a	-0.26587707
73	0x3ee992e3	0.45619878
74	0x3d3875ac	0.045034096
75	0xbbd7b662	-0.006583021
76	0x3e0b8ceb	0.13627975
77	0xbd7bc8a8	-0.061470658
78	0xbeb1c94c	-0.3472389
79	0x3c4130e2	0.01179144
80	0xbd4f79e5	-0.050653357
81	0xbe9c89d1	-0.30573896
82	0x3ce896c3	0.028392201
83	0x3ebebe67	0.3725464
84	0xbdb4365c	-0.08799431
85	0xbdcaa450	-0.09894621
86	0x3dc849bf	0.09779691
87	0x3ca3071b	0.01990085
88	0x3e1bb3d8	0.15205324
89	0x3deaba49	0.11461312
90	0x3e39478f	0.18093704
91	0xbb4ef380	-0.0031578243
92	0xbefb13f0	-0.4903865
93	0x3cac111d	0.021004254
94	0x3ea59d16	0.3234641
95	0xbcb354a8	-0.021890953
96	0xbc7ee37f	-0.015557169
97	0x3e0d8392	0.13819721
98	0xbd163e36	-0.036680423
99	0x3e2efd0c	0.17088717
100	0x3da9513d	0.08267448
101	0xbe33a4df	-0.17543362
102	0x3d67a2ec	0.05655186
103	0x3e891a6e	0.26777977
104	0x3ee609e6	0.44929427
105	0xbe632458	-0.22181833
106	0xbcc35be4	-0.023847528
107	0xbef136d4	-0.47112143
108	0xbd9cc20d	-0.076542
109	0x3def8b58	0.116964996
110	0xbea3b7b8	-0.31976104
111	0x3e2bb58e	0.16768476
112	0xbb58d66c	-0.003308679
113	0x3e4273ed	0.18989535
114	0xbe7b1d82	-0.24522975
115	0xbd342a50	-0.043985665
116	0x3d229779	0.039695237
117	0xbddbd7b1	-0.10734499
118	0xbc7eac00	-0.015543938
119	0x3d594125	0.053040642
120	0xbdd66c30	-0.10469854
121	0x3e8da328	0.2766354
122	0x3e7ebaca	0.24875942
123	0x3eb08e01	0.3448334
124	0xbe233980	-0.15939903
125	0xbeca6aad	-0.39534512
126	0x3ea01b34	0.31270754
127	0x3e8a97d0	0.2706895
128	0x3da79229	0.08182175
129	0x3ca00426	0.019533228
130	0xbe24af46	-0.16082487
131	0xbde51f94	-0.11187664
132	0x3e1f0e73	0.15532856
133	0xbe8c784c	-0.2743553
134	0xba8fba79	-0.0010965607
135	0x3d4232b7	0.047411647
136	0x3d7746f6	0.060370408
137	0x3d926372	0.07147874
138	0x3d22fe53	0.039793324
139	0xbd39b6b0	-0.04534024
140	0xbe9f746f	-0.3114352
141	0xbe248a65	-0.16068418
142	0xbd8a82d4	-0.06763235
143	0xbe467f53	-0.19384508
144	0x3d34d05d	0.044144023
145	0xbc97acdd	-0.018515045
146	0xbe667a48	-0.22507584
147	0x3d37d8bc	0.04488443
148	0xbd69ddf8	-0.05709645
149	0xbe7a1dbc	-0.24425405
150	0x3dbbe323	0.09174182
151	0xbd8c9426	-0.068641946
152	0xbd79484b	-0.06085996
153	0xbef4eaae	-0.47835296
154	0x3e146e32	0.14495161
155	0x3d8d1bf5	0.06890098
156	0x3e2b76e5	0.16744573
157	0x3e2df17f	0.16986655
158	0x3d09014d	0.033448506
159	0x3e5243fe	0.2053375
160	0xbe0cbbc2	-0.13743499
161	0x3dd6f599	0.10496063
162	0xbe6d19fc	-0.23154444
163	0x3eaaf281	0.3338814
164	0x3e3d1e00	0.18468475
165	0xbe349ad3	-0.17637186
166	0x3ea41241	0.32045177
167	0xbc69258c	-0.014230143
168	0x3ec34a2e	0.38142532
169	0x3d6df147	0.058091428
170	0xbd984031	-0.074341185
171	0x3d177220	0.036974072
172	0xbdb44f4c	-0.08804187
173	0x3edd800a	0.4326175
174	0xbddf1e52	-0.10894455
175	0x3ead4482	0.3384133
176	0x3ee3cb5c	0.44491088
177	0xbe0abc01	-0.1354828
178	0xbea545ab	-0.32279715
179	0xbea38b70	-0.3194232
180	0x3e345296	0.17609629
181	0x3de5c848	0.11219841
182	0x3d325765	0.043540377
183	0xbf050140	-0.5195503
184	0x3c9288d3	0.017887508
185	0x3d956026	0.072937295
186	0xbd4b6f9d	-0.04966699
187	0x3cbc341a	0.022974063
188	0xbe402fff	-0.18768309
189	0xbd20ca95	-0.039255697
190	0x3ed9c730	0.4253478
191	0x3e0b653f	0.13612841
192	0xbefd4ece	-0.49474186
193	0xbd5f2016	-0.05447396
194	0x3edd7bff	0.43258664
195	0xbe2face8	-0.17155802
196	0xbe225f6c	-0.15856713
197	0x3e30fa8f	0.1728308
198	0xbe1738f1	-0.14767815
199	0x3bbe6548	0.0058104135
200	0xbc1657b3	-0.009176183
201	0xbedaa5e9	-0.42704704
202	0xbd229d96	-0.039701067
203	0x3d85675d	0.065138556
204	0xbb6c669d	-0.0036071904
205	0xbee526ef	-0.44756266
206	0x3e1ac5c1	0.151145
207	0x3ee5ffa9	0.44921616
208	0x3f1da27b	0.6157605
209	0x3e32f3bd	0.17475791
210	0x3e82a4d2	0.25516373
211	0xbe09149c	-0.13386768
212	0xbbb800a4	-0.0056153107
213	0xbecc4129	-0.39893463
214	0x3e4afa73	0.19822101
215	0x3bd2fd5c	0.006438894
216	0x3e341549	0.17586245
217	0x3cb0be24	0.021575041
218	0xbdfabfa9	-0.122435875
219	0x3e732773	0.23745517
220	0x3e9fad7e	0.31187052
221	0x3d6bb4f2	0.05754561
222	0xbe9e97ba	-0.30975133
223	0x3e30d525	0.17268808
224	0xbe8875dc	-0.2665242
225	0x3dd36864	0.10322645
226	0x3ea4f607	0.32218954
227	0x3eec5e15	0.4616553
228	0x3d74070e	0.05957704
229	0xbe29e50f	-0.16591285
230	0x3e4155c0	0.18880367
231	0x3daddf66	0.084898755
232	0xbe29dd4b	-0.16588323
233	0xbd96f4bd	-0.07370899
234	0xbefb6007	-0.490967
235	0xbd4e0239	-0.05029509
236	0x3e513adb	0.20432608
237	0xbe37dc48	-0.17955124
238	0xbdb77789	-0.089583464
239	0xbea487fa	-0.32134992
240	0x3da7f992	0.08201899
241	0x3df4b562	0.119486585
242	0x3e497393	0.19672994
243	0x3c2fa475	0.010720362
244	0x3d5bed57	0.05369314
245	0x3edd7797	0.43255302
246	0x3d909c35	0.07061044
247	0x3ec71b7d	0.3888816
248	0x3dcc8dba	0.0998797
249	0xbdbb91ba	-0.091586545
250	0x3de3bc50	0.11119902
251	0x3af0c016	0.0018367793
252	0x3ea62c7f	0.32455823
253	0x3d0cdadd	0.03438841
254	0x3e0281b8	0.12744796
255	0x3e20748b	0.15669458

affine_layers.1.bias f4 [64]
0	0x3c53d503	0.012929204
1	0x3db27917	0.08714502
2	0x3dcca8af	0.09993111
3	0x3db6e050	0.08929503
4	0x3e17676f	0.1478555
5	0xbc96b927	-0.018398834
6	0x3c8e8457	0.017397089
7	0x3ecc4cb3	0.39902267
8	0xbe281284	-0.16413313
9	0x3e190d20	0.14946413
10	0xbc8e2b8d	-0.017354751
11	0x3d29d83c	0.041465983
12	0xbe02994c	-0.1275379
13	0xbc0a6859	-0.00844773
14	0x3e633b06	0.22190484
15	0xbe423aa2	-0.18967679
16	0x3dabd549	0.0839029
17	0xbe2a017e	-0.16602132
18	0xbe1b8d98	-0.15190732
19	0xbdd82796	-0.105544254
20	0x3e19baf5	0.15012725
21	0xbe0ecdf0	-0.13945746
22	0xbdd07687	-0.10178857
23	0xbe504c28	-0.20341551
24	0x3ecc94d5	0.399573
25	0x3e1eec0e	0.15519735
26	0xbe225acf	-0.15854953
27	0xbe967314	-0.29384673
28	0x3da4aa41	0.08040286
29	0x3e9ec9a3	0.31013212
30	0xbde369ec	-0.11104187
31	0x3ecb8503	0.39749917
32	0x3e8ab2d2	0.27089554
33	0x3da3c177	0.07995885
34	0xbef8f086	-0.48621005
35	0xbee49215	-0.44642702
36	0x3cc76bcc	0.024343394
37	0xbda422d0	-0.080144525
38	0xbe34e565	-0.17665632
39	0x3cd6aa11	0.02620414
40	0xbe744a7b	-0.23856537
41	0x3c71eda2	0.014766129
42	0xbd2121b1	-0.03933877
43	0xbd8e9643	-0.06962254
44	0x3e611d00	0.21983719
45	0x3e0ab597	0.13545834
46	0x3e016576	0.1263636
47	0x3d645b95	0.055751402
48	0xbdb5fc2d	-0.08885989
49	0xbe49633a	-0.19666758
50	0x3e783444	0.24238688
51	0xbe41681f	-0.18887375
52	0xbe612fab	-0.2199084
53	0xbba2196e	-0.004946879
54	0xbda9f465	-0.08298568
55	0x3e0a134c	0.13483924
56	0x3c068dcf	0.008212521
57	0xbdbce9ab	-0.09224256
58	0xbdbf9726	-0.09355001
59	0x3c002239	0.007820659
60	0x3e9a9291	0.30189946
61	0x3e80362c	0.2504133
62	0xbd758172	-0.0599379
63	0xbe0c2402	-0.13685611

final.weight f4 [1, 64]
0	0x3dd59d53	0.10430398
1	0x3cf88c32	0.030340288
2	0x3d85ff65	0.06542853
3	0x3d8d5d5c	0.069025725
4	0xbd0125d1	-0.031530205
5	0x3e1f8b4a	0.15580478
6	0x3e100d38	0.14067543
7	0x3e84bd03	0.25925454
8	0xbd4b3a43	-0.04961611
9	0xbe2e7136	-0.17035374
10	0x3df82d9e	0.12118076
11	0xbe2526bd	-0.16128059
12	0xbe95e3b2	-0.2927528
13	0x3e14c41b	0.14527933
14	0x3dbbf37e	0.09177302
15	0xbdbb3f7f	-0.0914297
16	0x3e572f57	0.21014152
17	0xbde0374c	-0.10948047
18	0xbd67967d	-0.05654
19	0x3e7817a2	0.24227765
20	0x3d9ef694	0.07761875
21	0xbe21be60	-0.15795279
22	0xbda0ef6b	-0.07858165
23	0xbdc952b4	-0.098302275
24	0x3e49e37b	0.19715683
25	0x3e301cd6	0.171985
26	0xbe470d35	-0.19438632
27	0xbe5c3fba	-0.21508685
28	0x3e1d3b6a	0.15354696
29	0x3e953a92	0.29146248
30	0xbdc15ebf	-0.094418995
31	0x3e78bbfa	0.24290457
32	0x3efc72a7	0.49306223
33	0x3e1b0357	0.15137993
34	0xbeacdad9	-0.33760718
35	0xbe314f9c	-0.17315525
36	0x3d6ee372	0.058322378
37	0xbdb70ae0	-0.08937621
38	0xbe11c47f	-0.14235114
39	0xbe498a3b	-0.19681637
40	0xbdad3b77	-0.08458608
41	0x3e0c2233	0.13684921
42	0xbde8ac73	-0.11361017
43	0xbe69c790	-0.22830033
44	0x3e4f6c8e	0.20256254
45	0x3e024f87	0.1272565
46	0x3e1fcd79	0.15605725
47	0x3d54cd7f	0.05195379
48	0x3de9ac67	0.11409836
49	0xbe844ea5	-0.2584125
50	0x3de7742b	0.11301454
51	0xbdee788d	-0.11644087
52	0xbe79119d	-0.24323125
53	0xbcfab100	-0.030601978
54	0x3e0bf399	0.13667144
55	0x3e43aa9a	0.19108048
56	0x3e3639e2	0.17795518
57	0xbdb25b33	-0.08708801
58	0xbda9bf67	-0.0828846
59	0xbdc85b7b	-0.097830735
60	0x3e13b58b	0.14424722
61	0x3ded43d6	0.11585204
62	0xbe042031	-0.12902905
63	0x3dfe3240	0.12411928

log_stdev f4 [6]
0	0x3e0530fa	0.13006964
1	0x3d89e911	0.06733907
2	0x3e19bea4	0.1501413
3	0xbe923af6	-0.2856061
4	0x3d38177d	0.044944275
5	0x3c021ffd	0.007942197

affine_layers.0.weight f4 [64, 17]
0	0xbdefb84e	-0.11705075
1	0x3ea128d9	0.31476477
2	0x3e34a309	0.17640318
3	0x3d4a3461	0.04936636
4	0x3de28291	0.1106006
5	0xbe7ff590	-0.24996018
6	0xbd0a7045	-0.033798475
7	0x3d25b9fd	0.040460575
8	0x3dcd8d8c	0.100367635
9	0xbeca9088	-0.39563394
10	0xbce348a0	-0.027744591
11	0x3e1d40ac	0.15356702
12	0x3c9f55a5	0.019450018
13	0xbe33962e	-0.17537758
14	0xbea69180	-0.32532883
15	0x3dbfa02a	0.09356721
16	0x3e967398	0.29385066
17	0xbd809db4	-0.062800795
18	0x3d14a2f8	0.03628823
19	0xbf3b756e	-0.7322606
20	0x3e104f3d	0.14092727
21	0xbee5b060	-0.44861126
22	0x3cfba3f9	0.030717837
23	0xbc9a083c	-0.018802755
24	0xbe3eb506	-0.18623742
25	0x3e244963	0.1604362
26	0x3e9b531b	0.30336842
27	0x3d81eab5	0.06343595
28	0x3c94335a	0.018090893
29	0xbdb85f0d	-0.090025045
30	0xbde9bff8	-0.11413568
31	0x3e35a848	0.17739975
32	0x3cc61db5	0.024184087
33	0xbbb0b694	-0.0053928588
34	0xbd588011	-0.05285651
35	0xbe913a36	-0.28364724
36	0x3b8212eb	0.0039695404
37	0xbd961e78	-0.0733003
38	0xbceb10e8	-0.028694585
39	0xbb42ccbb	-0.002972408
40	0xbe2ee4c4	-0.17079455
41	0xbee66747	-0.4500067
42	0xbe844874	-0.25836527
43	0x3e7cb5e6	0.24678764
44	0x3e37969d	0.17928548
45	0xbe4e08b1	-0.20120503
46	0x3de5eadb	0.11226436
47	0x3e0a9821	0.13534595
48	0x3dd1b061	0.1023872
49	0x3c01a571	0.007912979
50	0xbe5a1a3f	-0.21299075
51	0x3c811b16	0.015759986
52	0xbee2cb0d	-0.4429554
53	0xbeb28574	-0.34867442
54	0xbe351635	-0.17684253
55	0x3e0e8218	0.13916814
56	0x3df5a0c1	0.11993552
57	0xbdf2b25d	-0.11850426
58	0xbdf733d8	-0.12070435
59	0xbefacd82	-0.48984915
60	0xbd7de3c1	-0.06198478
61	0x3dd13481	0.102150925
62	0x3d8fbb80	0.07018185
63	0x3d581e76	0.052763425
64	0xbea46b89	-0.32113293
65	0xbd4e2bb9	-0.050334666
66	0x3e3a0829	0.18167175
67	0xbdc13666	-0.09434204
68	0xbec67784	-0.38763058
69	0xbf030101	-0.51173407
70	0xbe08124f	-0.13288234
71	0xbe044b68	-0.1291939
72	0x3e672c92	0.22575596
73	0x3da34ceb	0.07973655
74	0xbd36f800	-0.044670105
75	0xbe827924	-0.25483048
76	0xbe02709b	-0.12738268
77	0x3ea925f4	0.33036768
78	0xbe638490	-0.22218537
79	0xbe805eb8	-0.25072265
80	0xbe39bea9	-0.18139137
81	0xbeb21829	-0.34784058
82	0x3e85cbe8	0.2613213
83	0xbe0ab8bf	-0.13547038
84	0x3ca1849d	0.019716555
85	0x3e71d7aa	0.23617426
86	0xbed65032	-0.4185806
87	0xbc7f388c	-0.015577447
88	0x3de1e176	0.110293314
89	0x3c389d80	0.01126802
90	0x3dac4f0c	0.084135145
91	0x3e92f445	0.28701988
92	0xbd03886e	-0.03211253
93	0xbdc06b94	-0.09395519
94	0x3e2c9082	0.16852
95	0xbc29e0db	-0.010368551
96	0x3e2b207b	0.16711609
97	0x3d99869d	0.074963786
98	0x3bb3968e	0.005480594
99	0xbe1c4fda	-0.15264836
100	0xbd83b115	-0.0643026
101	0xbf1417f3	-0.57849044
102	0x3ee43210	0.44569445
103	0x3da2a7cd	0.07942162
104	0x3dae84a8	0.08521396
105	0xbdd25a25	-0.102711
106	0x3e364c5c	0.17802566
107	0x3e8a1a81	0.26973346
108	0x3e0b2306	0.13587579
109	0x3e9eb9ca	0.3100112
110	0x3e30ccb6	0.17265591
111	0xbc7aaea8	-0.01530043
112	0x3dc3c9cb	0.09559973
113	0x3f1c2a9d	0.6100252
114	0x3e71e262	0.23621514
115	0xbda77e10	-0.081783414
116	0x3e1da838	0.15396202
117	0x3dea2cd0	0.114343286
118	0x3c9e87b9	0.019351827
119	0x3f174271	0.59085757
120	0xbe8eb130	-0.27869558
121	0xbb3ef3bf	-0.0029136983
122	0xbe9bbe8f	-0.30418822
123	0xbd6f3ffc	-0.05841063
124	0xbea4b9ed	-0.321731
125	0xbcd357e3	-0.025798744
126	0x3e3c7e6e	0.18407604
127	0x3f196622	0.5992147
128	0x3e069aa7	0.13144933
129	0x3e8f4515	0.27982393
130	0x3dd94322	0.10608508
131	0x3d42a28f	0.04751831
132	0xbda15762	-0.07877995
133	0xbdfdd255	-0.12393633
134	0x3cd06265	0.025437543
135	0xbe239e44	-0.15978342
136	0xbe6b8146	-0.22998533
137	0xbe13e63c	-0.14443296
138	0x3d8db6b2	0.06919612
139	0x3e067601	0.13130952
140	0x3d7f3dc6	0.06231477
141	0xbdb408d4	-0.08790746
142	0xbe0b55ff	-0.13607024
143	0x3cc8cc20	0.024511397
144	0xbf4d2f69	-0.8015047
145	0xbef88837	-0.48541424
146	0xbea10858	-0.31451678
147	0xbe17c431	-0.14820935
148	0x3e3adefc	0.18249124
149	0x3dd9e915	0.1064016
150	0x3d9501d1	0.07275737
151	0xbdf62acb	-0.12019881
152	0x3d1012e3	0.03517426
153	0x3dc87d99	0.09789581
154	0x3e40abdf	0.18815564
155	0x3ed6c052	0.41943604
156	0xbdc64add	-0.09682248
157	0x3d633716	0.055472456
158	0x3e9594c3	0.2921506
159	0x3ee39504	0.44449627
160	0xbd65b8f4	-0.05608459
161	0x3e624fa6	0.22100696
162	0xbd7046aa	-0.05866114
163	0x3e9e335d	0.30898562
164	0xbe1736fc	-0.14767069
165	0x3e9d1b1a	0.3068474
166	0x3d8436cf	0.064557664
167	0x3d35494e	0.044259362
168	0x3dad0c05	0.08449558
169	0x3e8954df	0.26822564
170	0x3e0d034b	0.13770787
171	0x3e841095	0.257939
172	0x3d692f2b	0.05692975
173	0x3cc5e58b	0.024157306
174	0x3e466313	0.19373731
175	0x3ea32d32	0.3187042
176	0x3e03f970	0.12888122
177	0xbddf8004	-0.10913089
178	0xbe0cad11	-0.13737895
179	0xbe7aff3b	-0.24511425
180	0x3d310be6	0.043224238
181	0xbd8e35ea	-0.06943877
182	0xbe2c5561	-0.16829444
183	0xbe2a0846	-0.16604719
184	0xbdcc3e29	-0.099727936
185	0xbd18fcd9	-0.03735051
186	0x3a117c0f	0.0005549797
187	0xbe143a9d	-0.14475484
188	0x3ea1d030	0.31604147
189	0xbe1cc423	-0.15309195
190	0xbe5530d4	-0.20819408
191	0xbe42cd02	-0.19023517
192	0xbe6ab465	-0.22920378
193	0xbea870b8	-0.32898498
194	0xbdc3ce24	-0.095608026
195	0x3f0387bb	0.51378983
196	0xbec147c5	-0.37750068
197	0x3ba4753a	0.0050188573
198	0x3d338aca	0.04383353
199	0xbe255bae	-0.16148254
200	0x3d49b02b	0.049240272
201	0xbe0d973b	-0.13827221
202	0x3e91828c	0.28419912
203	0xbd8673ac	-0.065650314
204	0xbe3239f8	-0.17404926
205	0x3ec436cf	0.38323066
206	0x3e607f87	0.21923648
207	0xbe867121	-0.26258186
208	0x3d1bf0d6	0.038071476
209	0xbd45c79a	-0.048286058
210	0xbd861183	-0.06546309
211	0x3df92a54	0.121662766
212	0x3ebf0188	0.37305856
213	0xbedc1839	-0.4298723
214	0xbdaa9d4b	-0.083307825
215	0x3d5791e9	0.052629385
216	0x3e5836a7	0.21114598
217	0xbe0a85c0	-0.13527584
218	0x3d17818a	0.036988772
219	0xbec1b33e	-0.37832063
220	0xbe10d986	-0.14145479
221	0xbecdfee8	-0.4023354
222	0x3ecae87e	0.39630502
223	0xbf2a04b4	-0.66413426
224	0xbcef5aa1	-0.02921802
225	0xbe9ff1f5	-0.31239286
226	0x3cfb1fa9	0.030654745
227	0xbe5d8fc7	-0.21636878
228	0xbe598cc5	-0.21245106
229	0x3eeaa7c5	0.45831123
230	0xbe8c0f9f	-0.27355668
231	0xbd89e994	-0.067340046
232	0xbe171b3f	-0.14756487
233	0x3dd21a7e	0.10258959
234	0x3e91e4e4	0.28494942
235	0xbdad353e	-0.08457421
236	0xbe04cc2d	-0.12968512
237	0xbdb1fc2b	-0.08690675
238	0xbd8f8bdf	-0.070091
239	0x3eb4d860	0.3532133
240	0xbc2848ab	-0.010271232
241	0xbd0d8fa5	-0.03456082
242	0x3e7d46c9	0.24734034
243	0xbd063ed1	-0.03277475
244	0xbe7d00cf	-0.2470734
245	0xbf032c96	-0.5123991
246	0x3e1994d4	0.1499818
247	0xbd714612	-0.058904715
248	0x3d7178fd	0.058953274
249	0xba8ab852	-0.0010583496
250	0x3dade6dc	0.084912986
251	0xbe7f92c7	-0.24958335
252	0x3e8e9d02	0.27854162
253	0xbeee18a3	-0.4650317
254	0xbddb47dd	-0.10707066
255	0xbd67fea7	-0.05663934

affine_layers.0.bias f4 [64]
0	0xbe9e38c7	-0.30902693
1	0xbee27424	-0.44229233
2	0x3ec767b3	0.38946304
3	0xbf569679	-0.83823353
4	0xbe926267	-0.285907
5	0xbc655e7d	-0.013999579
6	0x3f5b1439	0.8557773
7	0x3e0eec56	0.13957343
8	0xbebb2ab5	-0.3655602
9	0x3e97da95	0.29658952
10	0x3f24d88c	0.64392924
11	0x3f024ea0	0.5090122
12	0x3f316653	0.6929676
13	0xbce01062	-0.027351562
14	0x3e88fb71	0.26754335
15	0x3e980232	0.29689175
16	0x3ee7b450	0.45254755
17	0xbec22e2a	-0.37925845
18	0x3d8f72f9	0.07004351
19	0xbd59ebcd	-0.053203393
20	0x3e2ddf10	0.16979623
21	0x3f1bcbbb	0.60857743
22	0x3f2f8f7d	0.6857832
23	0xbe5dd045	-0.2166148
24	0x3e2a8329	0.16651596
25	0xbe418a3f	-0.18900393
26	0xbf3fe6a6	-0.74961317
27	0xbd224aad	-0.039621998
28	0xbe9d236e	-0.30691093
29	0x3e114341	0.14185812
30	0xbdcb4c59	-0.099266715
31	0x3e4bfb7b	0.19920151
32	0x3e8f8559	0.28031424
33	0x3f4f625e	0.8100947
34	0x3e96d712	0.2946096
35	0xbf51ab0c	-0.8190162
36	0xbef8c645	-0.48588768
37	0x3e1b4de6	0.15166435
38	0x3ed98320	0.42482853
39	0x3edbfe84	0.42967618
40	0xbf511dfa	-0.81686366
41	0xbf168eb5	-0.58811504
42	0xbeaf32ec	-0.34218538
43	0x3f05a0b5	0.52198344
44	0xbe40a8ac	-0.18814343
45	0xbda8314c	-0.08212528
46	0x3e327c5f	0.17430256
47	0xbe71ab36	-0.23600468
48	0x3f5758a9	0.8411966
49	0x3d3efe1d	0.04662906
50	0x3d3507dc	0.04419695
51	0x3f317053	0.6931202
52	0x3f28950c	0.6585243
53	0xbf000ff8	-0.50024366
54	0x3f4facb8	0.8112292
55	0x3e4704d8	0.19435441
56	0x3e93a7c9	0.28838947
57	0x3f358a79	0.7091442
58	0x3ef73d24	0.48288834
59	0x3e9d9e94	0.30785048
60	0xbcad4238	-0.02114974
61	0xbebb4d02	-0.3658219
62	0x3eea55b8	0.45768523
63	0xbd51f8c9	-0.05126265

affine_layers.1.weight f4 [64, 64]
0	0xbebb4ea5	-0.3658344
1	0xbe4ba56f	-0.19887327
2	0xbd857934	-0.06517258
3	0x3ecb2488	0.3967631
4	0x3e4c252f	0.1993606
5	0x3bdd7587	0.006758395
6	0x3e227e1c	0.1586842
7	0x3d70285c	0.05863224
8	0xbe93f57e	-0.28898233
9	0x3da1f028	0.07907134
10	0xbef8dd67	-0.48606417
11	0xbee86111	-0.45386556
12	0x3d21e721	0.039527062
13	0xbe80246d	-0.2502779
14	0xbe3c2ce6	-0.18376502
15	0xbbc14e01	-0.0058991914
16	0x3db0c1c1	0.086307056
17	0xbe60c41c	-0.2194981
18	0x3e37d857	0.17953621
19	0xbc99c472	-0.01877043
20	0x3e91c609	0.284714
21	0xbd6d29ac	-0.05790107
22	0xbdcd584a	-0.100266054
23	0x3eb229d0	0.34797525
24	0x3dc82ded	0.09774385
25	0xbdf4e461	-0.11957622
26	0x3e15256d	0.14565058
27	0x3d9c6315	0.07636086
28	0xbe037e74	-0.12841207
29	0x3bdefc32	0.0068049664
30	0xbebf4162	-0.3735457
31	0xbe800e09	-0.25010708
32	0xbed645a8	-0.41850019
33	0xbd915455	-0.07096163
34	0xbde0e4c9	-0.10981137
35	0x3e0f3cc8	0.1398803
36	0x3e1f0231	0.1552818
37	0xbdb594cb	-0.08866271
38	0x3d82a3ce	0.063788995
39	0xbe97145b	-0.29507717
40	0xbd324875	-0.04352613
41	0x3e055afa	0.13022986
42	0x3eae1e77	0.34007618
43	0x3e0ac81b	0.13552897
44	0xbc0738a2	-0.008253248
45	0xbd6326b5	-0.055456836
46	0xbe690077	-0.22754084
47	0x3e5f8355	0.21827443
48	0x3ea1820f	0.3154454
49	0xbe7cbad1	-0.2468064
50	0xbd3dd4ec	-0.046345636
51	0x3cb06d21	0.021536412
52	0xbd89c311	-0.06726659
53	0x3ef3d75c	0.47625244
54	0x3ca9e4dd	0.020739013
55	0x3e08942d	0.13337775
56	0xbdf13650	-0.117779374
57	0x3e62202f	0.2208259
58	0xbe1962fe	-0.14979169
59	0x3e0cdc1f	0.13755845
60	0xbf18afbf	-0.5964317
61	0x3dd88050	0.10571349
62	0xbd3cd1be	-0.046098463
63	0xbe8f0a2b	-0.27937445
64	0xbe927dc2	-0.2861157
65	0x3e92c34d	0.28664628
66	0x3e2e9c5a	0.17051831
67	0xbe527461	-0.20552208
68	0x3e2b948f	0.1675589
69	0xbddce4cb	-0.10785826
70	0x3dc23c9f	0.09484219
71	0x3e59a55d	0.21254487
72	0xbe29472c	-0.16531056
73	0x3dc1c88a	0.09462078
74	0xbe3b9c04	-0.18321234
75	0x3dadeef2	0.08492841
76	0xbdb87727	-0.090071015
77	0x3eb414b3	0.35172042
78	0x3e291dce	0.16515276
79	0x3cc8e891	0.024524959
80	0x3e950774	0.2910725
81	0x3e9eb5f9	0.3099821
82	0xbe115f05	-0.14196403
83	0xbeb837a0	-0.35979939
84	0xbf05a8e6	-0.52210844
85	0x3cf810da	0.030281473
86	0x3e62e3ee	0.22157261
87	0xbe1ae0c8	-0.1512481
88	0xbec03374	-0.37539256
89	0xbceb8d54	-0.028753914
90	0xbebcea18	-0.3689735
91	0x3d57e627	0.052709725
92	0x3c92b3ec	0.017908059
93	0x3e8ff517	0.28116676
94	0xbe7033ce	-0.23457262
95	0xbe67b556	-0.22627768
96	0xbe7d9766	-0.24764785
97	0xbe9d2d42	-0.3069859
98	0x3dfb1d35	0.1226143
99	0xbf02ab80	-0.5104294
100	0xbde14d2b	-0.11001047
101	0x3dac6d1f	0.08419251
102	0x3ee438e2	0.44574648
103	0xbda24a6c	-0.07924351
104	0x3e799e94	0.24376899
105	0xbca073d6	-0.019586485
106	0x3e8b6962	0.27228838
107	0x3f04dc17	0.5189833
108	0xbec14ae7	-0.37752458
109	0x3e7a7253	0.24457674
110	0xbe8b62cf	-0.27223822
111	0xbd32e284	-0.043673053
112	0x3e81d240	0.2535572
113	0xbe32b8e7	-0.17453347
114	0x3e5fdc58	0.21861398
115	0xbe329e32	-0.17443159
116	0x3e7668bb	0.24063389
117	0x3e240bb4	0.1602009
118	0x3ec1926a	0.37807018
119	0x3f0da2bc	0.5532644
120	0xbe3d3362	-0.18476632
121	0xbe2f4585	-0.17116363
122	0x3bb35de1	0.0054738377
123	0x3f01a48e	0.50641716
124	0x3cfcb971	0.030850144
125	0x3e03468c	0.1281988
126	0xbe5535d7	-0.2082132
127	0x3d84aa5b	0.06477805
128	0xbe8e9ac7	-0.2785246
129	0x3e4e73a9	0.20161308
130	0x3f05881b	0.52160805
131	0x3e7ee117	0.24890552
132	0x3e0b903b	0.13629238
133	0x3df70352	0.1206118
134	0x3d40b993	0.047051977
135	0xbe7ce53a	-0.24696818
136	0xbea247bd	-0.31695357
137	0xbe2f9068	-0.1714493
138	0xbec79559	-0.3898113
139	0x3c1af225	0.009457146
140	0x3bc7554a	0.0060831653
141	0xbc50ff3c	-0.012756165
142	0xbd5aa8c3	-0.0533836
143	0xbd0affb4	-0.033935264
144	0x3e92bb5a	0.28658563
145	0x3b88b292	0.004171678
146	0x3e81718c	0.25281942
147	0xbe2d6706	-0.16933832
148	0x3e7ff55e	0.24995944
149	0xbe154840	-0.14578342
150	0xbc1f9ff6	-0.0097427275
151	0x3dd39a0d	0.10332117
152	0x3dbd9347	0.092566065
153	0xbc477eaa	-0.012176195
154	0x3d183f8a	0.03716997
155	0xbd65730a	-0.056017913
156	0x3e108882	0.14114574
157	0xbd032714	-0.03201969
158	0xbe78bb9f	-0.24290322
159	0x3d4e07ed	0.050300527
160	0xbe2ff2f8	-0.17182529
161	0xbe064410	-0.13111901
162	0xbe3288e4	-0.17435032
163	0x3ea0aa8d	0.3138012
164	0xbcbdd837	-0.023174388
165	0x3dca14cf	0.0986725
166	0x3e384292	0.17994145
167	0x3d53533b	0.051593047
168	0x3ef80ccf	0.48447272
169	0xbd7fe39b	-0.06247292
170	0x3d1de96e	0.038552694
171	0xbdb06bec	-0.086143345
172	0x3f145b9a	0.5795227
173	0xbe9f164e	-0.31071705
174	0x3e721cda	0.23643818
175	0xbe27da6c	-0.16391915
176	0xbedb142c	-0.42788827
177	0xbd994348	-0.07483536
178	0xbf0219ea	-0.5082079
179	0x3dfecc93	0.12441363
180	0xbdffa503	-0.12482645
181	0x3d9b946b	0.07596668
182	0xbe2e9e6f	-0.17052625
183	0xbe95df6b	-0.29272017
184	0xbe41c375	-0.18922217
185	0x3d3bb12e	0.04582327
186	0xbf218572	-0.63094246
187	0x3e7d4886	0.24734697
188	0x3c0700f0	0.00823997
189	0x3dbed066	0.093170926
190	0x3dbf4b8a	0.0934058
191	0x3e8cc443	0.27493486
192	0xbd058bda	-0.032604076
193	0x3e43fe36	0.19139943
194	0x3eb75338	0.35805678
195	0xbe46eb54	-0.19425708
196	0x3daef91a	0.08543606
197	0x3e268f0a	0.16265503
198	0x3f01e74b	0.5074355
199	0xbe00cc52	-0.12577942
200	0xbdd0b034	-0.10189858
201	0xbece7c1c	-0.40329063
202	0x3e05cced	0.13066454
203	0x3cc0f79a	0.023555566
204	0x3ef991ef	0.4874415
205	0x3b1cea90	0.002394352
206	0xbe31af1f	-0.1735196
207	0x3e1194b2	0.14216879
208	0x3d038a42	0.032114275
209	0xbdb65114	-0.08902183
210	0x3e42fdd9	0.19042148
211	0x3edd785e	0.43255895
212	0x3c17e315	0.009270449
213	0x3e85d7c4	0.2614118
214	0x3f34cb3c	0.7062261
215	0xbf344c90	-0.70429325
216	0xbee0503c	-0.43811214
217	0xbe64584b	-0.22299306
218	0x3e409be4	0.18809468
219	0x3da30d3f	0.07961511
220	0xbefe7c93	-0.49704418
221	0xbe35f16a	-0.17767873
222	0xbd66d304	-0.056353584
223	0xbe837401	-0.2567444
224	0x3d24b799	0.040214155
225	0x3e8d508b	0.27600512
226	0x3ce2e3d5	0.02769653
227	0xbcf9e274	-0.03050349
228	0xbddb4907	-0.10707288
229	0x3ede1c45	0.43380943
230	0x3dac6e98	0.084195316
231	0xbd48f0ad	-0.04905765
232	0x3db5a0c2	0.08868553
233	0xbe3ab240	-0.1823206
234	0xbf14c994	-0.58120084
235	0x3dab66dd	0.08369229
236	0xbe928fdb	-0.28625378
237	0xbd9024a4	-0.07038239
238	0xbdd3f1a2	-0.10348822
239	0xbe9edcea	-0.3102792
240	0xbe23fd1e	-0.16014525
241	0x3ca780fe	0.02044725
242	0xbd50201c	-0.050811872
243	0x3e77540c	0.24153155
244	0xbe68b9c9	-0.22727121
245	0xbeb7702e	-0.35827774
246	0xbd5e4f0a	-0.054274596
247	0xbd4e809d	-0.050415624
248	0x3e24a590	0.16078782
249	0x3e94f113	0.29090175
250	0x3e5705be	0.20998284
251	0x3f13d788	0.5775075
252	0xbaa2b090	-0.0012412239
253	0xbe59042e	-0.21193
254	0x3e142bfd	0.14469905
255	0xbd75f5fe	-0.06004905

affine_layers.1.bias f4 [64]
0	0xbe4e8e05	-0.20171364
1	0x3c3fc10e	0.011703743
2	0xbe68c8b8	-0.22732818
3	0x3ed6ee86	0.41978854
4	0xbef79057	-0.4835231
5	0x3ae0b216	0.0017142917
6	0x3ee91680	0.4552498
7	0xbd2882c1	-0.04114032
8	0xbebf3897	-0.37347862
9	0xbe9e2b5d	-0.3089246
10	0xbe052309	-0.13001646
11	0xbe4cc628	-0.19997466
12	0xbf061677	-0.5237803
13	0xbd364d35	-0.044507224
14	0xbe5163b4	-0.2044819
15	0x3eb5f68e	0.3553967
16	0x3de390c7	0.111115985
17	0x3e2b65f3	0.1673811
18	0x3d57346b	0.052540224
19	0xbc874cdd	-0.016516143
20	0xbdf9b99b	-0.121936046
21	0xbe75e6de	-0.2401385
22	0x3c95cf32	0.018287275
23	0x3e62a08e	0.22131559
24	0x3dad3cf9	0.08458895
25	0xbe23d09b	-0.15997545
26	0x3bc15629	0.0059001637
27	0xbe4b9747	-0.19881926
28	0x3e8d05be	0.27543443
29	0xbc1d7352	-0.009610014
30	0x3f542e93	0.82883567
31	0xbe7fdd76	-0.24986824
32	0x3df0aa0b	0.11751183
33	0x3ecf39cb	0.4047378
34	0x3ef902e8	0.4863503
35	0xbed84825	-0.42242542
36	0x3e9bb8ab	0.30414328
37	0xbc250ce4	-0.010073874
38	0xbea89814	-0.32928526
39	0x3f0c8466	0.54889524
40	0xbe9ab34b	-0.30214915
41	0x3e891cee	0.26779884
42	0xbe1144eb	-0.14186446
43	0x3d41ff45	0.047362585
44	0x3eb5b4e8	0.35489583
45	0x3de52e5d	0.11190484
46	0x3f2d4f58	0.67699194
47	0xbf01b500	-0.5066681
48	0x3ed67af3	0.41890678
49	0x3eb2f4fb	0.3495253
50	0x3deed3a4	0.11661461
51	0xbe883dc3	-0.2660962
52	0x3e5d7453	0.21626405
53	0xbe6374e5	-0.2221256
54	0xbe72fc07	-0.23728953
55	0xbebf8aab	-0.37410483
56	0xbe007958	-0.12546289
57	0x3cee7c84	0.029112108
58	0xbdb9fc4f	-0.09081327
59	0x3f043968	0.51650095
60	0x3ef474cf	0.47745368
61	0xbddc4b5a	-0.1075656
62	0x3e0539dc	0.13010353
63	0xbab7d219	-0.0014024406

final_mean.weight f4 [6, 64]
0	0xbdc84973	-0.09779634
1	0x3e01f827	0.12692319
2	0xbdf7a0aa	-0.12091191
3	0xbe1f1def	-0.15538763
4	0xbe9640e1	-0.29346374
5	0xbd7ce568	-0.061742216
6	0x3d959e35	0.07305566
7	0xbb605baf	-0.0034234335
8	0xbd1c0b40	-0.038096666
9	0xbe83fff3	-0.2578121
10	0xbd9ac6d7	-0.07557457
11	0xbe5ef5c7	-0.21773444
12	0xbbb455c3	-0.0055033877
13	0xbdea5305	-0.11441616
14	0xbb7f33d6	-0.0038940809
15	0x3e0845f9	0.13307942
16	0x3d966cb9	0.07344956
17	0x3d13bf59	0.036071155
18	0x3beb0303	0.00717199
19	0xbdac38c7	-0.08409267
20	0x3dd62e3e	0.10458039
21	0x3bf575b4	0.007490838
22	0x3d248d38	0.04017374
23	0x3e7c0202	0.24610141
24	0xbde1a5f0	-0.11017978
25	0x3d73efa5	0.059554715
26	0xbd88dc74	-0.06682673
27	0x3d03d0a0	0.032181382
28	0xbe999044	-0.29992878
29	0xbc389f8d	-0.011268509
30	0x3e8e1602	0.27751166
31	0xbd3e41b3	-0.046449374
32	0xbdaa5a9b	-0.08318063
33	0x3d4b0c04	0.049572006
34	0xbd9556ef	-0.07291972
35	0x3e79570d	0.24349613
36	0x3df2c67b	0.118542634
37	0xbd4c291b	-0.04984389
38	0xbcf56409	-0.029954927
39	0x3e76af60	0.24090338
40	0xbd097774	-0.033561185
41	0xbe8c327c	-0.27382267
42	0x3dad54e1	0.08463455
43	0xbdb671e4	-0.08908442
44	0x3e0821fe	0.13294217
45	0xbe4ad6a1	-0.19808437
46	0x3dae827a	0.0852098
47	0x3e36cda4	0.17851883
48	0x3dc6cca5	0.097070016
49	0x3eba346b	0.36368117
50	0x3e341d33	0.17589264
51	0xbd83e7d4	-0.06440702
52	0xbc11429e	-0.00886598
53	0xbd0e07fe	-0.03467559
54	0x3e93e672	0.28886753
55	0xbcaa85bb	-0.02081572
56	0x3dae2b80	0.08504391
57	0x3e056da6	0.13030109
58	0x3d546c37	0.051861014
59	0xbe06881f	-0.13137864
60	0x3b017f96	0.0019759885
61	0x3e0fbeb2	0.14037588
62	0xbddedbc6	-0.10881762
63	0x3d47d82a	0.048790134
64	0xbd3841d9	-0.044984672
65	0x3d3ec0b7	0.046570506
66	0xbbb0db33	-0.0053972243
67	0x3cf078ee	0.029354539
68	0xbcafc3fb	-0.021455755
69	0x3d33b709	0.043875728
70	0x3dc79bb2	0.097464934
71	0xbd980103	-0.07422068
72	0x3c63f2d6	0.013912877
73	0x3cc725ac	0.024309956
74	0x3df32ea7	0.118741326
75	0xbd6bb5fd	-0.057546604
76	0xbd88b7b5	-0.06675664
77	0xbcc44f3b	-0.023963561
78	0xbe1bc703	-0.15212636
79	0x3cc36fec	0.02385708
80	0x3dcc2f87	0.099700026
81	0x3dce45e5	0.10071925
82	0xbd1a0d44	-0.037610307
83	0x3da7ad38	0.08187336
84	0xbc7bb0c9	-0.015361973
85	0x3dc8fc0b	0.098136984
86	0xbcbbd781	-0.022929909
87	0x3c6a3eb5	0.014297177
88	0xbb2b904f	-0.0026178544
89	0x3c8dca7a	0.017308462
90	0x3c7561d5	0.014976938
91	0x3e19a9ec	0.15006226
92	0x3d647c47	0.055782583
93	0xbd068993	-0.032846045
94	0x3ef40798	0.47662044
95	0xbb270622	-0.0025485833
96	0x3db46f8e	0.0881034
97	0x3d90d0d7	0.07071083
98	0x3e07765e	0.13228747
99	0x3d95bc1f	0.07311272
100	0xbd39ebff	-0.04539108
101	0xbd38ec6c	-0.045147344
102	0xbdf8f098	-0.121552646
103	0x3e116426	0.1419836
104	0xbd16a586	-0.03677895
105	0xbd00d493	-0.031452727
106	0xbe145f2d	-0.14489432
107	0x3d9048aa	0.070451096
108	0xbcd521e8	-0.026017144
109	0x3dc97667	0.098370366
110	0x3b8d9b3b	0.0043214834
111	0xbea6e488	-0.3259623
112	0xbd2df555	-0.042470295
113	0xbd2b3fa0	-0.041808724
114	0x3bf0ce60	0.0073488206
115	0x3cec9164	0.028877921
116	0x3c280d76	0.010257116
117	0xbdc4ebed	-0.09615312
118	0xbdbc72ae	-0.09201561
119	0xbdb5d761	-0.08878971
120	0x3e267fb2	0.1625965
121	0xbc095cb1	-0.008383916
122	0xbdb401c4	-0.08789399
123	0xbcfc504f	-0.030800013
124	0x3e206592	0.15663746
125	0x3d411240	0.047136545
126	0x3d609862	0.054832824
127	0x3d6c0e61	0.0576309
128	0x3cbc1563	0.022959417
129	0x3d0eb5e1	0.034841422
130	0x3dbff323	0.093725465
131	0x3d4cbc8a	0.049984492
132	0xbea8da5e	-0.329791
133	0xbd8d0ba6	-0.068869874
134	0x3eae3292	0.34022957
135	0x3d436f71	0.0477137
136	0x3c153ab7	0.009108237
137	0xbdf83d3a	-0.12121053
138	0x3da55d91	0.08074487
139	0xbddbbdeb	-0.10729583
140	0xbebf83ed	-0.3740534
141	0x3e56a79c	0.20962375
142	0x3d3361ee	0.043794565
143	0xbd1a87e0	-0.037727237
144	0x3d50626d	0.050875116
145	0x3d18b440	0.037281275
146	0xbe011c38	-0.12608421
147	0xbda150d2	-0.078767434
148	0xbd89cd35	-0.06728593
149	0xbe79986a	-0.24374548
150	0x3d68bd3a	0.056821086
151	0x3d142764	0.03617038
152	0xbde84a34	-0.11342278
153	0x3db43164	0.08798483
154	0x3d1ff109	0.03904823
155	0x3e168b0d	0.14701481
156	0xbc1a358c	-0.009412181
157	0x3daf1160	0.08548236
158	0xbc8f8683	-0.017520195
159	0x3b09fc94	0.002105509
160	0x3c778ea1	0.015109689
161	0xbbbb9c1c	-0.005725397
162	0xbe196864	-0.14981228
163	0xbdd1f18f	-0.10251152
164	0xbd6f43e0	-0.05841434
165	0xbdc8aacb	-0.09798201
166	0x3d6f0755	0.0583566
167	0xbd969982	-0.07353498
168	0xbda520f9	-0.0806293
169	0xbd89f722	-0.0673659
170	0xbcb4577d	-0.022014374
171	0xbdc38127	-0.09546118
172	0x3e8290ed	0.25501195
173	0xbe626909	-0.2211038
174	0xbdce6041	-0.10076953
175	0xbb0402bd	-0.0020143234
176	0xbd68817b	-0.056764107
177	0x3e09662f	0.13417886
178	0x3b672a8e	0.0035273167
179	0x3c67c508	0.014146097
180	0xbc61b037	-0.013774923
181	0x3e1d0877	0.1533526
182	0xbd5303ad	-0.051517177
183	0x3e07d373	0.13264255
184	0xbe31547f	-0.17317389
185	0xbcdddc70	-0.027082652
186	0xbd0a054c	-0.033696458
187	0xbe37c68a	-0.1794683
188	0x3e5f6bcf	0.2181847
189	0x3d1eceb2	0.03877134
190	0xbbaaa2f1	-0.0052074124
191	0x3d3051c8	0.043046743
192	0xbd782220	-0.06057942
193	0xbcba058e	-0.022707727
194	0x3c773dff	0.015090465
195	0x3e1c3459	0.15254344
196	0xbcd5bfff	-0.026092527
197	0xbca97ce7	-0.02068944
198	0x3d2c4236	0.04205533
199	0x3d5bd17a	0.05366657
200	0xbd6c59a3	-0.05770267
201	0x3b9f8008	0.0048675574
202	0xbcc85342	-0.024453763
203	0xbcbc90e0	-0.0230183
204	0x3ddbdd23	0.10735538
205	0xbcd1ab0e	-0.02559426
206	0xbd96ddee	-0.073665485
207	0x3cfd159b	0.030894091
208	0x3c2be011	0.010490433
209	0xbbdc92de	-0.006731375
210	0xbdd73754	-0.105086
211	0x3ce090ea	0.02741285
212	0x3c474fbe	0.012165008
213	0x3d1430cf	0.03617936
214	0x3d8b3b14	0.06798378
215	0xbb835a1a	-0.0040085437
216	0x3bbc71ff	0.005750894
217	0x3d7f2224	0.06228842
218	0xbd8f4785	-0.06996063
219	0xbde627fd	-0.11238096
220	0x3d85246c	0.065010875
221	0x3b8560ca	0.004070376
222	0x3e9a3f7e	0.30126566
223	0xbd024eb2	-0.03181333
224	0x3c355aaf	0.011068984
225	0x3de49d97	0.111628704
226	0x3e7b4a3e	0.2454004
227	0x3d0cc171	0.034364168
228	0x3df845a4	0.12122658
229	0xbc5ed88c	-0.0136014335
230	0xbd04d27b	-0.032427292
231	0x3deb2fe0	0.11483741
232	0x3c76f624	0.015073333
233	0x3c8c1ba3	0.017103022
234	0xbd477c52	-0.048702545
235	0x3d1f2896	0.038857065
236	0x3c2c6f3d	0.010524568
237	0x3c8dada3	0.01729471
238	0x3ec5f048	0.38659883
239	0xbd8f55ad	-0.06998763
240	0xbe016025	-0.12634332
241	0xbd06c113	-0.032898974
242	0xbd819a5d	-0.063282706
243	0x3d4f583f	0.050621267
244	0x3da36239	0.07977719
245	0x3c44844b	0.011994432
246	0x3d0be9e7	0.034158614
247	0xbd2e6336	-0.042575084
248	0x3d13769c	0.036001787
249	0xbda8bd92	-0.08239283
250	0xbdedb34e	-0.11606465
251	0x3dcee126	0.101015374
252	0x3c56d12e	0.013111396
253	0xbcdac8a5	-0.026707003
254	0xbc7c68e9	-0.015405872
255	0x3c93e751	0.018054636

final_mean.bias f4 [6]
0	0x3e1c8ec3	0.15288834
1	0x3e93e71c	0.2888726
2	0xbe047411	-0.12934901
3	0x3ed1ff6a	0.41015178
4	0x3d983f54	0.07433954
5	0x3d0ba3de	0.034091823

exp_avg f4 [64, 17]
0	0xbaf0809e	-0.0018348878
1	0xb8dc3084	-0.00010499454
2	0xba9f44ea	-0.0012151275
3	0xba249123	-0.00062777306
4	0xbaba0793	-0.0014192931
5	0xb89ae33a	-7.3856165e-05
6	0xbae62578	-0.0017558774
7	0xbad17752	-0.0015980995
8	0xb9a1c791	-0.00030857002
9	0xba5d8a5b	-0.00084510975
10	0xba830724	-0.0009996635
11	0xba88b72d	-0.0010430567
12	0x395e523b	0.00021202203
13	0xba3863d3	-0.0007033918
14	0x39afcf3c	0.00033533003
15	0xba117ff7	-0.0005550379
16	0x39970ac1	0.00028808977
17	0x3c06ced0	0.008228019
18	0x395c243b	0.00020994332
19	0x3c233841	0.009962142
20	0xbb4dedf0	-0.003142234
21	0x3b27d4f4	0.0025609108
22	0xbb09bb99	-0.0021016358
23	0x3b893ce0	0.004188165
24	0x3c30997a	0.010778779
25	0xbb0eff0e	-0.0021819505
26	0x3c34508e	0.011005534
27	0xb925640f	-0.00015772901
28	0x3b16d937	0.0023017654
29	0x3b154c56	0.0022781095
30	0xbb58c477	-0.0033076087
31	0xbade8544	-0.0016976972
32	0x3b33b4f2	0.0027421084
33	0xbab9aaba	-0.001416526
34	0xbade8305	-0.0016976303
35	0x3912ffff	0.00014019011
36	0x3a9c0d47	0.0011905812
37	0x387fd770	6.099738e-05
38	0x3a1aa5b2	0.00058993243
39	0xb93f82c9	-0.000182639
40	0xb92813c4	-0.00016029092
41	0x3a55a23d	0.00081494806
42	0xba213a8b	-0.0006150386
43	0xbb6bcb01	-0.0035979154
44	0x3a1c42ce	0.00059608824
45	0xb9aca08d	-0.00032926016
46	0x3abccfc7	0.0014405184
47	0x3a556069	0.00081396714
48	0x382e38ed	4.153785e-05
49	0xba4bb5bf	-0.0007770918
50	0xb9adc540	-0.00033144094
51	0x3c75c26c	0.014999967
52	0xb82abb1d	-4.070542e-05
53	0x3c3a2a76	0.011362663
54	0xbb874495	-0.0041280487
55	0x3b07a2e3	0.0020696453
56	0xbb531e1b	-0.003221399
57	0x3be87abd	0.0070947097
58	0x3c4fd21a	0.012684369
59	0xba40d655	-0.0007356157
60	0x3c8af0b5	0.016960481
61	0x3af75590	0.0018870104
62	0x3b9e62af	0.0048335413
63	0x394e17fb	0.00019654624
64	0xbb88d11d	-0.004175319
65	0xbaddfc28	-0.001693611
66	0x3bed0efc	0.0072344523
67	0xbb460656	-0.003021618
68	0xbbabf64b	-0.0052478663
69	0xbadd8b38	-0.0016902452
70	0xbba07fa7	-0.00489803
71	0x3a8a985b	0.001057397
72	0xbb9a24ef	-0.00470411
73	0x39eb957a	0.00044934062
74	0xbb789b57	-0.0037934387
75	0xbbe0523d	-0.006845741
76	0xbb073125	-0.0020628658
77	0xbba96f00	-0.005170703
78	0xbb6dfddd	-0.0036314644
79	0xbb786cfd	-0.003790676
80	0xbaf0dc6d	-0.0018376239
81	0x3a885cdc	0.0010403651
82	0xb94a12b6	-0.00019271192
83	0xbb4bb44a	-0.0031082802
84	0x3b2a6a2a	0.002600322
85	0xbc083fa9	-0.008315959
86	0x3bb4f56b	0.00552242
87	0xbc4adab1	-0.012381242
88	0x3ba7550d	0.0051065744
89	0x39172b35	0.00014416578
90	0x3bbef029	0.005826969
91	0xbada9f48	-0.001667955
92	0xbca63c63	-0.020292467
93	0x3bad1953	0.00528256
94	0xbc9e3a31	-0.019314857
95	0xba865638	-0.0010249084
96	0xbb09ee7f	-0.0021046696
97	0xbb855fa7	-0.0040702405
98	0x3b954996	0.0045558913
99	0x3a9e9c3a	0.0012101003
100	0xbbaf5573	-0.0053507625
101	0xba35542f	-0.00069171464
102	0xbba3c4aa	-0.0049978094
103	0x3a2bb45a	0.0006550007
104	0xbbae9c7c	-0.005328713
105	0x3a02414e	0.00049688376
106	0xba26c86a	-0.00063622615
107	0x3ae5114d	0.001747647
108	0xbb5b6651	-0.0033477733
109	0xbbd74e36	-0.006570603
110	0x3a954753	0.0011389054
111	0xbb3d39b5	-0.0028873507
112	0xb9b10b9f	-0.0003376873
113	0xbabf660a	-0.0014602554
114	0xbad1cb79	-0.0016006074
115	0x3a23b988	0.0006245603
116	0x39aee6c0	0.00033359788
117	0xba8e856c	-0.0010873503
118	0x39478b5e	0.00019030037
119	0xbb521c0c	-0.0032060174
120	0xbaafa8a0	-0.0013401695
121	0xbb3c0443	-0.0028689064
122	0x39bc616d	0.00035930742
123	0xbad8cbf0	-0.001654027
124	0x3a05f035	0.0005109341
125	0xbb02ba75	-0.0019947563
126	0xb913200d	-0.00014030952
127	0x3a6e11ca	0.000908163
128	0xbacf2224	-0.0015803021
129	0x3ae26ad5	0.001727427
130	0x3a83792c	0.0010030619
131	0x3946246e	0.00018896323
132	0x3a9a6fd4	0.0011782595
133	0xb9bee759	-0.00036411991
134	0x3a724877	0.00092423655
135	0x3984ce59	0.00025330743
136	0x3af9298f	0.0019009578
137	0xba3719b4	-0.0006984726
138	0x393858b7	0.00017580656
139	0xba69f43f	-0.000892464
140	0xba184927	-0.00058092404
141	0xb98bf0b8	-0.00026691495
142	0x3a330f19	0.0006830558
143	0x3ab1d424	0.0013567251
144	0x3a95a1cd	0.0011416018
145	0x3b34d395	0.0027591933
146	0x3a53dd03	0.00080819445
147	0x3a5eb20e	0.000849516
148	0x3a07c590	0.00051792804
149	0xbaeaf83a	-0.001792676
150	0xb8b1abe2	-8.4720334e-05
151	0x3ae7a9a4	0.0017674458
152	0xbad53cf7	-0.0016268779
153	0x3c3c505b	0.011493768
154	0x3a6ef84d	0.0009115979
155	0x3c289be1	0.010291071
156	0xbb730917	-0.0037084275
157	0x3b00aa63	0.0019632808
158	0xbb17aab6	-0.0023142523
159	0x3bf25464	0.007395314
160	0x3c66ebfc	0.014094349
161	0x36a8da7d	5.0322255e-06
162	0x3c67a992	0.01413955
163	0x3b965c5f	0.004588648
164	0x3bbb7c55	0.0057216086
165	0x3b61908b	0.003441843
166	0xbb1c4622	-0.0023845513
167	0xbae8a4f5	-0.0017749356
168	0x3bd8cebf	0.006616443
169	0xbb580dd4	-0.0032967227
170	0x3b76158e	0.0037549469
171	0x3b2f608e	0.0026760432
172	0x3ae7d16c	0.0017686314
173	0x39a972eb	0.00032319812
174	0x3af2f962	0.0018537457
175	0x39f8b94d	0.00047440306
176	0x3b89e554	0.0042082462
177	0xba362d38	-0.0006949487
178	0x3a13a303	0.00056318956
179	0xba87c09f	-0.0010357088
180	0x3a1db49d	0.0006015988
181	0x3ad623d9	0.0016337588
182	0xba18675b	-0.0005813741
183	0x3a169b1a	0.0005745158
184	0x3a195d10	0.0005850354
185	0xb9f50a9d	-0.0004673795
186	0xba2b9bbd	-0.0006546339
187	0x3bd54ff0	0.0065097734
188	0xb9dc70ba	-0.00042045658
189	0x3b9aee9e	0.0047281524
190	0xbae59e92	-0.0017518571
191	0x3b205965	0.0024467346
192	0xbab22512	-0.001359137
193	0x3b041363	0.0020153157
194	0x3b7fb5a0	0.003901817
195	0x38153270	3.5571342e-05
196	0x3bee465e	0.007271572
197	0xb8ca136e	-9.63573e-05
198	0x3a7b8ac6	0.0009595569
199	0x3ab16709	0.0013534735
200	0xba969f5e	-0.0011491587
201	0xb9c6ee03	-0.00037942835
202	0x3ac37d63	0.0014914687
203	0xba501081	-0.00079370296
204	0x3a47d708	0.000762329
205	0x3b400f4a	0.0029305988
206	0x392cb21d	0.0001646955
207	0x3ad61948	0.0016334439
208	0x3afc512e	0.0019250268
209	0x3a87a644	0.0010349234
210	0x3abffa6e	0.0014646777
211	0xbb91e91d	-0.004452838
212	0x3a82813e	0.000995673
213	0xbbb7f782	-0.005614222
214	0xba32cd5f	-0.0006820764
215	0xb923aeac	-0.00015609962
216	0xbac5536f	-0.0015054772
217	0x3aa94eb7	0.0012917136
218	0x39e9aecc	0.00044571457
219	0xbb19060b	-0.002334955
220	0xba1c732f	-0.00059680914
221	0xbba8f3b7	-0.005156006
222	0xbb176d7b	-0.0023106027
223	0xbadc325d	-0.0016799677
224	0xb9d53857	-0.00040668502
225	0xbaa180e1	-0.0012321734
226	0xba8c6f10	-0.0010714252
227	0xbb89e18f	-0.004207797
228	0x3aa588ee	0.0012629309
229	0xbabff633	-0.0014645517
230	0xbaab3c70	-0.0013064276
231	0xb97faecd	-0.00024383813
232	0xba99cd0a	-0.001173408
233	0x39a251a1	0.00030959866
234	0x3a1426ca	0.0005651532
235	0x3a24086b	0.0006257358
236	0xb80d5968	-3.3700286e-05
237	0x3ae3e7ce	0.0017387809
238	0x3c4e44a3	0.012589606
239	0xbb69b9e1	-0.003566377
240	0x3bdc3553	0.006720224
241	0xbbb11ac3	-0.0054048016
242	0xba929aaa	-0.001118501
243	0xbb7834e2	-0.0037873317
244	0x3b990ec8	0.0046709515
245	0x3c6ca6db	0.014444078
246	0x3aa3fb3a	0.0012510784
247	0x3c9dc5dd	0.019259388
248	0x3b972985	0.004613104
249	0x3bbfd5dc	0.0058543514
250	0x3ad86efb	0.0016512567
251	0xbb566c11	-0.0032718221
252	0x3943f15c	0.00018686563
253	0x3c0ced6b	0.008601527
254	0xbb448435	-0.0029986028
255	0x3b32d31e	0.002728648
