src/models/car_ppo_pgd_halfcheetah.model (torch, 147684 bytes, 36 tensors)

affine_layers.0.weight f4 [64, 17]
0	0xbf285f12	-0.65770066
1	0x40005327	2.0050752
2	0xbe865113	-0.2623373
3	0xbde4b56a	-0.111674145
4	0xbd6b4122	-0.057435162
5	0x3ef6fef2	0.48241383
6	0x3ebbdbd5	0.36691156
7	0x3e85ccd5	0.26132837
8	0x3e77d578	0.24202526
9	0xbe8409e5	-0.257888
10	0x3eefb4de	0.46817678
11	0xbe071268	-0.13190615
12	0x3dacacf4	0.08431426
13	0xbca7e12e	-0.020493116
14	0xbe205175	-0.15656073
15	0x3d04b447	0.03239849
16	0x3c957588	0.01824452
17	0x3f11d89e	0.56971157
18	0xbfa3f362	-1.280865
19	0x3e6bf433	0.23042373
20	0x3c08907e	0.008335231
21	0x3d837835	0.06419412
22	0x3e3846d3	0.17995767
23	0xbd833fa9	-0.064086266
24	0x3d22febc	0.039793715
25	0xbe37eacb	-0.1796066
26	0xbe048f94	-0.12945396
27	0xbdf0ba12	-0.1175424
28	0xbe835413	-0.2565008
29	0xbe3cdce4	-0.18443638
30	0xbdc46052	-0.09588684
31	0x3e1acaf0	0.15116477
32	0x3e337363	0.17524485
33	0xbd22253f	-0.039586302
34	0x3eb20cf2	0.347755
35	0x3f82c3c3	1.0215992
36	0xbe9a43d9	-0.3012989
37	0x3e14ddcd	0.14537735
38	0xbe0797ad	-0.13241453
39	0x3e92b6e0	0.28655148
40	0xbe190ac4	-0.14945513
41	0x3d2eca01	0.042673115
42	0xbd7ac2af	-0.06122082
43	0x3f2e3183	0.680443
44	0xbe6e7efb	-0.23290627
45	0x3e8d827c	0.27638614
46	0xbe4cbae8	-0.19993174
47	0x3d04b31b	0.03239737
48	0xbd1ff10c	-0.03904824
49	0xbe50259f	-0.20326851
50	0xbd0ff02a	-0.035141148
51	0xbf653e60	-0.895483
52	0x3f06732d	0.52519494
53	0x3dfc9db2	0.123347655
54	0x3dd02608	0.10163504
55	0xbdacd11f	-0.08438324
56	0x3e5eb65c	0.21749252
57	0x3d6c7751	0.057730976
58	0xbd712459	-0.058872554
59	0xbe5acc0a	-0.21366897
60	0xbed489aa	-0.4151128
61	0x3efb8007	0.49121115
62	0x3eba1bff	0.36349484
63	0x3e3270d1	0.17425849
64	0x3c8b7e5b	0.017028024
65	0x3e410af1	0.1885183
66	0x3e300d30	0.1719253
67	0xbd1e7ebe	-0.03869509
68	0x3edccc72	0.4312473
69	0xbf1d58a7	-0.614634
70	0x3e13fd2d	0.14452048
71	0x3e714dd4	0.23564845
72	0xbd4943a9	-0.04913679
73	0x3c5c9dfb	0.0134654
74	0x3bac5f7b	0.0052604056
75	0x3e92a189	0.28638867
76	0x3d8e531c	0.069494456
77	0x3e3194fe	0.17341992
78	0xbd3af3ba	-0.045642592
79	0xbe3dc0ad	-0.18530531
80	0x3e4ced38	0.20012367
81	0x3d412b7a	0.047160603
82	0xbeab880a	-0.33502227
83	0x3ce65da0	0.028120816
84	0xbdd35a80	-0.10319996
85	0x3f2c9b4e	0.67424476
86	0x3fe659b9	1.7996131
87	0x3b73034b	0.003708082
88	0xbda7c1b0	-0.0819124
89	0xbe6fcee0	-0.2341876
90	0xbdaa027a	-0.083012536
91	0x3d5a66db	0.053320747
92	0xbdc8f6a1	-0.09812666
93	0xbef7aa0f	-0.48371932
94	0x3e57dea1	0.2108102
95	0x3db700fb	0.08935734
96	0x3eb7320e	0.35780376
97	0x3f0153df	0.505186
98	0x3dde1374	0.10843554
99	0x3d183108	0.037156135
100	0xbd2dcb95	-0.04243048
101	0x3ac0e719	0.001471731
102	0x3f1815ce	0.5940827
103	0x3c005deb	0.007834892
104	0xbdd07678	-0.10178846
105	0xbcb7dd72	-0.02244446
106	0x3de31662	0.110882536
107	0x3e773c32	0.24144056
108	0x3e5a6c9a	0.2133049
109	0x3e1758c5	0.14779957
110	0x3f8b26c2	1.0871203
111	0x3e94ccf0	0.29062605
112	0x3e744028	0.23852599
113	0x3e927ad6	0.2860934
114	0x3eba321a	0.3636635
115	0xbc0fbe1b	-0.008773352
116	0x3e24d89d	0.16098256
117	0xbe299c91	-0.16563632
118	0xbe0e7c85	-0.13914688
119	0x3e412e32	0.18865278
120	0x3f126681	0.5718766
121	0x3d112277	0.03543326
122	0x3e33530f	0.17512153
123	0xbd65d30f	-0.056109484
124	0x3ead8de6	0.33897322
125	0xbe0e9f96	-0.13928065
126	0xbdd0619f	-0.1017487
127	0xbe92c23b	-0.2866381
128	0xbe7e78a4	-0.24850708
129	0x3ea01bda	0.3127125
130	0x3e2f689d	0.1712975
131	0x3df28ddc	0.11843464
132	0x3e36d8f3	0.17856197
133	0x3e6c5910	0.2308085
134	0x3e2e82e8	0.17042124
135	0xbe1385b0	-0.14406466
136	0xbe828153	-0.25489292
137	0xbfc524f8	-1.5401907
138	0xbda6f196	-0.081515476
139	0x3dd383b3	0.10327854
140	0xbc8b6c90	-0.01701954
141	0x3e8e5a19	0.27803114
142	0xb9cf5e1a	-0.00039552228
143	0x3d11816d	0.03552382
144	0xbe5c77eb	-0.2153012
145	0xbe87eec0	-0.2654934
146	0xbf1c3f04	-0.61033654
147	0xbeb99bde	-0.3625173
148	0xbeaa794b	-0.33295664
149	0xbc172aed	-0.009226543
150	0xbf01aad9	-0.5065132
151	0xbd96a1a8	-0.07355052
152	0xbc0569f8	-0.008142941
153	0xbf4ed02a	-0.80786383
154	0xbf3ec7a1	-0.7452336
155	0x3ee1e6d8	0.44121432
156	0x3e98783a	0.29779226
157	0x3d19576a	0.03743688
158	0x3df9b3ca	0.12192495
159	0xbd8d5802	-0.06901552
160	0xbe6e821f	-0.23291825
161	0x3dba6cc1	0.091027744
162	0xbf7595dc	-0.9593179
163	0x3e756997	0.2396606
164	0x3e6a3295	0.22870858
165	0xbe985235	-0.2975022
166	0x3d496ff9	0.04917905
167	0x3e7aec9f	0.24504326
168	0xbe88a829	-0.26690796
169	0x3e47481a	0.19461098
170	0xc00ca39c	-2.197486
171	0xbe4f3bad	-0.20237608
172	0x3d5f94a5	0.054585118
173	0xbd3ca2e0	-0.046053767
174	0xbe000a98	-0.12504041
175	0x3daa8eeb	0.08328041
176	0xbd94afef	-0.07260119
177	0xbd5fe0f0	-0.054657876
178	0x3ef2775f	0.47356698
179	0xbf17442e	-0.5908841
180	0x3f33eaa4	0.7027991
181	0xbda29224	-0.0793803
182	0xbead481f	-0.33844087
183	0x3dcf260c	0.10114679
184	0x3a39f1d7	0.0007093227
185	0x3e205ae8	0.15659678
186	0x3ce03c73	0.027372574
187	0x3f1fd3a0	0.6243229
188	0x3d2d0e51	0.04224998
189	0xbe6374c8	-0.22212517
190	0xbe6ad63b	-0.22933285
191	0x3d850069	0.06494219
192	0x3fb1c98e	1.3889635
193	0xbe2954dc	-0.16536278
194	0xbdf3c183	-0.11902144
195	0xbee80d1b	-0.453225
196	0x3dff0c22	0.12453486
197	0x3eb04f32	0.3443542
198	0x3e94b51e	0.2904443
199	0x3e22d4a3	0.15901427
200	0x3cb5d199	0.02219467
201	0x3f471e24	0.77780366
202	0x3d48de85	0.049040336
203	0x3cb1642f	0.021654217
204	0xbd9bbd07	-0.076044135
205	0xc0004117	-2.0039728
206	0xbdb034f1	-0.08603848
207	0x3d0b4d5f	0.034009334
208	0xbd50544a	-0.050861634
209	0xbe4f5f90	-0.20251298
210	0xbd8c1795	-0.068404354
211	0xbc63d07f	-0.01390469
212	0xbd5f9192	-0.054582186
213	0xbe87d5f1	-0.26530412
214	0xbef1b3b7	-0.47207424
215	0xbe14f211	-0.14545466
216	0xbf0f5c86	-0.56000555
217	0xbc1bc97f	-0.00950849
218	0xbd9d48b7	-0.07679885
219	0x3d64ee8d	0.055891562
220	0x3d24f858	0.0402759
221	0x3ea8f806	0.33001727
222	0xbfb1f0de	-1.3901632
223	0xbc3744d8	-0.011185847
224	0x3e8cf57e	0.27531046
225	0xbdf83a2c	-0.121204704
226	0x3df6f3a1	0.12058187
227	0x3d308070	0.043091238
228	0x3d534121	0.051575784
229	0xbe6d5b20	-0.23179293
230	0x3ed87c40	0.42282295
231	0xbf957619	-1.1676666
232	0xbe901e60	-0.28148174
233	0xbee6642a	-0.44998294
234	0xbd17a52e	-0.037022762
235	0xbf25153f	-0.64485544
236	0xbeb59b55	-0.3547007
237	0xbdc3b711	-0.095564015
238	0xbf220f08	-0.63304186
239	0x3f01b8bc	0.5067251
240	0xba232331	-0.00062232005
241	0x3e805ed2	0.25072342
242	0xbe27eaa7	-0.16398107
243	0x3e08d0e3	0.13360934
244	0x3e3c3030	0.18377757
245	0xbe24db34	-0.16099244
246	0x3e4853fc	0.19563287
247	0xbe23a50f	-0.15980934
248	0x3d65ccff	0.056103703
249	0x3f0bd74f	0.5462541
250	0x3eabecf9	0.33579233
251	0x3e6bc21a	0.23023263
252	0x3cc5d389	0.02414872
253	0xbea1f879	-0.31634882
254	0xbe377693	-0.17916326
255	0x3facd555	1.3502604

affine_layers.0.bias f4 [64]
0	0xbf0fb755	-0.5613912
1	0xbfc7f766	-1.5622375
2	0x3fad9a94	1.3562799
3	0x3fdd68af	1.7297572
4	0xbf597826	-0.84948957
5	0x3e8ddc85	0.27707306
6	0xbe862477	-0.26199695
7	0x3fce7506	1.6129463
8	0x3f872ad0	1.055994
9	0x3eeba015	0.4602057
10	0x3f306172	0.6889869
11	0xbf9f3a83	-1.2439731
12	0x3f319cad	0.69379693
13	0x3e6e71eb	0.23285644
14	0x3dc509ea	0.096210316
15	0xbe9e2ae2	-0.30892092
16	0xbec09b61	-0.37618545
17	0x3e3cc269	0.18433537
18	0xbfe9168d	-1.8210007
19	0xbf618bb2	-0.88103783
20	0xbfaba1ee	-1.3408792
21	0x3ecec725	0.4038631
22	0xbfc75753	-1.5573524
23	0xbee0dfd2	-0.4392076
24	0xbef2351f	-0.47306153
25	0xbf628acb	-0.8849303
26	0xbeeb14e1	-0.45914367
27	0xbf077d1a	-0.52925265
28	0xbe3750b6	-0.17901883
29	0xbf50d7e9	-0.8157945
30	0xbf8004c0	-1.000145
31	0xbe1ca416	-0.15296969
32	0x3fb54c08	1.4163828
33	0xbe729291	-0.23688723
34	0x3fc1ac68	1.5130739
35	0xbf6005fa	-0.8750912
36	0x3f8652d0	1.0494022
37	0x3efefb99	0.4980133
38	0x3f59ad6d	0.8503025
39	0xbfaf78f3	-1.3708786
40	0x3f80d54f	1.0065097
41	0x3fc7a5ea	1.5597508
42	0x3e93362a	0.2875226
43	0xbf89fc73	-1.0780166
44	0xbf7ec8d5	-0.99525195
45	0x3fb04b42	1.3772967
46	0xbf906cb1	-1.128317
47	0xbff31f26	-1.8993881
48	0xbf714b8e	-0.9425591
49	0x3f670560	0.90242577
50	0x3ebd0ad3	0.3692232
51	0x3f648634	0.8926728
52	0xbe38d755	-0.18050893
53	0x3f5e1dc1	0.8676415
54	0xbfa55e85	-1.291947
55	0xbedfd23d	-0.43715087
56	0x3f1dffeb	0.61718625
57	0xbf8013ab	-1.0006002
58	0x3f0a12a3	0.5393469
59	0xbfc88aef	-1.5667399
60	0xc005c05f	-2.0898664
61	0x3f5921dc	0.8481729
62	0x3f89dc1a	1.0770295
63	0x3f1f430f	0.622117

affine_layers.1.weight f4 [64, 64]
0	0x3e222da1	0.15837719
1	0x3f69b20b	0.91287297
2	0xbf0b7600	-0.5447693
3	0xbf825d94	-1.0184808
4	0x3ea56851	0.3230615
5	0xbec079bd	-0.3759288
6	0x3e8d87d8	0.27642703
7	0xbf3b76d0	-0.7322817
8	0x3f0c62cf	0.5483827
9	0xbeb0f000	-0.34558105
10	0xbf9efb71	-1.2420484
11	0x3f6d91a2	0.92800343
12	0xbe4fbdf2	-0.20287302
13	0x3f44ce42	0.76877224
14	0xbebab48e	-0.36465877
15	0xbe5e4438	-0.21705711
16	0x3e91924d	0.2843193
17	0x3ce2364d	0.027613783
18	0x3f845419	1.0338165
19	0xbed84898	-0.42242885
20	0x3fb2674d	1.3937775
21	0xbeb20105	-0.34766403
22	0x3f6a11d3	0.9143345
23	0xbdb55775	-0.08854572
24	0x3e98c135	0.29834905
25	0xbc545b77	-0.01296126
26	0x3f3db8a8	0.7410989
27	0x3f3b3335	0.7312501
28	0x3e12e410	0.14344811
29	0x3f311824	0.6917746
30	0x3d9b32cf	0.0757805
31	0xbd9501e0	-0.07275748
32	0xbf1fba1a	-0.62393343
33	0xbed0a513	-0.40750942
34	0xbe5568a5	-0.208407
35	0x3ea2cf48	0.31798768
36	0xbebb5dad	-0.36594906
37	0xbf5e23af	-0.867732
38	0xbebcc647	-0.36870024
39	0x3e01ee3c	0.12688535
40	0x3e867484	0.2626077
41	0xbed9c5d5	-0.42533746
42	0xbf882f59	-1.0639449
43	0x3eba80a1	0.3642626
44	0x3e8edf68	0.2790482
45	0xbdd9e713	-0.10639777
46	0x3e5ee080	0.21765327
47	0x3f17a9b4	0.5924332
48	0x3f21c973	0.6319801
49	0x3ebdf45e	0.371005
50	0x3d20f9e0	0.0393008
51	0xbf172b87	-0.5905079
52	0x3e192d69	0.14958729
53	0xbe188b69	-0.14896931
54	0x3f294b56	0.6613058
55	0x3ec934cf	0.39298102
56	0xbf40ad52	-0.75264466
57	0x3d894709	0.06703002
58	0x3e04db7e	0.12974355
59	0x3f1e90d9	0.6193977
60	0x3f7a8e5a	0.9787346
61	0xbd8c56ab	-0.06852468
62	0xbf58e0ff	-0.84718317
63	0xbe199d43	-0.15001397
64	0xbe2559f0	-0.1614759
65	0x3e3109f8	0.17288959
66	0x3e5c18e4	0.2149387
67	0x3d131ff4	0.035919145
68	0x3f4660f4	0.7749169
69	0xbd95bf91	-0.07311929
70	0x3e59fc0a	0.21287552
71	0xbe9617a1	-0.29314902
72	0xbe6400ef	-0.22265981
73	0x3e14f5fa	0.14546958
74	0xbe560beb	-0.20902984
75	0xbe2dcd44	-0.16972834
76	0xbe457b97	-0.19285427
77	0xbe2d09a8	-0.16898215
78	0x3e6ce68d	0.23134823
79	0x3f290192	0.6601802
80	0xbf73b582	-0.95198834
81	0xbe558054	-0.20849735
82	0x3f15992b	0.5843684
83	0xbe8c1a57	-0.27363846
84	0x3a011ce8	0.0004925267
85	0x3dbccb14	0.092184216
86	0x3e767449	0.24067797
87	0x3f0c6d4c	0.54854274
88	0x3e9d0b66	0.3067276
89	0x3e9bae27	0.30406305
90	0xbda1c91a	-0.07899685
91	0xbf714c0a	-0.9425665
92	0x3ef0e3be	0.47048753
93	0xbf332c97	-0.69989914
94	0x3f8a9865	1.0827757
95	0xbbb0aa1d	-0.005391373
96	0xbed971fe	-0.42469782
97	0x3f34ef60	0.7067776
98	0xbf386db7	-0.7204241
99	0xbe3e0dec	-0.18559998
100	0x3f00efd7	0.50365967
101	0x3e59e2b2	0.21277884
102	0xbe07c7a3	-0.13259749
103	0x3e9de9c3	0.3084241
104	0xbed9575d	-0.42449465
105	0x3ec1ff59	0.37890127
106	0xbdd23afe	-0.10265158
107	0xbef0ce0c	-0.470322
108	0x3e13118a	0.1436216
109	0x3d32d73d	0.0436623
110	0xbe0f11d7	-0.13971649
111	0xbe841e61	-0.25804427
112	0x3e81b66d	0.25334492
113	0xbeb2ba71	-0.34907869
114	0xbfa54068	-1.291028
115	0x3eadc9fa	0.33943158
116	0x3b4c7e58	0.0031203236
117	0x3dcd44f3	0.10022917
118	0xbf109de2	-0.5649091
119	0x3e0d3f79	0.13793744
120	0x3f1a730b	0.6033179
121	0x3ea1811c	0.31543815
122	0xbd7e608d	-0.062103797
123	0x3e90877b	0.28228363
124	0xbde4b3f6	-0.11167137
125	0x3b2ff60c	0.0026849536
126	0xbdd0c562	-0.10193898
127	0xbd9aa4b9	-0.075509496
128	0x3f05b5fb	0.52230805
129	0xbed52e56	-0.41636914
130	0x3ec60b08	0.3868029
131	0x3f24544f	0.64191145
132	0xbf7d29b9	-0.9889179
133	0x3eb14202	0.34620672
134	0xbe8f547d	-0.27994147
135	0x3ef3f957	0.4765117
136	0x3e42e9ed	0.19034548
137	0x3e59b2e6	0.2125965
138	0x3e883878	0.26605582
139	0x3dae5639	0.085125394
140	0x3cd4049c	0.025881104
141	0x3e1cb618	0.15303838
142	0x3eb6b975	0.35688367
143	0xbeb3d4e0	-0.35123348
144	0xbddbd3cb	-0.10733756
145	0x3e4c8ca4	0.19975525
146	0xbe3b1a65	-0.18271787
147	0xbf85e252	-1.0459692
148	0xbecb3cd3	-0.39694843
149	0x3efad480	0.4899025
150	0xbf78c2ef	-0.97172445
151	0xbf32457f	-0.6963729
152	0xbd41327f	-0.047167297
153	0xbebae447	-0.36502287
154	0x3ebee2cd	0.3728241
155	0xbf0339f5	-0.5126031
156	0x3ed4e396	0.41579884
157	0xbedb7dd6	-0.42869443
158	0xbe991427	-0.29898188
159	0xbddbeda4	-0.10738686
160	0xbdec41a6	-0.11535959
161	0x3db20572	0.08692445
162	0x3ef53c86	0.47897738
163	0x3db01b19	0.085989185
164	0x3ed6cba9	0.41952255
165	0x3ea98e0b	0.33116183
166	0xbe0d1e82	-0.13781169
167	0xbf0eed54	-0.55830884
168	0x3f4093ef	0.7522573
169	0xbe5bd358	-0.2146734
170	0x3e9e22eb	0.30886015
171	0xbe085405	-0.13313301
172	0x3daecc79	0.08535094
173	0x3c8e4bf6	0.017370205
174	0xbf3f26c9	-0.74668556
175	0xbee1d12b	-0.44104895
176	0xbdff803e	-0.12475632
177	0x3eae909d	0.34094706
178	0xbdc22a89	-0.09480769
179	0x3e65519c	0.22394413
180	0x3e8e8d7f	0.27842328
181	0x3d9989e3	0.07497003
182	0xbf0dbe5e	-0.553686
183	0xbea5d3ba	-0.32388097
184	0xbc8a015c	-0.016846351
185	0xbf14db43	-0.58147067
186	0x3ed3a201	0.41334537
187	0xbf28cf20	-0.6594105
188	0xbdc7cdd3	-0.09756055
189	0x3ed16e4a	0.40904456
190	0x3f23cfad	0.63988763
191	0x3eeb4aeb	0.45955595
192	0xbdd55b03	-0.1041775
193	0x3f05406e	0.52051437
194	0x3e741def	0.23839544
195	0xbeae8b6d	-0.34090748
196	0x3c5124e9	0.012765148
197	0xbcc76ec3	-0.024344807
198	0x3ed2aa7a	0.41145688
199	0xbf6bddcd	-0.92135316
200	0xbe4530a9	-0.19256844
201	0x3c54addf	0.012980907
202	0xbe8c27e3	-0.2737418
203	0x3f5e710e	0.8689126
204	0x3cc8c86d	0.024509633
205	0x3eab2eb8	0.3343408
206	0x3ec3291d	0.38117304
207	0xbf02dfb5	-0.511226
208	0xbede5faa	-0.4343236
209	0x3f14c6f3	0.5811607
210	0x3c3af8e1	0.011411876
211	0xbeeaaed1	-0.458365
212	0xbe93770e	-0.2880177
213	0xbdaa18b1	-0.08305491
214	0x3f44d6c6	0.7689022
215	0x3e67ddf2	0.22643259
216	0x3db15359	0.086584754
217	0xbf712557	-0.941976
218	0xbe904f2f	-0.28185412
219	0x3f071e97	0.5278105
220	0xbe9255c6	-0.28581065
221	0xb92ce880	-0.00016489811
222	0x3f248438	0.6426425
223	0x3e4f01b9	0.20215501
224	0xbef1ddd4	-0.47239554
225	0xbed98ac6	-0.42488688
226	0xbe018f92	-0.12652424
227	0xbf11031e	-0.5664538
228	0xbb8a2ff8	-0.004217144
229	0xbc8b3eb4	-0.016997673
230	0x3d061e2e	0.032743625
231	0xbe2a8e41	-0.16655828
232	0xbf52a3d0	-0.8228121
233	0x3e3a445f	0.18190144
234	0xbc3d8779	-0.011567944
235	0xbd4ef9cc	-0.050531194
236	0x3f0d4612	0.55185044
237	0x3e9398ad	0.2882742
238	0x3edbb199	0.42908934
239	0x3e67444b	0.22584645
240	0x3ecfbc96	0.40573567
241	0x3f2533c8	0.64532137
242	0x3d68ca0c	0.056833312
243	0xbe36722d	-0.17816992
244	0x3d9422f6	0.07233231
245	0xbf1227fc	-0.5709226
246	0x3d1f6697	0.038916197
247	0x3eea71d4	0.4578997
248	0xbf1fe114	-0.62452817
249	0x3d756467	0.059910204
250	0xbf2a26be	-0.66465366
251	0xbde7fcdc	-0.11327526
252	0x3f879fee	1.0595682
253	0x3f28aabc	0.6588552
254	0xbf089ab9	-0.5336109
255	0xbf0c8559	-0.5489097

affine_layers.1.bias f4 [64]
0	0xbecee73a	-0.40410787
1	0x3f06a820	0.5260029
2	0x3e53318a	0.20624366
3	0xbdf04fbc	-0.11733958
4	0xbf296682	-0.6617204
5	0xbe0e9b18	-0.13926351
6	0x3f59495b	0.84877557
7	0xbd81836e	-0.06323896
8	0x3d8a0b02	0.06740381
9	0xbd9405bf	-0.072276585
10	0xbf1bd18a	-0.60866606
11	0xbebe2788	-0.37139535
12	0x3e1bc7e2	0.15212968
13	0x3f000689	0.5000997
14	0x3ec35f40	0.38158607
15	0xbd720718	-0.059088796
16	0x3d8796a7	0.066205315
17	0xbe08ecd5	-0.13371594
18	0x3edbc8c3	0.42926607
19	0x3d9e1612	0.07719053
20	0x3e1664ca	0.14686885
21	0x3edf2780	0.43584824
22	0xbe180ba4	-0.1484819
23	0xbcd7b475	-0.026331166
24	0xbf049853	-0.5179493
25	0x3e8b738c	0.27236593
26	0x3f07f683	0.5311052
27	0x3ed7333b	0.42031273
28	0xbeb7528f	-0.35805175
29	0xbf253e05	-0.6454776
30	0xbde37346	-0.11105971
31	0x3e179899	0.14804305
32	0x3e88e92f	0.26740405
33	0x3f00f7e2	0.5037824
34	0xbf1b2586	-0.6060413
35	0xbc587a19	-0.013212704
36	0x3f16974c	0.5882461
37	0xbdb9591e	-0.09050201
38	0xbdcc581f	-0.09977745
39	0xbe29bca9	-0.16575874
40	0xbf31ef8b	-0.6950614
41	0x3e110938	0.14163673
42	0xbdf1e6b5	-0.11811582
43	0xbbc67f1a	-0.006057632
44	0x3e73680a	0.23770157
45	0xbe91b0dd	-0.28455248
46	0x3e1e8b21	0.15482761
47	0xbcb15874	-0.021648623
48	0xbee66e9d	-0.45006266
49	0x3cc9bf43	0.024627334
50	0xbed6a4d2	-0.41922623
51	0xbd4ad1fc	-0.049516663
52	0xbf306d13	-0.68916434
53	0x3f169e89	0.58835655
54	0xbe3b5bc6	-0.18296728
55	0x3b92a410	0.004475124
56	0x3e199737	0.1499909
57	0xbc8af9a6	-0.016964745
58	0xbe5b7184	-0.21430022
59	0x3df77250	0.1208235
60	0xbe15372e	-0.1457183
61	0x3dd2fc96	0.10302083
62	0xbe7bc4bf	-0.24586771
63	0x3d22a470	0.0397076

final.weight f4 [1, 64]
0	0x3eae5def	0.3405604
1	0x3ba52e66	0.0050409315
2	0x3cb1359d	0.02163201
3	0x3c865004	0.016395576
4	0xbe3bb395	-0.18330224
5	0x3d7b20b5	0.06131049
6	0x3e873801	0.26409915
7	0x3cce3828	0.025173262
8	0x3b8bdf82	0.0042685876
9	0x3b6037e2	0.0034212996
10	0xbc8bd1eb	-0.01706787
11	0xbeb95f35	-0.3620545
12	0xbe3e645c	-0.18592972
13	0x3e445a38	0.1917504
14	0x3d08e959	0.033425663
15	0xbd1a291e	-0.03763687
16	0x39812fcb	0.00024640406
17	0x3bac5530	0.0052591786
18	0x3d43656d	0.04770415
19	0xbbc1a10f	-0.0059090923
20	0x3bf80116	0.007568489
21	0x3ca379e8	0.01995559
22	0x3c82028a	0.015870351
23	0x3cfeaaad	0.031087244
24	0xbdf91291	-0.121617444
25	0x3c8aa038	0.016922101
26	0xbca18069	-0.019714551
27	0x3d30697a	0.04306934
28	0xbbb33427	-0.0054688635
29	0xbdd3e35e	-0.10346101
30	0xbb59e820	-0.003324993
31	0xbba8bdbd	-0.0051495717
32	0x3e667fbc	0.22509664
33	0x3d2d5bad	0.042323757
34	0xbc1b4e04	-0.00947905
35	0x3c4648dd	0.012102333
36	0x3bab7733	0.0052327155
37	0xbd83f566	-0.064432904
38	0xbc5d565c	-0.013509359
39	0x3abfe789	0.0014641146
40	0xbdb8ef9f	-0.09030079
41	0xbc89afb0	-0.016807407
42	0xbbd6b29a	-0.0065520527
43	0x3ca0fc0f	0.01965144
44	0x3d7dcc46	0.06196239
45	0xbd1cf46d	-0.03831904
46	0x3eb65dcf	0.35618445
47	0xbd5f031c	-0.054446325
48	0xbded1fb1	-0.1157831
49	0x3aded8fa	0.001700192
50	0xbb2b9462	-0.0026180972
51	0x3c5fe387	0.013665087
52	0x3b615f54	0.0034389095
53	0x3cd686be	0.026187297
54	0x3d23ae3f	0.039961096
55	0xbbc83c6e	-0.0061107194
56	0x3c6681e7	0.014069057
57	0x3ad3d836	0.0016162458
58	0x3c3c7ddc	0.011504617
59	0x3c07229f	0.008248
60	0xbc603ca2	-0.013686331
61	0xbc8b8441	-0.017030837
62	0x3af9b4b1	0.0019051043
63	0xbc0658f2	-0.008199917

log_stdev f4 [6]
0	0xbf77e8db	-0.96839684
1	0xbf4dd41a	-0.80401766
2	0xbf3c9c1d	-0.7367571
3	0xbf864344	-1.0489278
4	0xbf7b1c1b	-0.9808976
5	0xbf69d036	-0.9133333

affine_layers.0.weight f4 [64, 17]
0	0x3b2f754f	0.0026772802
1	0x3ed51b93	0.416226
2	0xbdb1600d	-0.08660898
3	0xbd8dcdef	-0.06924044
4	0xbdabc8e0	-0.08387923
5	0x3e90e712	0.28301293
6	0x3c88f76c	0.016719542
7	0x3df6e755	0.12055842
8	0x3dbaf92f	0.09129559
9	0x3e767bb3	0.24070625
10	0xbef2fc95	-0.4745833
11	0xbd7fd48b	-0.062458556
12	0x3e99277c	0.29912937
13	0xbe7042a1	-0.23462917
14	0xba2cc7b8	-0.000659104
15	0xbc3b9af5	-0.011450519
16	0x3d1f63a6	0.03891339
17	0x3eee0509	0.46488217
18	0x3d71e113	0.059052538
19	0x3e18d477	0.14924799
20	0xbeae16e6	-0.34001845
21	0x3d13a083	0.036041748
22	0xbe713e7c	-0.23558992
23	0x3e83ba80	0.25728226
24	0x3e0b3887	0.13595782
25	0x3d1d0daa	0.03834311
26	0xbe2dd40c	-0.1697542
27	0x3e1e02c8	0.15430748
28	0xbccdb590	-0.02511099
29	0x3dd8087c	0.10548493
30	0xbe9eadc3	-0.30991945
31	0x3d8dbc4a	0.06920679
32	0x3e608ed1	0.2192948
33	0x3d1e2008	0.038604766
34	0xbec9cc62	-0.39413744
35	0xbdcac0e1	-0.0990007
36	0xbd21f6c1	-0.039541963
37	0xbdf98041	-0.121826656
38	0x3dbf191d	0.09330962
39	0xbe0036eb	-0.1252095
40	0xbe6343a2	-0.22193769
41	0xbdc97b58	-0.09837979
42	0x3e1163d6	0.1419824
43	0xbd5a72f1	-0.053332273
44	0x3eaa0b8c	0.33211935
45	0xbe919254	-0.28431952
46	0x3d45a42e	0.048252277
47	0xbd8571cf	-0.06515848
48	0xbe57ee69	-0.2108704
49	0x3de86f5a	0.113493636
50	0x3df2b5c8	0.11851078
51	0x3e27d33a	0.1638917
52	0x3d1f922d	0.038957763
53	0xbddc021f	-0.10742592
54	0x3e3c6f32	0.18401793
55	0xbe4e0ae5	-0.20121343
56	0x3e364dc0	0.17803097
57	0x3e894fe8	0.26818776
58	0x3de9d74e	0.11418019
59	0xbcc098e2	-0.0235104
60	0x3e7ea880	0.24868965
61	0x3cbfc296	0.023408215
62	0x3ef12132	0.4709564
63	0xbedae549	-0.42753056
64	0x3e086696	0.13320383
65	0xbdfc2866	-0.12312393
66	0xbce3dcdf	-0.02781528
67	0x3df45d94	0.11931911
68	0x3de75b19	0.112966724
69	0xbd694a0b	-0.05695538
70	0xbdba6d6b	-0.09102901
71	0xbb8433c7	-0.0040344927
72	0x3d8a9443	0.0676656
73	0x3ed0ce29	0.40782288
74	0x3e1faed9	0.15594043
75	0xbe70f451	-0.235307
76	0x3d2c6ea7	0.042097714
77	0x3e1fb02a	0.15594545
78	0xbe598f8f	-0.2124617
79	0xbd35341e	-0.044239156
80	0xbdfda78d	-0.123854734
81	0x3cea16c0	0.028575301
82	0x3ea004e4	0.3125373
83	0x3e34de21	0.1766286
84	0x3e3709bc	0.17874807
85	0xbf0b6939	-0.5445743
86	0x3edb5144	0.42835438
87	0xbca86882	-0.020557646
88	0xbdfe4e76	-0.12417309
89	0xbe407ccd	-0.18797608
90	0xbc76e48a	-0.015069136
91	0x3e0352b8	0.12824523
92	0x3e45e23b	0.19324581
93	0xbe942a0d	-0.28938332
94	0x3d2a9ae7	0.041651633
95	0x3e20f0b6	0.15716824
96	0x3e807fad	0.2509741
97	0x3ddec40c	0.10877237
98	0x3c57e577	0.013177267
99	0x3e0fd4b6	0.14045987
100	0x3e15afba	0.14617816
101	0xbda352b9	-0.079747625
102	0xbe5a3246	-0.2130824
103	0x3cb686db	0.022281101
104	0xbd0b4c42	-0.034008272
105	0xbd8de21c	-0.069278926
106	0x3e20d7d0	0.15707326
107	0x3dda994b	0.106737696
108	0x3df58127	0.119875245
109	0x3e450e17	0.19243656
110	0xbdb5b823	-0.08873012
111	0xbf153395	-0.5828183
112	0x3d73ee98	0.059553713
113	0x3dc34a17	0.09535616
114	0x3bcfb4db	0.0063386983
115	0x3d49fed9	0.049315307
116	0x3e5f0492	0.21779087
117	0x3ec4b8d3	0.3842226
118	0x3d355767	0.044272806
119	0x3e92987c	0.2863196
120	0xbe37515a	-0.17902127
121	0x3cb5c77e	0.022189852
122	0x3d3e69e2	0.046487696
123	0xbe050915	-0.12991746
124	0x3e43dd27	0.19127332
125	0x3e2cfe6b	0.16893928
126	0x3ca363f9	0.019945132
127	0xbc2cb055	-0.010540088
128	0xbd99b090	-0.0750438
129	0xbdcbe407	-0.09955602
130	0xbe886c61	-0.26645187
131	0x3cda0336	0.02661286
132	0x3da59cac	0.080865234
133	0x3e37e464	0.17958218
134	0xbd3937d4	-0.045219257
135	0x3a8b7269	0.0010638955
136	0xbecdca85	-0.40193573
137	0x3f02fb93	0.5116512
138	0xbda661a2	-0.08124091
139	0x3c92e326	0.017930578
140	0xbc985fb5	-0.018600324
141	0xbe5a127f	-0.21296118
142	0x3c2a0c40	0.010378897
143	0xbe08d4dd	-0.13362451
144	0xbe61c19a	-0.2204651
145	0xbe00c661	-0.12575676
146	0xbd9846db	-0.074353896
147	0xbefd33d3	-0.494536
148	0x3eb3d404	0.35122693
149	0xbf00bdb8	-0.5028949
150	0x3f20ce1a	0.62814486
151	0x3e8db9ab	0.27680716
152	0xbb94dbbd	-0.0045427964
153	0x3e5b2164	0.21399456
154	0x3ed157f8	0.40887427
155	0xbd5e7b81	-0.054317
156	0xbe98346b	-0.29727492
157	0x3e70ba91	0.2350867
158	0x3e96a8cc	0.29425657
159	0xbc912de4	-0.017722078
160	0x3d0ad13b	0.033890944
161	0xbdb2179e	-0.08695911
162	0x3e510264	0.20411068
163	0xbd510ae0	-0.05103576
164	0xbd4c50c3	-0.049881708
165	0x3e1743bc	0.14771932
166	0x3d1bca04	0.038034454
167	0x3d8c1586	0.06840043
168	0x3ddd0342	0.10791637
169	0x3d17f133	0.03709526
170	0x3dfaeb78	0.12251943
171	0xbe9dbd57	-0.30808517
172	0x3d5917ea	0.05300132
173	0x3dac478f	0.08412086
174	0xbe1d093b	-0.15335552
175	0xbe859446	-0.26089686
176	0x3d615fd1	0.05502302
177	0xbe1e25fe	-0.1544418
178	0x3ea7919a	0.32728273
179	0xbd77460d	-0.06036954
180	0xbd50349e	-0.05083143
181	0xbb0362bb	-0.0020047862
182	0x3eb1aa1b	0.34700093
183	0x3cdae781	0.026721718
184	0xbd214527	-0.03937259
185	0x3d410809	0.047126804
186	0x3db440fe	0.08801459
187	0xbefdd2c8	-0.49574876
188	0x3e56712c	0.20941609
189	0x3dbb2054	0.091370255
190	0x3d8883dc	0.06665775
191	0xbcd248ff	-0.025669573
192	0xbe3a18e7	-0.18173562
193	0x3d73d1f1	0.059526388
194	0x3e817ae7	0.2528908
195	0x3d787ec8	0.060667783
196	0x3dcd70fc	0.10031316
197	0xbd26321e	-0.04057514
198	0xbea358d9	-0.31903723
199	0x3ecde64c	0.40214765
200	0xbe7d08d0	-0.24710393
201	0x3ec97ef0	0.39354658
202	0x3d1c0551	0.038091008
203	0xbe6ba2b3	-0.23011284
204	0x3d275612	0.040853567
205	0xbe65e413	-0.22450285
206	0x3dcdb475	0.10044185
207	0xbedd2967	-0.4319565
208	0x3e818c3b	0.253023
209	0xbde39370	-0.11112106
210	0x3deb69e1	0.11494804
211	0x3d940818	0.07228106
212	0xbe8872d8	-0.2665012
213	0xbce8f5c9	-0.028437512
214	0x3e0ab6f0	0.13546348
215	0x3d3290fd	0.043595303
216	0x3eab0e73	0.3340946
217	0xbd4f9227	-0.05067649
218	0xbe75b58a	-0.23995033
219	0x3e767f63	0.24072032
220	0xbe699646	-0.22811231
221	0x3eb4f384	0.35342038
222	0xbe5bfbf7	-0.21482836
223	0xbe849798	-0.25896907
224	0xbe992a91	-0.29915288
225	0x3e421f0e	0.18957159
226	0xbeddb1e3	-0.4329978
227	0xbe83e69f	-0.25761887
228	0x3dda813a	0.10669179
229	0x3d28283d	0.041054
230	0x3e829a89	0.25508526
231	0xbdaf8cd8	-0.08571786
232	0xbd788b93	-0.060679983
233	0x3e143149	0.14471926
234	0xbe24db51	-0.16099288
235	0x3c8bc859	0.017063307
236	0xbd3d019d	-0.046144117
237	0xbe23a6f0	-0.1598165
238	0x3d8296ba	0.06376405
239	0x3f4ae7d8	0.79260015
240	0x3e23de7f	0.16002844
241	0xbeedae16	-0.4642188
242	0x3a8851ba	0.0010400333
243	0xbeaf477c	-0.34234226
244	0xbdf1827e	-0.117924675
245	0x3d6f2c44	0.058391824
246	0xbe409a9c	-0.18808979
247	0xbe37410d	-0.17895909
248	0x3d41591a	0.047204114
249	0xbdb3d9de	-0.08781789
250	0xbcb1f161	-0.021721544
251	0xbe59244d	-0.21205254
252	0xbd419cf3	-0.04726882
253	0x3e191f7c	0.14953417
254	0xbe3c420a	-0.18384567
255	0xbf097a9a	-0.537027

affine_layers.0.bias f4 [64]
0	0x3c73182f	0.014837309
1	0xbe1fbe72	-0.15599993
2	0xbeb2a892	-0.34894234
3	0xbe102521	-0.14076664
4	0xbd0ec5dc	-0.034856662
5	0xbeed9787	-0.4640467
6	0xbe880672	-0.26567417
7	0xbed32caa	-0.41245013
8	0x3c8bd19b	0.017067721
9	0xbc650edf	-0.013980596
10	0x3e823af5	0.25435606
11	0x3cacd810	0.02109912
12	0xbdd1d839	-0.10246319
13	0x3e0a23ef	0.1349027
14	0xbe0f3f88	-0.13989079
15	0xbde0706c	-0.10958943
16	0x3d966700	0.073438644
17	0xbed2e3e7	-0.411895
18	0xbe64f810	-0.22360253
19	0xbe40fb3e	-0.18845841
20	0xbde402f7	-0.11133378
21	0x3e51efcf	0.20501636
22	0x3e3289e4	0.17435414
23	0xbe533873	-0.20627002
24	0x3e947cc8	0.2900145
25	0x3e929152	0.28626496
26	0xbe4aebd8	-0.1981653
27	0x3e83272b	0.2561582
28	0xbe841d96	-0.25803822
29	0x3e38ac17	0.18034397
30	0xbcfe6795	-0.031055251
31	0xbcbae00a	-0.022811908
32	0x3e516eb9	0.20452394
33	0xbd0823ba	-0.033237197
34	0xbebf2269	-0.3733094
35	0xbdc871ea	-0.097873524
36	0x3e2c428c	0.1682226
37	0xbe852e8b	-0.26012072
38	0x3e56904b	0.20953481
39	0x3e285195	0.16437371
40	0xbdf35eee	-0.11883341
41	0x3e69104f	0.22760127
42	0x3ef190a0	0.47180653
43	0x3e029a62	0.12754205
44	0xbe5fa9e1	-0.21842147
45	0x3d8aae3e	0.06771515
46	0xbeed8e02	-0.46397406
47	0xbd2eab2c	-0.04264371
48	0x3ec2bafe	0.3803329
49	0xbea72e95	-0.32652727
50	0xbe385ceb	-0.18004195
51	0xbda0b01c	-0.0784609
52	0xbe6f7a67	-0.23386537
53	0x3d763277	0.06010672
54	0x3e9958b3	0.29950485
55	0x3f027492	0.5095912
56	0x3dd9afd8	0.10629243
57	0xbf031446	-0.5120281
58	0xbddd748e	-0.10813247
59	0xbe52167a	-0.20516387
60	0x3db13f97	0.08654707
61	0xbc345b2a	-0.011008063
62	0xbd5b3ab9	-0.0535228
63	0xbe79b8e3	-0.24386935

affine_layers.1.weight f4 [64, 64]
0	0xbdd93de1	-0.106075056
1	0xbd7c9086	-0.061661266
2	0x3e7e46ec	0.24831742
3	0xbea1cac3	-0.31600007
4	0xbdcb3fc0	-0.09924269
5	0x3ede20d4	0.4338442
6	0xbe67d60b	-0.22640245
7	0xbeb7ad51	-0.35874417
8	0x3e6e329f	0.23261498
9	0x3e6565ff	0.2240219
10	0x3c1039e7	0.0088028675
11	0x3e458f1a	0.1929287
12	0x3e6d96dd	0.23202081
13	0xbe53fa20	-0.20700884
14	0x3efb8a4f	0.4912896
15	0x3e5e62bb	0.2171735
16	0x3ebe042b	0.37112555
17	0x3d465126	0.048417233
18	0x3daa175a	0.08305235
19	0xbce0624e	-0.027390625
20	0x3e2cbdd1	0.16869284
21	0xbec99e74	-0.39378703
22	0xbecfbd02	-0.4057389
23	0x3e55389f	0.2082238
24	0x3e39212c	0.1807906
25	0xbe91b541	-0.28458598
26	0xbe3224c1	-0.17396833
27	0xbd01a8e9	-0.031655226
28	0xbe07d909	-0.13266386
29	0xbd558c4a	-0.052135743
30	0xbeb845d2	-0.3599077
31	0x3e557b15	0.20847733
32	0xbdd8083a	-0.10548444
33	0x3ec3acd8	0.38217807
34	0xbd5589e8	-0.05213347
35	0x3e66be9b	0.22533648
36	0xbe2c241b	-0.16810648
37	0xbd971e43	-0.07378819
38	0x3e33c77f	0.1755657
39	0xbd926e88	-0.071499884
40	0x3d092c60	0.033489585
41	0x3d4022af	0.046908077
42	0xbe11058b	-0.1416227
43	0xbe56f93e	-0.20993516
44	0xbe00d24c	-0.12580222
45	0xbe76490f	-0.24051307
46	0x3d636a36	0.055521213
47	0xbf066ba9	-0.52508026
48	0xbd5d1ab8	-0.05398056
49	0x3e4dacb7	0.20085417
50	0xbd9ca1f6	-0.07648079
51	0xbe79a9e9	-0.24381222
52	0x3ce947a5	0.028476546
53	0xbe1d8c92	-0.15385655
54	0xbd547b97	-0.051875677
55	0xbe2df707	-0.16988765
56	0xbed573fb	-0.4169005
57	0x3ec23fab	0.379392
58	0x3dedb7a4	0.11607292
59	0xbe0f561e	-0.13997695
60	0xbe3b08dc	-0.18265098
61	0xbd3ff1ad	-0.04686134
62	0xbe0e1ec1	-0.13878919
63	0xbeabf9de	-0.3358907
64	0x3e873119	0.26404646
65	0x3e604000	0.21899414
66	0xbe67420c	-0.22583789
67	0xbe373978	-0.17893016
68	0x3cc46a9c	0.023976617
69	0xbe1f1074	-0.1553362
70	0xbea47335	-0.32119146
71	0xbea7aa9b	-0.3274735
72	0xbdf2c484	-0.11853889
73	0xbe0d9dbb	-0.138297
74	0x3e41a0be	0.18908975
75	0xbe078211	-0.1323321
76	0xbe24cb4a	-0.16093174
77	0x3e9baa6c	0.3040346
78	0xbe960584	-0.29301083
79	0xbe16849d	-0.14699025
80	0xbd41e8ae	-0.04734104
81	0xbcea3354	-0.028588928
82	0x3e14373f	0.144742
83	0x3daa5536	0.08317034
84	0xbec5cec3	-0.3863431
85	0x3e3351fb	0.17511742
86	0x3c20fa0a	0.009825239
87	0xbd209733	-0.039206695
88	0x3d8a0b2d	0.06740413
89	0xbea81f2c	-0.32836282
90	0xbdac9c74	-0.084282786
91	0xbea96877	-0.33087513
92	0xbdcbb092	-0.099457875
93	0x3e734b89	0.23759283
94	0xbe4b3132	-0.19842985
95	0xbe2c4437	-0.16822897
96	0xbd5c7a48	-0.053827554
97	0x3cf016f9	0.02930783
98	0xbdda241e	-0.1065142
99	0xbe7b09bb	-0.2451543
100	0xbdd192b7	-0.10233062
101	0xbe6c6c81	-0.23088266
102	0x3ea7bd97	0.32761833
103	0x3e647046	0.22308454
104	0xbe671268	-0.22565615
105	0x3e301519	0.17195548
106	0x3ec3f4f5	0.38272825
107	0xbe840bc3	-0.25790223
108	0x3ecf8633	0.40532073
109	0x3ee9fe2e	0.45701736
110	0xbe76d91e	-0.24106261
111	0xbdaaf930	-0.0834831
112	0x3e3e49d7	0.18582855
113	0xbe086809	-0.13320936
114	0x3e9506b2	0.2910667
115	0x3dd87611	0.105693944
116	0xbe8e1890	-0.27753115
117	0xbd9f1785	-0.07768158
118	0x3ccf1a94	0.025281228
119	0x3d3dfc6e	0.046383314
120	0xbde9169b	-0.11381265
121	0xbede27b9	-0.4338968
122	0xbe50a462	-0.20375207
123	0x3d75da3e	0.060022585
124	0x3dce8e27	0.10085707
125	0xbeda5816	-0.4264533
126	0xbe1b1d2d	-0.15147848
127	0xbe8f2779	-0.27959803
128	0x3e71bfc2	0.23608306
129	0x3c96212e	0.018326368
130	0xbe6f2301	-0.23353197
131	0x3e861116	0.2618491
132	0xbe1537cf	-0.1457207
133	0x3c8c9dbb	0.017165055
134	0xbe2a9ae8	-0.16660655
135	0xbc20fcd7	-0.009825907
136	0x3ebc7807	0.36810324
137	0xbe7ce270	-0.24695754
138	0xbe3d3433	-0.18476944
139	0xbcc8b7db	-0.024501732
140	0xbd2fe0ac	-0.042938873
141	0xbe2b3b83	-0.1672192
142	0x3d3da2b4	0.046297744
143	0xbe3fe97f	-0.18741415
144	0xbd9a79c9	-0.0754276
145	0xbcba809a	-0.0227664
146	0xbc8959f8	-0.016766533
147	0xbd0a3d3c	-0.033749804
148	0xbed370f9	-0.4129713
149	0x3e9107d0	0.28326273
150	0x3e08df87	0.13366519
151	0xbd8baf70	-0.068205714
152	0x3e977d3b	0.2958773
153	0xbe24322a	-0.16034761
154	0x3edf2e3e	0.43589967
155	0x3d0ec42b	0.03485505
156	0xbe8dbe8c	-0.27684438
157	0xbd62b43b	-0.055347662
158	0x3dcc6993	0.09981074
159	0x3ea1d0aa	0.3160451
160	0xbd8d632d	-0.06903682
161	0xbe2ccc0c	-0.16874713
162	0x3e84a9de	0.25910848
163	0x3d3fcb8a	0.04682497
164	0xbe267fe0	-0.16259718
165	0x3e8d25b4	0.27567828
166	0x3db1f2fa	0.08688922
167	0xbd56f82d	-0.052482773
168	0x3ea03e29	0.31297424
169	0xbeb4f2e0	-0.3534155
170	0x3dce18ba	0.1006331
171	0x3da44b0a	0.08022125
172	0xbe90b4d2	-0.28262955
173	0xbe147100	-0.14496231
174	0xbdc4ef33	-0.09615936
175	0xbdb69b05	-0.089162864
176	0x3e0c1b27	0.13682233
177	0xbe86da94	-0.26338637
178	0x3c29fd62	0.010375353
179	0xbe155495	-0.14583047
180	0xbe22977c	-0.15878099
181	0xbe7e041f	-0.2480626
182	0xbca0faa2	-0.019650761
183	0x3cb5491a	0.022129584
184	0x3d96af6e	0.07357679
185	0x3dc5efc9	0.09664876
186	0xbe997838	-0.29974532
187	0xbe770b05	-0.24125297
188	0xbbe6c62e	-0.007042668
189	0xbd51a112	-0.051179
190	0x3df257ef	0.11833178
191	0x3bb7f281	0.0056136255
192	0x3e3120ee	0.17297718
193	0xbe834f37	-0.25646374
194	0xbcbbf3cd	-0.022943402
195	0xbe00acba	-0.1256589
196	0x3e5e5700	0.21712875
197	0x3ec529ce	0.38508457
198	0x3ed3ee0e	0.4139256
199	0x3e907d76	0.2822072
200	0x3e151942	0.14560416
201	0x3da8ea99	0.08247871
202	0xbef5e1b5	-0.48023763
203	0xbc37d745	-0.011220758
204	0xbe68e719	-0.22744407
205	0xbe4de3c3	-0.20106415
206	0x3e2431fc	0.16034693
207	0x3e679dec	0.22618836
208	0x3e1397dc	0.14413399
209	0x3bd772f9	0.006574985
210	0x3c80c1c5	0.015717397
211	0xbe04887e	-0.12942693
212	0xbcf3825c	-0.029725246
213	0x3ddaf426	0.10691099
214	0x3cb61928	0.022228792
215	0xbe890830	-0.2676406
216	0x3e581b9f	0.21104287
217	0x3d491c15	0.049099047
218	0xbe5c306d	-0.21502848
219	0xbe22e759	-0.15908565
220	0xbe106d4a	-0.1410419
221	0xbe0e9487	-0.13923846
222	0x3ea29155	0.31751505
223	0xbcffe52e	-0.031237211
224	0x3e2550ac	0.16144055
225	0xbd876275	-0.06610576
226	0xbd4d13dc	-0.050067768
227	0x3e0adc9c	0.13560718
228	0x3e753f0d	0.23949833
229	0x3e439fa9	0.19103874
230	0xbd5bf014	-0.053695753
231	0xbd9a71ad	-0.07541213
232	0xbdbdbec0	-0.09264898
233	0x3d8f2913	0.06990256
234	0x3d44bc21	0.048030976
235	0xbd772a6a	-0.060343184
236	0x3e5922b6	0.21204647
237	0xbdc239f5	-0.09483711
238	0xbe68946f	-0.22712873
239	0xbe3ba76d	-0.18325587
240	0xbc090d2f	-0.00836496
241	0x3d0b2a04	0.033975616
242	0x3e2ce134	0.16882783
243	0x3e80e0a0	0.25171375
244	0x3e5802d0	0.21094823
245	0xbdeb806d	-0.11499105
246	0xbe7b3a45	-0.24533947
247	0xbe4effbb	-0.20214741
248	0x3e20cbd4	0.15702754
249	0x3cf3faa8	0.029782608
250	0x3e86cf72	0.26330143
251	0x3d631e52	0.055448838
252	0x3e16e2bf	0.14734934
253	0x3dd30a3f	0.10304689
254	0xbd1f0878	-0.038826436
255	0xbea10584	-0.3144952

affine_layers.1.bias f4 [64]
0	0xbda140d9	-0.07873697
1	0x3ef5cae0	0.48006344
2	0x3cb15225	0.021645615
3	0xbdc06ae1	-0.093953855
4	0x3dde4e50	0.10854781
5	0xbe8df342	-0.27724653
6	0x3e843a5a	0.2582577
7	0xbc943243	-0.018090373
8	0x3e3f54e3	0.18684725
9	0x3d2c66b5	0.042090137
10	0xbeb12eed	-0.34606114
11	0xbd48f231	-0.049059097
12	0x3dcbc60a	0.09949882
13	0x3d913db5	0.07091848
14	0xbd9f9a25	-0.077930726
15	0x3d594b7b	0.0530505
16	0xbe8770e2	-0.2645331
17	0x3e1e00ed	0.1543004
18	0xbcd7fefe	-0.026366707
19	0x3da68958	0.08131665
20	0xbc853e7b	-0.016265145
21	0xbe0d2f65	-0.13787611
22	0xbe034867	-0.12820588
23	0xbc71a965	-0.014749859
24	0xbd9fa209	-0.07794578
25	0xbbbf344a	-0.0058350908
26	0x3bfc8d7d	0.0077072964
27	0xbd3e5363	-0.046466243
28	0x3e42f79d	0.1903977
29	0xbc8e348d	-0.017359043
30	0xbce08018	-0.02740483
31	0xbdd47d7e	-0.10375498
32	0x3e483252	0.19550446
33	0xbb58a390	-0.0033056475
34	0xbe342db8	-0.17595565
35	0x3c306dcd	0.010768366
36	0xbd087737	-0.033316817
37	0x3b28ceb8	0.002575798
38	0xbe080dcb	-0.13286512
39	0xbdf509cb	-0.119647585
40	0x3eb511c2	0.3536511
41	0x3db88b12	0.090109006
42	0x3e23736b	0.15961997
43	0x3e877441	0.26455882
44	0x3d07888b	0.033089202
45	0xbbda4f3f	-0.006662279
46	0x3eb692d5	0.356589
47	0x3bb929da	0.005650741
48	0xbc5fa03e	-0.013649045
49	0x3dc9f3d0	0.09860957
50	0xbaa46a11	-0.0012543817
51	0x3e38134a	0.17976108
52	0x3a911f1f	0.0011071897
53	0x3eba5f0b	0.36400637
54	0x3e61d3e4	0.22053486
55	0x3e92d1c1	0.28675655
56	0xbd007d86	-0.03136971
57	0xbe4e3a9f	-0.2013955
58	0xbc5fb758	-0.013654552
59	0x3e191f85	0.1495343
60	0x3e69a6dc	0.22817558
61	0x3e1221ad	0.14270659
62	0xbef5fdf3	-0.4804531
63	0xbdb6020a	-0.08887108

final_mean.weight f4 [6, 64]
0	0xbdb986a3	-0.09058883
1	0x3de028eb	0.109453045
2	0xbc4ec928	-0.012621202
3	0x3d249b1f	0.040186998
4	0x3c4cca79	0.012499445
5	0xbd699ee0	-0.05703628
6	0xbad9f58b	-0.0016628964
7	0xbcd58821	-0.026065888
8	0x3a3c2c4b	0.0007178231
9	0x3bd13c3f	0.0063853557
10	0xbdfb4abd	-0.122701146
11	0x393d24bc	0.00018038129
12	0x3d52c33a	0.051455714
13	0xbd0c0a5c	-0.034189567
14	0xbccd44de	-0.025057252
15	0xbb1d6314	-0.0024015354
16	0xbd2e39db	-0.042535644
17	0x3b9b03cf	0.0047306786
18	0xbbf919f2	-0.00760197
19	0x3d2280b0	0.039673507
20	0xbb4ff28b	-0.003173026
21	0x3d09b371	0.033618394
22	0xbcfe868a	-0.031070013
23	0x3ba5afeb	0.0050563714
24	0x3c60ddaf	0.0137247285
25	0xbcd75478	-0.026285395
26	0x3b9d04a6	0.004791814
27	0xbcfde536	-0.030993085
28	0x3dab7642	0.08372165
29	0x3b9f9859	0.004870456
30	0xbd97ee5c	-0.0741851
31	0xbd9c2e86	-0.07626061
32	0x3ac6e727	0.001517509
33	0x3c270d30	0.010196015
34	0x3bca0bb4	0.006165946
35	0x3ce4eece	0.027945902
36	0xbd393cdc	-0.045224056
37	0x3d63233f	0.055453535
38	0xbd3c687e	-0.04599809
39	0xbc72c097	-0.014816425
40	0x3d8d8995	0.06911007
41	0x3bf94453	0.007607022
42	0x3d480714	0.048834875
43	0x3d58389e	0.05278837
44	0x3d7e39cd	0.062066842
45	0xbce9eaaf	-0.028554289
46	0x3d57cba9	0.05268446
47	0x3ca0f7ea	0.019649465
48	0x3c06f3e9	0.008236864
49	0x3a11b39d	0.00055580755
50	0xbc35c21d	-0.0110936435
51	0x3c9bae41	0.01900399
52	0xbc162dac	-0.009166162
53	0x3da1243c	0.07868239
54	0x3d29bb38	0.04143831
55	0x3cef4df0	0.029211968
56	0x3baf2947	0.005345497
57	0xbd3f5db0	-0.046720207
58	0x3c23c0b2	0.009994673
59	0x3d8573d1	0.06516231
60	0xbc2d8fe7	-0.010593391
61	0x3d27c0a7	0.040955212
62	0xbdc2d726	-0.095136926
63	0x3c835a8a	0.016034383
64	0xbd543fdc	-0.051818714
65	0x3da8f11e	0.082491145
66	0x3d5cba5c	0.053888664
67	0x3ccd2603	0.02504254
68	0x3ca21ffc	0.019790642
69	0x3d162905	0.036660213
70	0x3dd731db	0.10507556
71	0x3d599159	0.05311713
72	0x3d01676d	0.031592775
73	0x3ccb454f	0.024813322
74	0xbd1af692	-0.037832804
75	0x3c657bbb	0.01400655
76	0x3ccc8a5c	0.024968319
77	0x3d52b984	0.051446453
78	0x3c8b186b	0.016979417
79	0x3c7fdcc6	0.015616601
80	0x3c90ab25	0.017659733
81	0xbda57ebe	-0.08080815
82	0x3c0b1bec	0.008490544
83	0x3d88b82f	0.06675755
84	0x3ae54deb	0.0017494535
85	0xbe041290	-0.12897706
86	0x3c83762a	0.016047556
87	0x3c1fc636	0.009751847
88	0x3c848955	0.016178766
89	0xbcd490dd	-0.025947982
90	0x3ba50fad	0.005037269
91	0xbbe8d401	-0.007105351
92	0x3cebc18a	0.02877881
93	0x3c2abf3b	0.010421569
94	0x3c6677db	0.014066662
95	0x3c467c50	0.012114599
96	0xbac0078d	-0.0014650688
97	0x3cab9762	0.020946208
98	0x3e057bc5	0.13035496
99	0xbcd64a7b	-0.026158562
100	0x3ce07ad8	0.027402326
101	0xbd5020d4	-0.050812557
102	0x3cd290e6	0.025703859
103	0x3d1a2368	0.037631422
104	0x3cfc7e49	0.030821936
105	0x3d3b624d	0.045748044
106	0xbbf403bf	-0.0074467356
107	0x3c6fdec6	0.014640516
108	0xbdea2641	-0.114330776
109	0x3e13f146	0.14447507
110	0xbe4779a3	-0.19479994
111	0x3bf22b8e	0.007390446
112	0x3c126eb7	0.008937529
113	0x3b95014b	0.0045472733
114	0xbc14d803	-0.009084704
115	0xbc238e6b	-0.009982686
116	0x3cacc6a3	0.021090811
117	0xbcded088	-0.027199045
118	0x3c8df77b	0.017329922
119	0xbbe2e498	-0.006924223
120	0x3c74102f	0.014896437
121	0xbcb734aa	-0.02236398
122	0x3d287ebf	0.0411365
123	0xbc8fa880	-0.017536402
124	0xbd6272ae	-0.05528515
125	0x3c41a5cd	0.011819315
126	0xbc7a4f30	-0.015277669
127	0xbc77b794	-0.015119452
128	0xbb9afcd2	-0.0047298456
129	0xbc85b9d0	-0.016323954
130	0xbd389ce4	-0.045071498
131	0x3baec4d6	0.0053335233
132	0x3bb50ef4	0.005525464
133	0xbcc476fb	-0.023982516
134	0xbd579ef3	-0.05264182
135	0xbc2b74b3	-0.010464835
136	0xbc8eb73c	-0.017421357
137	0xbc047742	-0.008085074
138	0x3b89f1b3	0.004209721
139	0xbc94d2ca	-0.018166918
140	0xbc03e703	-0.008050683
141	0xbc0c274e	-0.008554293
142	0xbc706a56	-0.01467379
143	0xba7ca745	-0.0009637962
144	0xbd2a5168	-0.04158154
145	0x3d5f4dae	0.05451744
146	0xbc50c5c0	-0.01274246
147	0x3ad456fe	0.0016200242
148	0x3c0ed648	0.008718081
149	0x3d8492b8	0.06473297
150	0xbc1bfc97	-0.009520671
151	0xbb9060d6	-0.004406075
152	0xb80354c2	-3.131177e-05
153	0x3c56783c	0.01309019
154	0xbbbf097e	-0.005829989
155	0xbc05347e	-0.008130191
156	0x3d028e02	0.03187371
157	0xba716de1	-0.00092097936
158	0xbd25433c	-0.040347323
159	0xbd540088	-0.05175832
160	0xbaa9be7f	-0.0012950449
161	0x3bfef697	0.0077808606
162	0xbdaae207	-0.083438925
163	0x3d0e0bf3	0.034679364
164	0xbd820ee6	-0.06350498
165	0x3d68bd68	0.056821257
166	0xbd328687	-0.043585327
167	0xbc8abe62	-0.016936485
168	0x3a4dfd23	0.00078578497
169	0xbc3b5fea	-0.011436442
170	0x3c707fa9	0.014678874
171	0x3d4fe822	0.05075849
172	0x3d9ce34b	0.0766054
173	0xbdd50d50	-0.1040293
174	0x3d967b5a	0.07347746
175	0x3c2da267	0.010597802
176	0xbc489bdf	-0.012244194
177	0xbbd8e72c	-0.0066193547
178	0x3d28703e	0.041122667
179	0x3c48fb89	0.012267002
180	0xbcbf3af1	-0.023343535
181	0x3bed2a79	0.007237729
182	0xbc0fac61	-0.008769126
183	0x3bd7b0ad	0.0065823407
184	0xbbd9a525	-0.006642001
185	0x3a378e9e	0.00070021476
186	0x3c69aab4	0.01426189
187	0x3d116fb1	0.035506908
188	0x3d7e883a	0.062141635
189	0x398498e9	0.0002529093
190	0xbd1e48f8	-0.038643807
191	0x3cb92e7a	0.02260517
192	0x3d4f297a	0.050576665
193	0xbdcd6df7	-0.1003074
194	0x3c1122cc	0.008858394
195	0xbd6d19a3	-0.057885777
196	0xbc558d88	-0.013034232
197	0x3e21cdc7	0.15801154
198	0xbc4b6368	-0.012413837
199	0x3cea74dc	0.028620176
200	0x3d880275	0.06641094
201	0x3d39b07d	0.045334328
202	0x3e0a8d65	0.135305
203	0x3d346d6f	0.044049677
204	0x3bab0490	0.0052190498
205	0x3d1e25fa	0.038610436
206	0x3beba694	0.0071914885
207	0x3d3c19cc	0.04592304
208	0xbc064561	-0.008195252
209	0xbcb10610	-0.021609336
210	0xbcb4214d	-0.021988535
211	0xbccc1702	-0.024913315
212	0x3d3c95b7	0.046041217
213	0xbd827668	-0.063702404
214	0x3d3a8e28	0.045545727
215	0xbc75697d	-0.014978764
216	0x3cd58faf	0.02606949
217	0x3d0a05ca	0.033696927
218	0x3cc31836	0.023815256
219	0x3d2b3632	0.04179973
220	0xbdecdacb	-0.11565169
221	0x3c139087	0.009006626
222	0x3d95965e	0.07304071
223	0x3d73571b	0.059409242
224	0xbd54f964	-0.05199565
225	0x3caabcc8	0.020841971
226	0x3cce4bff	0.025182722
227	0xbd86191d	-0.06547759
228	0x3ce3384c	0.027736805
229	0x3d07d8a9	0.033165608
230	0x3e29d858	0.16586435
231	0x3d15c9b6	0.03656932
232	0xbda47b6d	-0.08031354
233	0x3d98a88e	0.07454024
234	0xbcbbe9c4	-0.022938617
235	0xbdfcd642	-0.12345554
236	0xbd2451a7	-0.040116932
237	0x3d74deab	0.059782665
238	0xbdcd6ee7	-0.100309186
239	0xba819c09	-0.0009888421
240	0xbd05ce6b	-0.03266756
241	0xbd2ce1a9	-0.042207394
242	0xbd76709a	-0.06016598
243	0x3ca6d978	0.020367369
244	0x3d901691	0.07035554
245	0xbd46a8b0	-0.048500717
246	0x3ce96ba0	0.028493702
247	0xbd9161fe	-0.07098769
248	0xbbf0d3c2	-0.0073494622
249	0x3d6b87c4	0.057502523
250	0x3d16931a	0.03676138
251	0xbde374fd	-0.11106298
252	0xbc1110af	-0.008854075
253	0xbc795832	-0.015218781
254	0x3d852265	0.06500701
255	0xbd2611ee	-0.040544443

final_mean.bias f4 [6]
0	0x3e4a2641	0.19741155
1	0x3d4513a5	0.048114438
2	0x3d3ad179	0.045609925
3	0xbd931d51	-0.07183326
4	0xbd6bebc6	-0.057597898
5	0xbe2997c8	-0.16561806

exp_avg f4 [64, 17]
0	0x36afbf9e	5.2377136e-06
1	0x36f87dd7	7.4056256e-06
2	0x36927c54	4.3656128e-06
3	0xb7022da2	-7.7592285e-06
4	0x37e2fc60	2.705882e-05
5	0xb6033f57	-1.955739e-06
6	0x38a0269e	7.6365875e-05
7	0x3819bcf5	3.6654023e-05
8	0xb76506d9	-1.3651058e-05
9	0xb8107364	-3.443974e-05
10	0x37a0c032	1.9162984e-05
11	0xb726f658	-9.951727e-06
12	0x38135ef8	3.5135978e-05
13	0xb8919817	-6.942468e-05
14	0x370eb358	8.505616e-06
15	0x37f640e7	2.9355708e-05
16	0x3736e53a	1.0901416e-05
17	0x3887ab3c	6.4691965e-05
18	0xb82e67dc	-4.158156e-05
19	0x393f2579	0.00018229139
20	0xb99fcdb4	-0.00030480104
21	0x37ae1fa3	2.0757148e-05
22	0xb9818388	-0.00024702796
23	0xb94926de	-0.00019183333
24	0xb8a66313	-7.933951e-05
25	0x38f8942f	0.00011853163
26	0x399be93e	0.00029737683
27	0x38aa1683	8.110425e-05
28	0xb838e495	-4.4081902e-05
29	0xb80eaec7	-3.4018212e-05
30	0x37962d42	1.7902468e-05
31	0xb8c07a7f	-9.17809e-05
32	0x389a6b3d	7.363267e-05
33	0x391855bf	0.00014527793
34	0x39476c5c	0.00019018486
35	0xb9852699	-0.00025396494
36	0x3990f65c	0.00027649372
37	0x386a1b6c	5.5815486e-05
38	0x36ed156e	7.065645e-06
39	0xb97dd802	-0.0002420843
40	0xb9075235	-0.00012905228
41	0xb9a73cf0	-0.00031898124
42	0x39c935fd	0.00038377932
43	0xb8570d65	-5.127247e-05
44	0xb88cedb2	-6.7199944e-05
45	0xb9b3b819	-0.00034278704
46	0x39a82de1	0.0003207764
47	0xb9af16bc	-0.0003339554
48	0x39ad00a0	0.00032997597
49	0x39a7a3db	0.00031974804
50	0xb9642aed	-0.00021759766
51	0xba314c0e	-0.0006763347
52	0x3a3a1baf	0.0007099462
53	0xba25ba9d	-0.0006322058
54	0x3988119c	0.0002595306
55	0x38a58fd4	7.894603e-05
56	0x3a388776	0.0007039228
57	0x39fc969e	0.00048177404
58	0x3a204fab	0.0006115387
59	0xba85dc60	-0.0010212772
60	0xbaaebb5a	-0.0013330982
61	0x382cb42f	4.1175805e-05
62	0x39bb6998	0.00035746093
63	0x3707746f	8.073736e-06
64	0x38ceef2c	9.867395e-05
65	0xb80f64ad	-3.418762e-05
66	0xb900062c	-0.0001220933
67	0xb952c17b	-0.00020099238
68	0x394ce4ba	0.00019540163
69	0xb8c494ac	-9.3737006e-05
70	0x391fca00	0.00015238672
71	0xb9849374	-0.00025286863
72	0x389891f2	7.275109e-05
73	0xb8fb748f	-0.000119903234
74	0xb98a9f8a	-0.00026440277
75	0xb8a8e69b	-8.053818e-05
76	0x39146446	0.00014151735
77	0x3a1853ac	0.0005810808
78	0x391c9d6a	0.0001493596
79	0x397f743d	0.00024361997
80	0xb99f9923	-0.0003044094
81	0x3892b9b4	6.9964124e-05
82	0xb96d4d3e	-0.00022630856
83	0xb98f76c7	-0.00027363581
84	0x373f050f	1.1385665e-05
85	0x38f45faf	0.00011652649
86	0xb953c08e	-0.0002019426
87	0x39631682	0.00021656792
88	0x3910d40d	0.00013811905
89	0xb8c105ca	-9.2040355e-05
90	0xb925f492	-0.00015826736
91	0x389c090f	7.440347e-05
92	0xb94c0fa3	-0.00019460781
93	0x3995bb86	0.0002855921
94	0xb8507b20	-4.9705734e-05
95	0xb9033122	-0.00012511437
96	0xb9269536	-0.00015886579
97	0x39817f0f	0.00024699463
98	0xb82786b3	-3.994135e-05
99	0x391937f0	0.00014612055
100	0x39aea41e	0.00033310143
101	0x387c9700	6.022211e-05
102	0xb7c9e7d9	-2.406903e-05
103	0x38d52920	0.000101642916
104	0x37884b68	1.6247577e-05
105	0xb90ee849	-0.00013628708
106	0x38afb14f	8.3776766e-05
107	0x383f0b6f	4.5548597e-05
108	0x3767ad97	1.380909e-05
109	0x3758bb5d	1.2918227e-05
110	0xb91ff572	-0.00015254857
111	0x38348c3c	4.3045948e-05
112	0x3927f97f	0.00016019306
113	0x384a6e62	4.8263355e-05
114	0xb86a58de	-5.587271e-05
115	0x382374f6	3.8971157e-05
116	0xb90fa7a5	-0.00013699995
117	0xb934f0da	-0.00017255862
118	0xb935d757	-0.00017341725
119	0x386abdbb	5.5966648e-05
120	0xb8df3515	-0.00010643356
121	0x390fac65	0.00013701765
122	0x375f5d6e	1.3313589e-05
123	0x3935a8be	0.00017324366
124	0xb8ceb93d	-9.857349e-05
125	0xb82a5563	-4.061068e-05
126	0x383fbbee	4.571297e-05
127	0x38f03e6d	0.000114557195
128	0x390023f3	0.00012220423
129	0xb830b64f	-4.2131458e-05
130	0x38603f6b	5.3464824e-05
131	0xb7c6a082	-2.3678182e-05
132	0x37ae613c	2.0787695e-05
133	0x38008ec2	3.065053e-05
134	0xb85ef01e	-5.315255e-05
135	0xb767b42a	-1.3810621e-05
136	0xb9c22223	-0.00037027997
137	0x398abac1	0.00026460554
138	0xb9ac126c	-0.00032820122
139	0x3919c256	0.00014663613
140	0xb920b381	-0.0001532566
141	0x399458f9	0.0002829505
142	0x38ffb34a	0.00012192743
143	0x39292f7a	0.00016134782
144	0xb9b4c9fe	-0.0003448277
145	0xb9ec2050	-0.00045037502
146	0xb72042fe	-9.552341e-06
147	0x37aa5b4f	2.0308098e-05
148	0xb8e0b320	-0.00010714517
149	0x39344451	0.00017191588
150	0xb895e829	-7.148117e-05
151	0xb9243f51	-0.00015663846
152	0x3939f4fc	0.00017734239
153	0x38d8cb00	0.00010337494
154	0xb859be82	-5.1914256e-05
155	0xb8d29a4d	-0.00010042321
156	0x38fb51f3	0.00011983877
157	0x375275ab	1.2544372e-05
158	0x38b31b4b	8.540469e-05
159	0xb9074883	-0.00012901616
160	0xb7b5c89e	-2.1670301e-05
161	0x38248ca0	3.9231614e-05
162	0x38a486b8	7.845223e-05
163	0xb94cad11	-0.00019519428
164	0x38d83f18	0.00010311435
165	0xb78d8d28	-1.687424e-05
166	0x3838af19	4.403209e-05
167	0x381973d9	3.6585934e-05
168	0xb93acfd2	-0.00017815761
169	0x386e25dc	5.677888e-05
170	0x39f5a50b	0.00046853008
171	0xba0366a0	-0.0005012546
172	0xb8ba589b	-8.885675e-05
173	0x3a20580f	0.00061166374
174	0xb98a65e1	-0.00026397317
175	0x3946035e	0.00018884006
176	0x3762104a	1.3474442e-05
177	0xb9b2dfbd	-0.00034117504
178	0x3a2eb203	0.0006664099
179	0x399473d5	0.0002831506
180	0xb9d454fc	-0.0004049911
181	0x3982f949	0.00024981264
182	0xb96a438c	-0.00022341142
183	0x39a333cc	0.00031128374
184	0x38565a6e	5.1105795e-05
185	0x38ffe7cf	0.00012202525
186	0x39212709	0.00015368698
187	0xb9358ed8	-0.00017314719
188	0x3956ef68	0.00020497816
189	0x39073095	0.00012892701
190	0xb9f59cce	-0.0004684687
191	0x39e033e3	0.00042763268
192	0xb947d18f	-0.00019056186
193	0xb96acf07	-0.00022393103
194	0x3981db0e	0.00024768006
195	0xb9a77aae	-0.00031944126
196	0x39685af9	0.00022159134
197	0x399ffe10	0.00030516135
198	0xb8f69e31	-0.000117596595
199	0xb8e3b7b2	-0.000108584194
200	0x39123da9	0.00013946615
201	0xb95b8678	-0.00020935561
202	0xb9ad0aa0	-0.00033005048
203	0xb94b758b	-0.00019403377
204	0x393d08dd	0.00018027746
205	0xb8ed94aa	-0.000113287315
206	0x38c02f0a	9.164035e-05
207	0xb8206fd0	-3.8251106e-05
208	0x36ebb701	7.02485e-06
209	0xb8856c10	-6.3620624e-05
210	0xb89cadf0	-7.471058e-05
211	0xb86a31e7	-5.5836423e-05
212	0x3914d4cb	0.00014193651
213	0x3970bd70	0.00022958755
214	0xb6c77ab9	-5.944949e-06
215	0x36a749b7	4.9855694e-06
216	0x363e6528	2.8371087e-06
217	0xb82e9522	-4.1623724e-05
218	0xb5960531	-1.1177382e-06
219	0x373d3505	1.1277622e-05
220	0xb882a209	-6.2290645e-05
221	0xba38edc2	-0.00070544716
222	0x39dd8f1e	0.00042259035
223	0xb9a90879	-0.00032240505
224	0x38234be9	3.8932925e-05
225	0x3865f496	5.4825643e-05
226	0x39845844	0.00025242765
227	0x38c7a3e6	9.519588e-05
228	0x3a0969ab	0.0005241881
229	0xba1375f6	-0.00056251825
230	0xb8e083ce	-0.00010705703
231	0x396c5bfd	0.00022540982
232	0x3a0aeffa	0.00053000415
233	0xba1f67ba	-0.0006080825
234	0x3992c069	0.00027990647
235	0xb9f618f3	-0.00046939365
236	0xba34a3aa	-0.0006890843
237	0x394e2040	0.00019657705
238	0xb92c4d84	-0.00016432075
239	0x39448713	0.00018742336
240	0x36aff8d5	5.2443743e-06
241	0xb93c0b59	-0.00017933304
242	0x39466726	0.00018921177
243	0xb8591dee	-5.1764706e-05
244	0x390fc32c	0.0001371025
245	0x3917964a	0.00014456469
246	0xb984f45a	-0.00025359058
247	0xba12ef48	-0.00056051137
248	0x39090f58	0.00013071054
249	0xb7117c91	-8.671676e-06
250	0x38c0bc3a	9.1903334e-05
251	0xb8df3993	-0.00010644193
252	0x3740093b	1.1446241e-05
253	0x389b8d1f	7.417262e-05
254	0xb8c5b027	-9.426503e-05
255	0xb8bcfa2e	-9.011138e-05
